models/gru_model.pt (torch, 44517 bytes, 9 tensors)

gru.weight_ih_l0 f4 [96, 5]
0	0x3e5ba97e	0.21451375
1	0xbe3f1048	-0.18658555
2	0x3dead4c3	0.11466362
3	0x3dc0dd81	0.094172485
4	0x3de11981	0.109911926
5	0xbeea75c7	-0.45792982
6	0x3e526d00	0.20549393
7	0xbd3ffbf4	-0.04687114
8	0x3dc0c13f	0.09411859
9	0x3e57906d	0.21051188
10	0x3d6b7531	0.05748481
11	0xbd20d90e	-0.0392695
12	0x3caa8f09	0.020820158
13	0x3e602f7d	0.21893115
14	0x3d90ce11	0.07070554
15	0xbe462411	-0.19349696
16	0xbe373e5d	-0.17894883
17	0x3dcc810f	0.099855535
18	0x3e1b44e0	0.15162992
19	0x3e81b20a	0.25331146
20	0xbe97664b	-0.2957023
21	0x3e2fe54d	0.17177315
22	0x3d157800	0.036491394
23	0xbd2d077f	-0.042243477
24	0x3dc25302	0.09488489
25	0xbd8fa52f	-0.07013928
26	0x3dfa020e	0.12207423
27	0xbe0f0477	-0.13966547
28	0x3e56a157	0.20959984
29	0x3e539d0c	0.20665377
30	0xbec28cf8	-0.37998176
31	0x3e047844	0.12936503
32	0xbe323331	-0.1740234
33	0x3e15839a	0.14600983
34	0x3ded48ef	0.115861766
35	0xbd26abdd	-0.040691245
36	0xbe01c097	-0.12671123
37	0xbd7fe8b3	-0.06247778
38	0xbda0bc8d	-0.07848463
39	0x3df2fcee	0.11864649
40	0xbdd98b3e	-0.106222615
41	0x3e8144f9	0.25247934
42	0x3d98a86b	0.07453998
43	0xbd9c5804	-0.07633975
44	0x3dc0efc7	0.09420734
45	0x3e908f26	0.28234214
46	0xbbffdeb8	-0.0078085326
47	0x3d6ec24a	0.058290757
48	0x3d40829a	0.04699955
49	0xba5f15ce	-0.0008510024
50	0x3e5963a6	0.21229419
51	0x3e24a285	0.16077621
52	0x3ed47fef	0.41503856
53	0x3e4c132d	0.1992919
54	0xbc9b25f9	-0.018939005
55	0xbe1ae372	-0.15125826
56	0x3e2b1123	0.16705756
57	0xbe5a9cd0	-0.21348882
58	0xbdb0be11	-0.08630002
59	0x3e178093	0.14795141
60	0xbe14b408	-0.14521801
61	0x3e2fbfad	0.17162962
62	0x3c87241d	0.016496712
63	0x3e4734a5	0.19453676
64	0x3d9396cb	0.07206496
65	0x3d1a6ed5	0.037703354
66	0x3d396616	0.045263372
67	0x3e279cc3	0.16368394
68	0x3d83500c	0.06411752
69	0x3dcca21f	0.0999186
70	0xbe18f7e0	-0.14938307
71	0x3cf7df6f	0.030257909
72	0x3e6280a1	0.2211938
73	0x3da849f9	0.08217234
74	0x3dd9f855	0.10643069
75	0x3e2bf06d	0.16790934
76	0x3e1f99a6	0.15585956
77	0xbdc1465d	-0.09437249
78	0xbcc692f6	-0.024239998
79	0x3e5c3882	0.21505931
80	0x3d93ed6f	0.07223021
81	0xbdc35f39	-0.09539647
82	0x3c739ab3	0.014868426
83	0x3e2f1912	0.17099407
84	0x3d505725	0.050864358
85	0xbdb7652d	-0.089548446
86	0x3d2e180b	0.042503398
87	0x3df57b71	0.11986435
88	0x3d94ce7d	0.07265947
89	0x3dd39df7	0.10332864
90	0xbe45b875	-0.19308646
91	0x3d776e11	0.060407702
92	0x3da36b3f	0.0797944
93	0x3e365893	0.17807226
94	0x3e1c489d	0.15262075
95	0xbe8211da	-0.25404245
96	0x3de70544	0.11280301
97	0xbd85b18a	-0.065280035
98	0xbc1548d9	-0.0091116065
99	0x3c809235	0.015694717
100	0xbe8eb80d	-0.27874795
101	0xbdeed6f9	-0.116620965
102	0xbe1b81b6	-0.151862
103	0xbd952aab	-0.07283529
104	0x3e1c84a6	0.15284976
105	0xbeb79a5d	-0.35859957
106	0x3e9e285d	0.3089017
107	0x3d103244	0.035204187
108	0xbb81134a	-0.003939067
109	0x3cf2cad2	0.029637728
110	0x3cbfa047	0.023391856
111	0x3e1da782	0.1539593
112	0x3e2d0810	0.16897607
113	0x3dd8d11d	0.1058676
114	0xbe031878	-0.12802303
115	0x3da04ebe	0.07827519
116	0xbe08ed2f	-0.13371728
117	0x3cb17da1	0.02166635
118	0xbcf036ea	-0.02932306
119	0xbd59c25a	-0.053163864
120	0x3d9a3be1	0.07530952
121	0x3e1865c9	0.14882578
122	0xbaebb72b	-0.0017983665
123	0x3cd4f197	0.025994105
124	0x3d7c038f	0.06152683
125	0x3d8323ea	0.064033344
126	0xbda60c54	-0.0810782
127	0xbe268b88	-0.16264164
128	0x3e3601ef	0.17774175
129	0x3ccfca0d	0.0253649
130	0xbc28daea	-0.010306099
131	0x3dd1b15b	0.10238906
132	0x3dff87e7	0.12477093
133	0x3dc05994	0.09392086
134	0x3de426b2	0.11140193
135	0x3ccea5c8	0.025225535
136	0xbd62dcc9	-0.05538634
137	0x3e3148c7	0.17312919
138	0xbd5524df	-0.052037116
139	0xbcdc1dd2	-0.026869688
140	0xbd4e1df7	-0.050321545
141	0xbddb25e1	-0.10700584
142	0xbca37710	-0.019954234
143	0x3dcdedef	0.10055148
144	0xbd86f21f	-0.0658915
145	0x3e2c079a	0.16799775
146	0x3d25c29a	0.04046879
147	0x3d8878ed	0.0666369
148	0xbe292df8	-0.16521442
149	0xbd9b9df6	-0.07598488
150	0xbe205b9a	-0.15659943
151	0x3ddcaaf1	0.10774792
152	0xbd700e11	-0.058607165
153	0x3d79706c	0.06089823
154	0x3a2edd66	0.0006670564
155	0x3d2b2da2	0.041791566
156	0xbd07f564	-0.033193007
157	0x3e3ad9ca	0.18247142
158	0x3e130a5b	0.14359419
159	0xbd96e648	-0.073681414
160	0x3e134beb	0.14384429
161	0xbe52a68a	-0.20571342
162	0x3d9982cb	0.0749565
163	0xbe150b96	-0.14555201
164	0xbc2f70d7	-0.010708055
165	0xbf3949a2	-0.7237798
166	0xbf636ff2	-0.8884269
167	0xbeb440c9	-0.35205677
168	0xbea08479	-0.3135107
169	0xbf077c6c	-0.5292423
170	0xbe10282d	-0.14077826
171	0xbce04fd4	-0.027381815
172	0xbdb6211b	-0.08893033
173	0xbe539cda	-0.20665303
174	0x3d8613d3	0.0654675
175	0xbece0f97	-0.4024627
176	0xbe0b0051	-0.1357434
177	0xbe35dca6	-0.17759952
178	0xbe3c144b	-0.18367116
179	0xbea50e71	-0.3223758
180	0xbdd99c5f	-0.106255285
181	0xbf04582b	-0.51697034
182	0xbd6dd13c	-0.05806087
183	0xbea70ac6	-0.32625407
184	0xbe826793	-0.25469646
185	0xbe8aa101	-0.2707596
186	0xbea8f353	-0.32998142
187	0x389593df	7.132417e-05
188	0xbdd8854a	-0.10572298
189	0x3cd4cae4	0.025975652
190	0xbf41a90a	-0.7564856
191	0xbf575278	-0.8411021
192	0xbef4c5d1	-0.47807172
193	0xbf1a6fc5	-0.60326797
194	0xbf19491c	-0.5987718
195	0x3da210d8	0.07913369
196	0x3d93b405	0.072120704
197	0xbd3279ca	-0.04357318
198	0xbe700e41	-0.23442937
199	0xbde713a6	-0.112830445
200	0xbea235f2	-0.31681782
201	0xbeaeeae3	-0.3416358
202	0x3ce1648f	0.02751377
203	0xbd9e3e86	-0.07726769
204	0xbded48ba	-0.11586137
205	0xbf3affd3	-0.73046607
206	0xbe9c368a	-0.3051036
207	0xbec043a3	-0.37551603
208	0xbf1551ae	-0.5832776
209	0xbf3762c5	-0.71635085
210	0xbe863a47	-0.26216337
211	0xbea6a826	-0.32550162
212	0x3dee847a	0.11646362
213	0x3bc3b797	0.0059728133
214	0xbdb2b60d	-0.0872613
215	0xbf160b01	-0.5861054
216	0xbf38179c	-0.71911025
217	0xbf28e3b8	-0.6597247
218	0xbedd4cb3	-0.4322258
219	0xbf057762	-0.5213529
220	0xbe48378a	-0.19552436
221	0xbe021cf9	-0.12706365
222	0xbe7f15bf	-0.24910639
223	0xbe983143	-0.29725084
224	0xbeaeb11f	-0.34119508
225	0xbee91f16	-0.4553153
226	0xbf3c8097	-0.7363371
227	0xbefb186f	-0.4904208
228	0xbec6481f	-0.387269
229	0xbeb328de	-0.34992117
230	0xbe389596	-0.18025813
231	0xbedc052a	-0.4297269
232	0x3e05b2c2	0.13056472
233	0xbdcafe28	-0.09911758
234	0x3df4ad25	0.11947087
235	0x3dbf0347	0.09326797
236	0x3c497653	0.012296277
237	0x3e378595	0.17922051
238	0x3e00d6b9	0.1258191
239	0x3e1a39d1	0.15061118
240	0x3dcbd69a	0.099530414
241	0xbd60b96e	-0.05486434
242	0x3d0c46c5	0.03424718
243	0x3d0472b3	0.03233595
244	0xbcf35b50	-0.029706627
245	0xbe4f1cdc	-0.20225853
246	0xbeb847f9	-0.3599241
247	0xbd27293b	-0.040810805
248	0xbd02b6b3	-0.031912517
249	0xbe31a92a	-0.17349687
250	0xbe8aeb37	-0.2713258
251	0xbf111ed8	-0.5668769
252	0xbe5beab7	-0.21476255
253	0xbebc3c25	-0.36764637
254	0xbeba583b	-0.3639544
255	0xbeb3a579	-0.35087183

gru.weight_hh_l0 f4 [96, 32]
0	0x3e9a067e	0.30083078
1	0xbded9844	-0.11601308
2	0x3b11fe21	0.0022276717
3	0xbd11534b	-0.035479825
4	0xbdab59c5	-0.083667316
5	0xbd7511b5	-0.05983134
6	0xbe277b1c	-0.16355556
7	0x3d1474d7	0.03624424
8	0x3da777ac	0.081771225
9	0xbdb6b59d	-0.08921359
10	0x3e4ee394	0.20204002
11	0x3c1a2e25	0.009410416
12	0xbe80bea7	-0.25145456
13	0x3d6b32c7	0.057421472
14	0xbe2ddaaf	-0.16977952
15	0xbe1e51f4	-0.1546095
16	0xbe6f8f22	-0.23394445
17	0xbe13ea1f	-0.14444779
18	0x3d256e3a	0.040388323
19	0xbcd851bf	-0.026406167
20	0x3da1996e	0.078905925
21	0x3e30d70e	0.17269537
22	0xbcdc48e4	-0.026890226
23	0x3eb9a916	0.36261815
24	0x3d05a541	0.0326283
25	0x3e6c5b48	0.23081696
26	0xbe86b41f	-0.26309296
27	0x3cea89b4	0.028630115
28	0xbe2bb0a3	-0.167666
29	0x3e9c8f46	0.3057806
30	0x3b72771d	0.0036997267
31	0xbe641113	-0.22272138
32	0x3e859a38	0.26094222
33	0x3f3b5d86	0.7318958
34	0xbe13ff57	-0.14452873
35	0xbeb62fbc	-0.35583293
36	0x3e153824	0.14572197
37	0xbd77d869	-0.06050912
38	0x3f003bf3	0.50091475
39	0x3e8c6b24	0.27425492
40	0xbd169381	-0.036761764
41	0xbf0c6549	-0.5484205
42	0x3e8a0dff	0.26963803
43	0x3f0f3a16	0.5594801
44	0xbe9ce7a9	-0.30645493
45	0xbf2dee67	-0.679419
46	0xbdd61f04	-0.104551345
47	0x3d8e632d	0.0695251
48	0xbe9561ef	-0.2917628
49	0xbecc67b2	-0.39922863
50	0xbefd6f79	-0.4949911
51	0x3dd07863	0.10179212
52	0xbf02bbb3	-0.51067656
53	0xbd2325d0	-0.039830983
54	0x3dbae430	0.091255546
55	0x3dfc4856	0.123184845
56	0x3ec704a0	0.38870716
57	0x3e58ad58	0.21159875
58	0xbef809e2	-0.4844504
59	0xbdda1fa0	-0.10650563
60	0xbea132cd	-0.3148407
61	0x3cbc5f48	0.022994652
62	0xbcdb9c4e	-0.02680793
63	0x3c9c5af6	0.019086342
64	0x3e00bd0c	0.12572116
65	0xbe0f53b3	-0.13996772
66	0xb79eeec4	-1.8946252e-05
67	0x3e2010c8	0.15631402
68	0xbe20607b	-0.15661804
69	0xbe161a6b	-0.14658515
70	0xbd89beb2	-0.06725825
71	0x3e66b164	0.22528607
72	0x3e9e55ab	0.30924734
73	0x3b2989af	0.002586942
74	0xbc63affa	-0.013896937
75	0xbd6ab5c4	-0.05730225
76	0xbbecf69e	-0.0072315475
77	0xbcf9b28a	-0.030480642
78	0xbea7d6c2	-0.32781035
79	0x3d745aae	0.05965679
80	0xbe5074f0	-0.20357108
81	0xbdb70985	-0.089373626
82	0x3e83bfc0	0.2573223
83	0x3d332b4e	0.04374247
84	0xbdaf35b7	-0.08555167
85	0x3e6a981a	0.22909585
86	0x3c844f84	0.016151197
87	0x3c9333f9	0.017969118
88	0xbe7b67f7	-0.24551378
89	0xbdd6098e	-0.10451041
90	0xbe8bed61	-0.27329543
91	0xbe19ba37	-0.15012442
92	0xbdfe0714	-0.12403694
93	0x3d091c3b	0.03347419
94	0xbe8ac40d	-0.271027
95	0x3df1c1f9	0.118045755
96	0x3e574b26	0.2102476
97	0x3cefb145	0.029259333
98	0x3d3b4374	0.045718625
99	0xbda18a08	-0.078876555
100	0xbd9b3560	-0.0757854
101	0x3dc8ee39	0.09811062
102	0xbdca2562	-0.098704115
103	0xbd9f1487	-0.07767587
104	0xbe332655	-0.17495091
105	0x3e631272	0.22175005
106	0xbde331e2	-0.11093499
107	0xbe10cfbd	-0.14141746
108	0xbd16b407	-0.03679278
109	0x3e474e4b	0.1946346
110	0xbe58dc94	-0.21177894
111	0x3dcc4c6e	0.09975515
112	0x3cc17576	0.02361558
113	0x3d76662a	0.060156025
114	0xbdd37a91	-0.10326112
115	0xbeb52dd1	-0.35386518
116	0xbdb7c539	-0.08973164
117	0x3d2e72a9	0.042589817
118	0x3d89015b	0.06689712
119	0xbdac13ae	-0.08402191
120	0x3d6fec3b	0.058574896
121	0xbe08ae1a	-0.13347664
122	0xbf012f66	-0.5046295
123	0x3c0d7917	0.008634827
124	0xbc30a50c	-0.010781538
125	0xbe16c50c	-0.14723605
126	0xbe19ed3d	-0.15031905
127	0x3d5dc1b1	0.054139797
128	0x3d2c652a	0.042088665
129	0x3c815b62	0.015790645
130	0x3d5754de	0.05257117
131	0xbc531f3e	-0.012885867
132	0xbd9c82a4	-0.07642105
133	0xbbee89fe	-0.0072796335
134	0xbd382147	-0.04495361
135	0x3d3be51f	0.045872804
136	0xbd5ef0d2	-0.054428883
137	0x3e1f553b	0.15559857
138	0x3cc2e585	0.023791084
139	0xbde2ebad	-0.11080108
140	0x3b83acdd	0.0040184096
141	0xbdb092d6	-0.08621757
142	0xbe00cf25	-0.1257902
143	0x3b3f3204	0.0029174099
144	0x3dcf10a2	0.10110594
145	0x3e2a2547	0.16615783
146	0xbd38be5d	-0.04510342
147	0xbdab4986	-0.08363633
148	0x3d641791	0.055686537
149	0xbd10fd9e	-0.03539812
150	0xbdd64fc8	-0.10464436
151	0x3ddd32e7	0.108007245
152	0x3dadb023	0.08480861
153	0x3dd74f1e	0.10513137
154	0x3e244cb3	0.16044883
155	0x3dabe7a7	0.083937936
156	0x3dd3fd07	0.103509955
157	0x3dc25490	0.09488785
158	0xbd9b29c7	-0.07576328
159	0x3dc97eeb	0.09838661
160	0x3c8ace20	0.016943991
161	0x3dd41267	0.103550725
162	0xbe46ec7a	-0.19426146
163	0x3dcf21ab	0.101138435
164	0xbe4a4113	-0.19751386
165	0xbda78e13	-0.081813954
166	0xbe8c57e9	-0.2741082
167	0x3ea4463b	0.32084832
168	0x3e1af34f	0.15131877
169	0xbc566600	-0.013085842
170	0xbd221374	-0.039569333
171	0x3e27e0d8	0.16394365
172	0xbe4c82c3	-0.19971757
173	0x3eefc9f1	0.46833757
174	0xbeae224b	-0.34010538
175	0xbe716549	-0.23573793
176	0xbe264815	-0.16238435
177	0xbe90bad0	-0.28267527
178	0x3ea42acb	0.32063898
179	0xbe879e97	-0.26488182
180	0xbc0b3775	-0.008497109
181	0x3ef4f223	0.47840986
182	0xbb254567	-0.002521837
183	0xbda30e67	-0.079617314
184	0xbe3066bc	-0.1722669
185	0xbed46718	-0.41484904
186	0xbe669728	-0.22518599
187	0xbd9f9e34	-0.07793847
188	0xbea020d3	-0.31275043
189	0x3bf5949b	0.007494522
190	0xbda77667	-0.0817688
191	0x3d8d441f	0.06897759
192	0xbd16593f	-0.036706205
193	0x3e239e46	0.15978345
194	0x3b92324b	0.004461562
195	0xbdc1a57d	-0.094553925
196	0xbe3e1f15	-0.18566544
197	0x3dfef620	0.12449288
198	0x3e8e5e19	0.27806166
199	0x3c922ca2	0.017843548
200	0x3d77eb0d	0.060526896
201	0x3d681ad1	0.0566662
202	0x3d5076b6	0.05089446
203	0x3e3f3b3c	0.1867494
204	0x3dc52392	0.09625925
205	0xbe8c2d4c	-0.2737831
206	0xbe1968e2	-0.14981416
207	0xbdc321c8	-0.09527928
208	0x3cb216e4	0.02173943
209	0xbe85457c	-0.26029575
210	0x3e204439	0.15651025
211	0x3e853677	0.26018116
212	0xbe7738bf	-0.2414274
213	0xbd729473	-0.059223603
214	0x3e293e9f	0.16527794
215	0x3dec778d	0.1154624
216	0x3e7f0b09	0.24906553
217	0x3a907d9a	0.001102376
218	0xbe070052	-0.13183716
219	0x3ddf4306	0.109014556
220	0x3e5d22e0	0.21595335
221	0x3dc24a6e	0.094868526
222	0xbe1ea0e8	-0.15491068
223	0xbddd524d	-0.10806713
224	0x3c54930b	0.012974511
225	0xbd8bb8b3	-0.06822338
226	0x3cf3378c	0.029689573
227	0xbdad1cff	-0.08452796
228	0x3d99d599	0.07511444
229	0x3dc24377	0.09485524
230	0x3b34aeef	0.002757009
231	0xbc163f08	-0.009170301
232	0xbe709178	-0.23492992
233	0x3dbd74c5	0.09250788
234	0x3e00e9a0	0.12589121
235	0x3d991faa	0.074767426
236	0xbe13f7cd	-0.14449997
237	0x3dfd9342	0.12381603
238	0x3d826aa1	0.06367994
239	0x3e2a5376	0.166334
240	0x39969e3b	0.0002872812
241	0x3d69d6c6	0.05708959
242	0x3d6fcf38	0.05854723
243	0xbe127f85	-0.14306457
244	0x3c9af4e2	0.018915597
245	0xbe2261cd	-0.1585762
246	0x3e1e0d1f	0.15434693
247	0x3b67e83d	0.0035386228
248	0xbd8450b6	-0.06460707
249	0x3da50f48	0.08059555
250	0xbe144ea0	-0.14483118
251	0x3db46070	0.088074565
252	0xbdd2334b	-0.102636896
253	0x3d8c1c49	0.068413325
254	0x3d945209	0.072422095
255	0xbdf60a1a	-0.120136455

gru.bias_ih_l0 f4 [96]
0	0x3d209432	0.03920383
1	0x3e99cc92	0.30038887
2	0x3e5890d3	0.21148996
3	0xbd9e3e47	-0.07726722
4	0xbe089771	-0.1333902
5	0x3d6fd985	0.058557052
6	0x3cd226ff	0.02565336
7	0x3df3090c	0.1186696
8	0x3c8ce1f6	0.01719759
9	0xbdb886da	-0.09010096
10	0x3ef6cd4e	0.4820351
11	0x3e38dc85	0.18052872
12	0xbcea0e75	-0.028571347
13	0x3cbf9e97	0.023391051
14	0x3db20732	0.08692779
15	0x3e0a9f77	0.13537394
16	0x3e20af40	0.15691853
17	0x3dcce7cb	0.100051485
18	0xbe20901e	-0.15679976
19	0xbb10e168	-0.002210701
20	0x3e0910df	0.13385342
21	0x3d53a5c4	0.05167176
22	0x3df8b7fc	0.12144467
23	0x3e24edf0	0.16106391
24	0xbd857bce	-0.065177545
25	0x3e29ce38	0.16582572
26	0x3e21f3d1	0.15815665
27	0x3e3cbc57	0.18431221
28	0xbd93daf0	-0.072194934
29	0x3e28cb3d	0.16483779
30	0xbe00d649	-0.12581743
31	0x3db1960f	0.086711995
32	0x3cf67896	0.030086797
33	0xbec67f63	-0.38769063
34	0xbe82f372	-0.2557636
35	0xbebdd289	-0.37074688
36	0xbdbae25f	-0.09125208
37	0xbdcdfb58	-0.10057706
38	0xbf09cd46	-0.5382885
39	0x3deca968	0.11555749
40	0xbe03803f	-0.12841891
41	0xbf1c64ce	-0.61091316
42	0x3dc630d7	0.09677284
43	0xbf3c1eb4	-0.7348435
44	0xbef5dc1a	-0.48019487
45	0xbf0b1090	-0.5432215
46	0xbe5f5a73	-0.21811847
47	0xbde1ad5e	-0.11019395
48	0x3e44e69c	0.19228595
49	0xbc68495b	-0.014177646
50	0xbe878ce3	-0.26474676
51	0xbe1a952f	-0.15095972
52	0xbed0fbd6	-0.40817136
53	0xbeb013c8	-0.34390092
54	0xbe54247c	-0.20717043
55	0xbe16f7ef	-0.14743017
56	0xbf3075d0	-0.6892977
57	0x3c907925	0.017635891
58	0xbe594e99	-0.21221389
59	0x3cfdb794	0.030971326
60	0xbe2b10d9	-0.16705646
61	0xbe9182dd	-0.28420153
62	0x3cc1e9ac	0.023670994
63	0xbe517b45	-0.2045718
64	0x3e0fca0c	0.14041919
65	0xbd820b84	-0.06349853
66	0xbdf92ace	-0.121663675
67	0x3d05a719	0.03263006
68	0xbd040315	-0.0322295
69	0x3bb290a4	0.0054493714
70	0xbcf0e6db	-0.029406955
71	0x3dee3628	0.11631423
72	0x3e0054f4	0.12532407
73	0x3ded8b06	0.11598782
74	0x3d717a62	0.058954604
75	0x3da15e19	0.07879276
76	0xbceda9cc	-0.02901163
77	0x3d6689b3	0.056283664
78	0xbd8c5ab8	-0.06853241
79	0x3d83ed9f	0.06441807
80	0xbdf287c8	-0.118423045
81	0xbdae51ec	-0.08511719
82	0x3db18407	0.0866776
83	0x3e1f394e	0.15549204
84	0x3b0148cd	0.001972723
85	0x3dddb86a	0.1082619
86	0x3e0dd89f	0.13852166
87	0x3e05c97d	0.13065143
88	0xbcefc066	-0.029266547
89	0x3ddbdaa3	0.10735061
90	0xbd574a0e	-0.05256086
91	0x3d6da132	0.058015056
92	0xbb87aa22	-0.0041401545
93	0x3d57063b	0.052496176
94	0xbc80e4b6	-0.015734058
95	0x3d89fdd1	0.06737865

gru.bias_hh_l0 f4 [96]
0	0x3e8fb560	0.28068066
1	0xbcb48599	-0.02203636
2	0x3e6b3a64	0.22971493
3	0x3d17922c	0.037004635
4	0x3dff8c54	0.12477937
5	0x3dbe6327	0.092962556
6	0xbd95e4b2	-0.07319011
7	0x3d8b7b06	0.06810574
8	0xbda9eda3	-0.08297279
9	0x3df610a0	0.1201489
10	0x3f0c2ab8	0.54752684
11	0x3e6908b9	0.22757234
12	0x3d206262	0.039156325
13	0xbd007ea0	-0.03137076
14	0x3d4ba166	0.04971447
15	0xbceed698	-0.02915506
16	0x3d194aeb	0.037424963
17	0x3c30c93b	0.010790165
18	0xbcba1e5f	-0.02271956
19	0x3e6487bc	0.22317404
20	0xbd128dcb	-0.035779756
21	0xbd420219	-0.04736528
22	0x3ae3542e	0.0017343813
23	0xbdb3cb80	-0.08779049
24	0x3e2f2cd7	0.17106949
25	0x3d1cabb8	0.0382497
26	0xbd902ab3	-0.07039394
27	0xbcb506e7	-0.022098018
28	0xbdc35266	-0.09537201
29	0xbdac6f98	-0.08419722
30	0xbe030689	-0.12795462
31	0x3e176e7d	0.14788242
32	0x3e281ed6	0.16418013
33	0xbf02694a	-0.5094191
34	0x3cb957db	0.0226249
35	0xbea04fac	-0.31310785
36	0xbec5fd41	-0.3866978
37	0xbe6cc56d	-0.23122187
38	0xbf41247e	-0.7544631
39	0xbe16e9af	-0.1473758
40	0xbdbd9d60	-0.092585325
41	0xbf3a03a0	-0.7266178
42	0xbcb19be2	-0.021680776
43	0xbeeaa4db	-0.458289
44	0xbe82222a	-0.2541669
45	0xbee83f96	-0.45361012
46	0xbd4c683f	-0.049904104
47	0xbddbf440	-0.10739946
48	0x3d52f230	0.0515005
49	0xbe70727c	-0.23481172
50	0xbe96c81a	-0.2944954
51	0xbe97d131	-0.29651788
52	0xbf0e2dfb	-0.5553891
53	0xbe97a6fd	-0.2961959
54	0xbd8a6b12	-0.06758703
55	0xbeb292af	-0.34877536
56	0xbf2fd0ea	-0.6867815
57	0x3e77d5ad	0.24202605
58	0xbe35bfc3	-0.17748933
59	0x3ca54a76	0.020177107
60	0xbe8dc323	-0.2768794
61	0xbe8dde9a	-0.27708894
62	0x3acbe709	0.0015556525
63	0xbebf1086	-0.37317294
64	0x3cfe623d	0.031052703
65	0xbde50913	-0.111833714
66	0xbd491032	-0.04908771
67	0x3e021e7f	0.12706946
68	0xbe1d19c1	-0.15341856
69	0x3e148e3b	0.14507382
70	0xbde92f8a	-0.113860205
71	0xbc45c4d2	-0.012070851
72	0xbd58c020	-0.0529176
73	0xbe0e8b55	-0.13920338
74	0xbbc3ccb6	-0.005975331
75	0xbe41272f	-0.18862604
76	0x3ad4c05d	0.0016231645
77	0xbdf7f956	-0.12108104
78	0x3c98c223	0.01864726
79	0xbdf42b23	-0.1192229
80	0xbe53f39a	-0.20698395
81	0xbb93c7d4	-0.0045099054
82	0x3e1a2048	0.15051377
83	0x3c783fa6	0.015151894
84	0x3e134830	0.14383006
85	0xbd3ed37c	-0.046588406
86	0x3e03bdb0	0.12865329
87	0x3e169504	0.14705282
88	0x3df8b34f	0.121435754
89	0xbdc70b98	-0.09719008
90	0xbe4c1e9a	-0.19933549
91	0xbe043449	-0.1291057
92	0x3b28903d	0.0025720738
93	0x3dcaa486	0.098946616
94	0xbe1ed748	-0.15511811
95	0xbe13b423	-0.14424185

gru.weight_ih_l1 f4 [96, 32]
0	0xbc9e7d8b	-0.019346973
1	0x3ddf60ac	0.109071106
2	0x3dc04951	0.09388984
3	0xbcd5d5bc	-0.026102893
4	0x3c25f976	0.010130277
5	0xbcf75dec	-0.030196153
6	0x3de2bc1f	0.110710375
7	0xbc425674	-0.011861432
8	0xbc74dc19	-0.0149450535
9	0xbe2a653b	-0.16640179
10	0xbdc0166d	-0.093792774
11	0x3db6754d	0.08909092
12	0xbdc0467b	-0.09388443
13	0xbe86e9a3	-0.26350126
14	0x3e52b32a	0.20576158
15	0x3e6b1ea6	0.2296091
16	0x3e50645b	0.20350783
17	0xbe0b1f6c	-0.13586205
18	0xbdd85ece	-0.105649576
19	0x3cc5c3e7	0.024141265
20	0xbe495e6f	-0.1966493
21	0xbdbd950a	-0.092569426
22	0xbe2032d7	-0.15644394
23	0xbdf551a6	-0.11978464
24	0x3e8fd14b	0.28089365
25	0x3d22ff15	0.039794046
26	0x3e29c1a2	0.16577771
27	0xbc8d8fb1	-0.017280431
28	0xbdcb468c	-0.09925565
29	0xbe0a67d6	-0.13516173
30	0x3e3cbfbe	0.18432519
31	0x3d07eec5	0.033186693
32	0xbddc9599	-0.10770721
33	0x3dde7bf6	0.108634874
34	0x3b88bd1d	0.0041729347
35	0x3b37b490	0.0028031208
36	0x3ccb07d6	0.02478401
37	0x3e31bb04	0.17356497
38	0x3cd0a4ff	0.025469301
39	0xbd9078b0	-0.07054269
40	0x3da10166	0.07861595
41	0xbd1aa0e7	-0.037751105
42	0xbdd8fcb2	-0.10595073
43	0x3db2f923	0.08738925
44	0x3e1cc8dd	0.15310998
45	0x3e19f771	0.15035798
46	0xbe49d9b5	-0.19711955
47	0x3dc75f71	0.09735001
48	0x3d18d9f4	0.03731723
49	0x3e44422d	0.19165869
50	0x3e872522	0.26395518
51	0xbb301f56	-0.0026874146
52	0x3c880692	0.016604695
53	0x3c8aacd2	0.01692811
54	0x3e3fe90e	0.18741247
55	0xbd1dd1ff	-0.038530346
56	0xbe139099	-0.14410628
57	0xbd0b9b11	-0.03408343
58	0x3de2fbb6	0.11083166
59	0x3df117db	0.11772128
60	0x3e128088	0.14306843
61	0xbe420280	-0.18946266
62	0x3dff16b4	0.12455502
63	0xbd5cd8d4	-0.05391772
64	0x3d851c14	0.06499496
65	0xbd436911	-0.04770762
66	0x3dd9f7f4	0.106429964
67	0xbd423c6f	-0.047420915
68	0x3e49dc08	0.19712842
69	0xbd9986f0	-0.074964404
70	0x3dc5a9d2	0.09651531
71	0xbdc3db18	-0.09563273
72	0xbd67062a	-0.056402363
73	0xbe2d7a5d	-0.16941209
74	0xbdd2e9cb	-0.10298499
75	0x3d97c4e9	0.074106045
76	0xbcc59a98	-0.024121568
77	0xbb94fcfe	-0.0045467606
78	0xbdb083b9	-0.08618874
79	0xbe274937	-0.16336523
80	0x3ced6f3f	0.02898371
81	0x3d756627	0.059911873
82	0xbe186c4c	-0.14885062
83	0xbdb2c766	-0.087294385
84	0xbda9807e	-0.08276461
85	0xbe3545ef	-0.17702459
86	0x3d5c9661	0.05385435
87	0xbddc6f8e	-0.10763465
88	0xbcab6ef0	-0.020926923
89	0x3b10fc92	0.00221232
90	0xbdcf85ec	-0.101329654
91	0x3dd73a12	0.10509123
92	0xbd9b0695	-0.07569615
93	0x3d4809f7	0.04883763
94	0x3cc5f094	0.024162568
95	0xbdb009b8	-0.08595604
96	0x3dd1b025	0.10238675
97	0xbdd28369	-0.10278971
98	0x3e12cb1d	0.14335294
99	0xbe144d02	-0.14482501
100	0x3da9aeb2	0.082852736
101	0xbdd548c0	-0.104142666
102	0x3df6a6ef	0.12043559
103	0xb9ed9ec8	-0.00045322464
104	0xbde2ff34	-0.110838324
105	0x3e1ae641	0.15126897
106	0xbe144cf2	-0.14482477
107	0x3e5968fc	0.21231455
108	0x3d649512	0.055806227
109	0x3c6bac37	0.014384321
110	0xbe09fe91	-0.13476016
111	0xbdfad85a	-0.12248297
112	0xbd7c4b59	-0.061595295
113	0xbe4aeeac	-0.19817609
114	0xbe1f80b5	-0.15576442
115	0xbdf82727	-0.12116843
116	0xbde35a32	-0.11101188
117	0xbbf39dba	-0.007434574
118	0xbd009a5e	-0.031397216
119	0xbd69b1cb	-0.057054322
120	0xbdb1f805	-0.08689884
121	0x3ea2487a	0.3169592
122	0x3e38305b	0.17987196
123	0xbd6719a3	-0.056420933
124	0xbcd45441	-0.025919082
125	0xbdafea3d	-0.08589599
126	0x3e2ddb50	0.16978192
127	0x3c87a3ae	0.01655754
128	0x3a94a461	0.0011340493
129	0xbd1ec126	-0.03875842
130	0x3d9189a6	0.071063325
131	0x3e0f3dd6	0.13988432
132	0xbcd2a702	-0.025714401
133	0xbd4c9a4c	-0.049951836
134	0x38e0eccc	0.00010725259
135	0x3e20e761	0.15713264
136	0xbe03ef11	-0.12884165
137	0x3dcf277f	0.10114955
138	0x3d96321a	0.07333775
139	0xbdc21620	-0.09476876
140	0xbcd65fdc	-0.026168756
141	0xbdd88a8e	-0.10573302
142	0xbccd2f6d	-0.025047028
143	0x3d8ab0a3	0.06771972
144	0x3da2e385	0.07953552
145	0xbe2922cb	-0.16517179
146	0xbe8a0725	-0.26958576
147	0x3e41897d	0.18900104
148	0xbe20c3c7	-0.15699683
149	0xbe57c5d5	-0.2107156
150	0xbe146d4a	-0.14494815
151	0x3d18e1aa	0.037324585
152	0x3df2d1a4	0.11856392
153	0xbd88ac75	-0.066735186
154	0x3d43c07d	0.047790993
155	0xbe11ccca	-0.14238277
156	0x3cf335a9	0.029688673
157	0xbd3aee33	-0.04563732
158	0xbe05bd3f	-0.13060473
159	0xbe003e88	-0.12523854
160	0x3e277de0	0.16356611
161	0x3eb6dfe2	0.35717684
162	0x3dafabfd	0.08577726
163	0xbe496530	-0.19667506
164	0xbd91f946	-0.07127623
165	0xbe30a66a	-0.17250982
166	0x3ef9c6ce	0.48784488
167	0xbe0a7932	-0.13522795
168	0x3d5973a1	0.053088788
169	0xbba5aee5	-0.0050562494
170	0x3dffe789	0.12495334
171	0x3eeea87a	0.46612912
172	0xbe2f1181	-0.17096521
173	0xbe8cc635	-0.2749497
174	0xbca89835	-0.02058039
175	0x3d026f71	0.03184456
176	0x3d3b6c10	0.045757353
177	0x3d80041c	0.06250784
178	0xbe2a6f69	-0.16644062
179	0xbe1a0fae	-0.15045044
180	0xbe54a0f7	-0.20764528
181	0xbd0c5bb6	-0.03426715
182	0xbd5a65c3	-0.053319704
183	0x3d5cf1ba	0.053941466
184	0x3edf11e8	0.4356835
185	0xbdc03319	-0.09384746
186	0x3cf66a7b	0.03008007
187	0x3cba825f	0.022767244
188	0xbe3a0a5d	-0.18168016
189	0xbc9ebfe2	-0.019378606
190	0xbdddfefe	-0.108396515
191	0xbe22b7a1	-0.15890361
192	0xbd42d9db	-0.047571044
193	0x3e3ddab3	0.18540458
194	0x3da97aa7	0.08275347
195	0x3d1413ad	0.036151577
196	0x3b927e41	0.004470617
197	0xbe074252	-0.13208893
198	0xbd5834bc	-0.052784666
199	0x3d883b41	0.06651927
200	0x3df9fdaf	0.122065894
201	0x3e127119	0.14300956
202	0xbda77b02	-0.08177759
203	0x3e3ca84b	0.18423574
204	0x3e00a07a	0.12561217
205	0x3c86d333	0.01645813
206	0x3e5c8452	0.21534851
207	0xbe03dd88	-0.12877476
208	0x3bdc61be	0.006725519
209	0xbe31a5dd	-0.17348428
210	0xbe1ec8aa	-0.15506235
211	0x3d854567	0.06507378
212	0x3dd14778	0.1021871
213	0xbafef9cd	-0.0019453109
214	0xbe23d0db	-0.15997641
215	0x3ce345e3	0.027743286
216	0x3e4d9547	0.20076476
217	0x3b941f0c	0.0045203026
218	0x3e82a05e	0.25512975
219	0xbd547f35	-0.051879127
220	0xbe0e1a0f	-0.13877128
221	0x3b80bceb	0.003928771
222	0x3dabd07b	0.08389374
223	0xbd169e7c	-0.036772236
224	0xbc51fd91	-0.012816803
225	0x3c228fb5	0.009921958
226	0x3d9313cb	0.071815096
227	0xbdac9a30	-0.084278464
228	0xbd9a0234	-0.075199515
229	0xbdf30af7	-0.11867326
230	0x3de66726	0.11250143
231	0x3e7db458	0.24775827
232	0x3d8763cc	0.066108316
233	0x3d9dd155	0.077059425
234	0x3e63c8d5	0.2224458
235	0x3dbbd386	0.09171204
236	0xbe4542cc	-0.19263762
237	0x3e0b7af1	0.13621117
238	0xbe4c2af7	-0.19938265
239	0x3c9d484a	0.01919951
240	0xbdfbf901	-0.12303353
241	0x3bd88310	0.0066074207
242	0x3cd50af1	0.026006194
243	0xbe8e3162	-0.2777205
244	0x3e546611	0.2074206
245	0xbd9eb1c0	-0.07748747
246	0x3cdb0391	0.026735099
247	0xbdb2da55	-0.0873305
248	0x3e0c0461	0.13673545
249	0xbe258328	-0.16163313
250	0x3b9dced4	0.0048159156
251	0xbcb8f165	-0.022576043
252	0xbdf121aa	-0.11773999
253	0x3cb774ad	0.022394503
254	0x3d3d82c4	0.046267286
255	0xbd75c679	-0.06000373

gru.weight_hh_l1 f4 [96, 32]
0	0x3cb21cbc	0.021742217
1	0xbd728305	-0.05920698
2	0x3de415b1	0.1113695
3	0xbe01e6be	-0.12685677
4	0xbe04163f	-0.12899111
5	0x3c9d9396	0.019235414
6	0xbdc3f3fc	-0.09568021
7	0x3d3087e3	0.04309834
8	0x3d578b7a	0.05262325
9	0xbd118a19	-0.03553209
10	0xbdc756d2	-0.097333565
11	0xbe3e1bd2	-0.185653
12	0x3e004893	0.12527685
13	0x3e4e2a6f	0.20133375
14	0x3e03666b	0.12832038
15	0xbe0efcc1	-0.13963605
16	0x3daaf8d6	0.08348243
17	0xbc53590a	-0.012899647
18	0xbdb9a5c9	-0.09064824
19	0xbe9d9b28	-0.30782437
20	0xbe43f5d8	-0.1913675
21	0x3e044b3f	0.12919329
22	0x3e00e877	0.12588678
23	0x3e345d5f	0.17613743
24	0xbe4c90f1	-0.19977166
25	0x3dd220a2	0.102601305
26	0x3e112c90	0.14177155
27	0x3e326297	0.17420422
28	0xbd39caf5	-0.04535957
29	0xbe1f1c64	-0.15538174
30	0x3d8cc450	0.06873381
31	0x3d71793e	0.058953516
32	0x3ccdb6c8	0.025111571
33	0xbe0332b0	-0.12812304
34	0xbe351d2c	-0.1768691
35	0xbdb6feae	-0.08935295
36	0xbe09eca5	-0.13469179
37	0x3d99f692	0.07517733
38	0x3d811d30	0.06304395
39	0xbcf2a263	-0.029618448
40	0x3defabb7	0.11702674
41	0x3d123091	0.035690848
42	0x3e4172e1	0.18891479
43	0x3ddeb579	0.10874457
44	0xbe488b8c	-0.19584483
45	0x3e23effb	0.16009514
46	0xbc9384c6	-0.018007647
47	0xbd58e7ec	-0.052955553
48	0xbe24f728	-0.16109908
49	0xbc50bbad	-0.012740058
50	0xbe2730ce	-0.16327211
51	0x3da8966f	0.08231818
52	0xbcd06d67	-0.025442792
53	0xbc8dc8a0	-0.01730758
54	0xbce1de60	-0.027571857
55	0x3ce1b513	0.027552163
56	0x3e116369	0.14198078
57	0xbdeeb041	-0.116547115
58	0xbd972da5	-0.07381753
59	0x3dbc2a83	0.09187796
60	0x3da7ff69	0.082030125
61	0x3d4e9d00	0.050442696
62	0x3df1f2c7	0.11813884
63	0x3d487b80	0.048945904
64	0xbe088c44	-0.13334757
65	0xbe0394f0	-0.12849784
66	0x3dac4950	0.08412421
67	0x3d2c63c6	0.04208734
68	0xbdc54583	-0.09632399
69	0x3d5f3da9	0.054502163
70	0x3d187a0d	0.03722577
71	0xbdc16b7a	-0.09444328
72	0xbcd152b8	-0.025552139
73	0x3dce08a9	0.100602455
74	0x3e16e4aa	0.14735666
75	0x3c0b7cc2	0.008513631
76	0x3e35cfd7	0.17755066
77	0x3de5d009	0.1122132
78	0x3d8db614	0.06919494
79	0xbe1e2751	-0.15444686
80	0x3dcd20ce	0.100160226
81	0xbe3ac4e3	-0.18239169
82	0xbd23da60	-0.04000318
83	0x3e1929c4	0.14957339
84	0xbd6da02f	-0.05801409
85	0xbe22169d	-0.15828939
86	0x3dd615cc	0.10453376
87	0xbd4b3eda	-0.049620487
88	0xbce7d4d1	-0.028299721
89	0xbdf187db	-0.117934905
90	0xbe07e66f	-0.13271497
91	0xbdca187d	-0.09867952
92	0x3e2f5e01	0.17125703
93	0x3e0a46d1	0.13503577
94	0x3e0d4154	0.13794452
95	0x3d36f708	0.04466918
96	0x3e0843fe	0.13307187
97	0x3d9f75d1	0.077861436
98	0x3d260627	0.04053321
99	0xbd345a64	-0.044031516
100	0xbbdd6522	-0.0067564407
101	0xbc39a21e	-0.011330156
102	0x3c0373ed	0.008023244
103	0x3c859a22	0.016308848
104	0xbd365bb1	-0.044521037
105	0xbcceda1a	-0.025250483
106	0xbd8d1063	-0.06887891
107	0x3dce72ee	0.10080515
108	0xbdfebe4e	-0.124386415
109	0x3df4ad80	0.11947155
110	0x3d6b3431	0.05742282
111	0xbd62bc46	-0.055355333
112	0xbd688946	-0.05677154
113	0xbdeb09bc	-0.11476466
114	0xbe2f3565	-0.17110212
115	0xbd72ea24	-0.059305325
116	0xbdf21b2b	-0.11821588
117	0xbd405e2d	-0.046964813
118	0xbd8595eb	-0.06522735
119	0xbc7a4952	-0.01527627
120	0xbd9ded8c	-0.07711324
121	0x3d02f06a	0.031967558
122	0xbb46d24a	-0.0030337744
123	0x3e10d578	0.14143932
124	0x3da023ee	0.07819353
125	0xbe020744	-0.12698084
126	0x3cde5c4b	0.027143618
127	0xbdbaa7d2	-0.091140404
128	0x3d9ca7db	0.076492034
129	0x3dd1ed63	0.10250356
130	0xbdb4da09	-0.088306494
131	0xbc925ef7	-0.017867548
132	0xbc5f56ec	-0.013631564
133	0xbcb0f4f2	-0.021601174
134	0xbdd1ba01	-0.102405556
135	0xbd5924b7	-0.05301353
136	0x3e1fb460	0.15596151
137	0x3e2a0781	0.16604425
138	0x3c5d0721	0.013490469
139	0xbd65ab0f	-0.056071337
140	0x3dc9b4e6	0.09848957
141	0xbd932fc3	-0.07186844
142	0xbcb88119	-0.022522496
143	0x3bd10b7e	0.006379544
144	0x3e2f6900	0.17129898
145	0xbe10bbd8	-0.14134157
146	0x3b2a7c26	0.002601394
147	0x3e0c00a9	0.13672127
148	0x3d0bb0bb	0.03410409
149	0xbd47da16	-0.048791967
150	0xbce32166	-0.027725887
151	0xbda41697	-0.08012121
152	0x3e0f67d8	0.14004457
153	0xbd11a9b5	-0.035562236
154	0x3ca1cd67	0.019751264
155	0x3e4194f4	0.18904477
156	0x3b2e566e	0.002660181
157	0x3dd180ec	0.10229668
158	0xbdf50cf0	-0.11965358
159	0xbde0bd68	-0.109736264
160	0xbafe748c	-0.0019413396
161	0x3d4bbc38	0.049740046
162	0xbe12aa19	-0.143227
163	0x3dcc6237	0.099796705
164	0x3d713536	0.058888637
165	0x3d9e3e24	0.07726696
166	0xbdafdc1f	-0.08586907
167	0xbe30e712	-0.17275646
168	0xbcbeee32	-0.02330694
169	0x3ca1439d	0.01968556
170	0xbe24a4b8	-0.1607846
171	0xbe1236b6	-0.14278683
172	0xbd67a775	-0.056556184
173	0x3d823cda	0.06359263
174	0x3d0b9947	0.034081724
175	0x3e4288fa	0.18997565
176	0x3de73a08	0.112903655
177	0x3e1bfca4	0.15233094
178	0x3def3320	0.11679673
179	0xbdfa96d7	-0.12235802
180	0x3daaa8af	0.08332955
181	0xbe05edbd	-0.13078971
182	0x3e072edf	0.13201474
183	0x3cee02b3	0.029054021
184	0x3dbd6acf	0.09248888
185	0x3ddadaf1	0.10686291
186	0xbe03bb42	-0.12864402
187	0xbdcff471	-0.101540454
188	0x3e1e83a0	0.15479898
189	0x3dee0b68	0.11623269
190	0xbdc1d0f6	-0.09463684
191	0x3de3323f	0.11093568
192	0x3cd03a3c	0.025418393
193	0xbc964165	-0.01834173
194	0x3e2d3db8	0.16918075
195	0xbcf48aea	-0.029851396
196	0x3d592de9	0.0530223
197	0xbcff7207	-0.031182302
198	0x3d02d1ad	0.031938244
199	0xbe15fafb	-0.14646523
200	0x3ddeabf0	0.10872638
201	0x3da15c9d	0.07878993
202	0xbdc0a547	-0.09406524
203	0x3cf27bcc	0.029600047
204	0xbd01dd50	-0.0317052
205	0xbe068f7c	-0.13140672
206	0x3deccf67	0.11562996
207	0x3b1a0c2e	0.0023505795
208	0xbde52e03	-0.11190417
209	0xbe096c6b	-0.13420264
210	0xbd69285a	-0.056923248
211	0xbd1951f5	-0.037431676
212	0x3de397d3	0.111129425
213	0x3df1fb74	0.11815539
214	0x3bbb4db1	0.0057160486
215	0x3e1bf78b	0.15231149
216	0x3d8aed28	0.06783515
217	0xbdd0c7fb	-0.10194393
218	0x3d05e3ad	0.03268783
219	0x3c944e22	0.018103663
220	0x3d3b0faf	0.045669254
221	0x3e4f9543	0.20271783
222	0xbd7374c6	-0.059437536
223	0x3cd47074	0.025932528
224	0x3df130a4	0.117768556
225	0x3d06c409	0.032901797
226	0x3cf4e3c7	0.029893769
227	0x3da4abb5	0.08040563
228	0xbd695b63	-0.05697192
229	0x3e402651	0.18764617
230	0x3e301fb2	0.17199591
231	0x3e5277cf	0.20553516
232	0xbddf25de	-0.108958945
233	0xbe86d09f	-0.2633104
234	0x3de19012	0.11013807
235	0x3e269579	0.16267957
236	0xbe38cf9a	-0.18047944
237	0xbe1822ea	-0.14857069
238	0x3d58487a	0.052803494
239	0x3d4f0ce8	0.050549418
240	0xbd862480	-0.065499306
241	0x3d9aa0a8	0.07550174
242	0xbe75c4a7	-0.24000798
243	0xbdf2253d	-0.11823509
244	0x3e7927bc	0.24331564
245	0xbe4dab60	-0.20084906
246	0xbd81146b	-0.063027225
247	0x3c55b7e1	0.013044328
248	0x3e25f479	0.1620654
249	0x3caae2fc	0.020860188
250	0x3e35d505	0.17757042
251	0xbd699823	-0.057029855
252	0x3e130cbf	0.14360331
253	0x3e79545c	0.24348587
254	0xbe75f05b	-0.2401747
255	0x3d21ed71	0.039533082

gru.bias_ih_l1 f4 [96]
0	0xbd655c57	-0.055996265
1	0x3e1a20dd	0.15051599
2	0x3bec841c	0.007217897
3	0xbe0157b0	-0.12631106
4	0xbd4bb5be	-0.04973387
5	0xbd39a5de	-0.0453242
6	0x3e0c1ba5	0.1368242
7	0x3d3a5830	0.04549426
8	0x3e05d6d0	0.13070226
9	0x3c80003a	0.015625108
10	0x3d776bee	0.060405664
11	0xbbf8e303	-0.0075954213
12	0x3def5a0e	0.116870984
13	0x3e1614a2	0.14656308
14	0x3e12b178	0.14325511
15	0xbdd021ac	-0.101626724
16	0xbd8f68cd	-0.07002411
17	0x3bcc08dc	0.006226642
18	0xbdd3cd33	-0.10341873
19	0xbd973fe2	-0.073852316
20	0xbdac7d2e	-0.08422314
21	0x3e127f45	0.14306362
22	0xbc545515	-0.012959738
23	0x3e0caec2	0.1373854
24	0xbd947027	-0.07247954
25	0x3de1bbff	0.110221855
26	0x3e5540cd	0.20825501
27	0xbd525eb8	-0.051359862
28	0xbda71702	-0.08158685
29	0xbe16e35c	-0.14735168
30	0x3e289e32	0.16466597
31	0xbd671c89	-0.056423698
32	0xbddb0490	-0.106942296
33	0x3e325074	0.17413503
34	0xbe00eb5a	-0.1258978
35	0x3e1d5d91	0.15367724
36	0x3ea7ead3	0.32796344
37	0xbe2ef57c	-0.17085832
38	0x3c16ff39	0.009216123
39	0x3de11664	0.10990599
40	0x3e25479f	0.16140603
41	0xbbe37cf6	-0.0069423867
42	0xbe3a4308	-0.18189633
43	0xbe1baad4	-0.15201885
44	0x3e71d5f1	0.23616768
45	0xbf016c6f	-0.5055608
46	0x3e5d3df5	0.21605666
47	0xbedabcfd	-0.42722312
48	0xbe98771e	-0.2977838
49	0x3d0821e7	0.033235457
50	0x3d08ca0e	0.03339582
51	0xbd1b05f9	-0.037847493
52	0x3db18f15	0.08669869
53	0xbd22e0ec	-0.039765283
54	0x3e23aba7	0.15983449
55	0x3e000d44	0.1250506
56	0xbd823295	-0.06357304
57	0xbdd286af	-0.10279595
58	0x3d2a76f6	0.041617356
59	0x3dca1faf	0.098693244
60	0xbe139748	-0.14413178
61	0xbd34458c	-0.044011638
62	0x3d1261b0	0.035737693
63	0xbe66dafb	-0.22544472
64	0x3d7102ed	0.05884068
65	0x3e164183	0.14673428
66	0x3e011a20	0.12607622
67	0xbe0672a5	-0.13129671
68	0xbd5f9cab	-0.05459277
69	0x3d9afd3d	0.075678326
70	0x3e33850f	0.17531227
71	0x3e427db9	0.18993272
72	0xbdd70571	-0.10499085
73	0xbcf3521e	-0.029702242
74	0x3dc7f0c4	0.09762719
75	0xbcc3a061	-0.023880186
76	0xbdcc1acd	-0.09966049
77	0xbd7f5db3	-0.062345218
78	0xbe542d3f	-0.20720385
79	0x3cae0bd6	0.021245878
80	0x3e30bb89	0.17259039
81	0xbe32322c	-0.17401952
82	0xbe23226d	-0.15931101
83	0x3dc6815c	0.09692642
84	0x3e2ed922	0.17075017
85	0xbe1f97ce	-0.15585253
86	0xbdfa0b1f	-0.122091524
87	0x3e13610f	0.14392494
88	0x3d858a45	0.065205134
89	0xbd28479c	-0.041083917
90	0xbc930f99	-0.017951773
91	0xbca03e01	-0.019560816
92	0x3e083d12	0.13304546
93	0x3c161324	0.009159837
94	0xbde41d08	-0.1113835
95	0x3df8ea3b	0.12154051

gru.bias_hh_l1 f4 [96]
0	0xbcc74377	-0.024324162
1	0x3e1e89c8	0.15482247
2	0xbdb05342	-0.0860963
3	0x3e0095bb	0.12557118
4	0x3cdf130f	0.027230768
5	0x3dd59c0e	0.10430156
6	0xbda62141	-0.081118114
7	0x3d784314	0.060610846
8	0x3e4460c4	0.19177538
9	0x3e1d2020	0.15344286
10	0xbe44b9f1	-0.19211556
11	0x3e0b9c65	0.13633879
12	0xbb4a6545	-0.0030883115
13	0xbe3720d3	-0.17883615
14	0x3d39b231	0.045335952
15	0x3dcb0865	0.099137105
16	0xbb90e6ae	-0.0044220304
17	0xbb4dfa7b	-0.0031429816
18	0xbe2e3eaa	-0.17016092
19	0x3e0c10f9	0.1367835
20	0xbd85cf98	-0.06533736
21	0x3e48d73a	0.19613352
22	0x3dbd6251	0.09247268
23	0xbde1709f	-0.11007809
24	0xbded6f24	-0.11593464
25	0xbe29075f	-0.16506718
26	0x3e4460e1	0.19177581
27	0xbdb1bca5	-0.08678559
28	0x3e446bb7	0.19181715
29	0xbdad7bb4	-0.0847086
30	0x3de23984	0.110461265
31	0x3e1cbe7b	0.15307038
32	0x3c2f3a18	0.010695003
33	0x3da07949	0.07835633
34	0x3e0fa255	0.14026769
35	0xbdbab780	-0.09117031
36	0x3e85d0e9	0.26135948
37	0xbdb133a9	-0.086524315
38	0xbe98ac63	-0.2981902
39	0xbd1bc884	-0.038033023
40	0x3e8af7f0	0.27142286
41	0x3e627fd9	0.22119083
42	0xbe150f2c	-0.14556569
43	0xbe802efe	-0.25035852
44	0xbba2a7d8	-0.004963856
45	0xbf1587e1	-0.5841046
46	0x3dd4eb3c	0.1039643
47	0xbe41628c	-0.18885249
48	0x3d3e1d2c	0.04641454
49	0x3d882751	0.06648124
50	0xbda86da8	-0.0822404
51	0xbe927d20	-0.28611088
52	0x3dea9d7e	0.114558205
53	0x3e4201c7	0.1894599
54	0x3dea63e6	0.11444835
55	0x3ca42371	0.020036431
56	0x3db612d3	0.08890309
57	0xbc1480bf	-0.009063899
58	0x3d654eec	0.05598347
59	0xbcdf2273	-0.027238106
60	0xbe4f7915	-0.20261033
61	0xbe920dae	-0.28526062
62	0x3e7b7639	0.24556817
63	0xbea24fbb	-0.31701455
64	0x3d1709fa	0.03687475
65	0x3d255172	0.040360875
66	0x3e3644fc	0.17799753
67	0xbd10e368	-0.03537312
68	0x3d09c2cc	0.03363304
69	0xbce3f9d4	-0.027829088
70	0x3cec3f86	0.028838884
71	0xbe06e144	-0.1317187
72	0xbe20a151	-0.15686537
73	0xbe40dfa4	-0.18835312
74	0x3bc28146	0.0059358208
75	0x3e10a5a5	0.14125688
76	0x3df2ec11	0.11861432
77	0x3cc9eace	0.024648096
78	0xbd6b4686	-0.057440303
79	0x3d3622e9	0.044466887
80	0xbd836328	-0.06415397
81	0xbe050787	-0.12991153
82	0xbcb1e7ae	-0.021716919
83	0x3d9f78a4	0.07786682
84	0x3de73b61	0.112906225
85	0x3d6f700b	0.058456462
86	0x3e0f86c1	0.14016248
87	0x3e06e951	0.1317494
88	0x3db69b4f	0.089163415
89	0x3e0ed2ff	0.13947676
90	0x3e19d447	0.15022384
91	0xbc77c05c	-0.015121546
92	0x3db05f58	0.086119354
93	0xbdf2434f	-0.11829244
94	0xbdfa61dd	-0.12225697
95	0x3e3ce5e5	0.18447073

fc.weight f4 [1, 32]
0	0xbd8e7a5c	-0.06956932
1	0x3daff59d	0.08591769
2	0x3dcc3784	0.09971526
3	0xbd7ac315	-0.0612212
4	0x3e155172	0.1458185
5	0x3e2f5530	0.1712234
6	0x3e4a83f4	0.19776899
7	0x3cb95b6a	0.022626597
8	0x3e08f5c4	0.13375002
9	0xbd6e8d79	-0.058240388
10	0xbdd87e3c	-0.10570952
11	0xbe4a4ef7	-0.19756685
12	0xbdc72fc9	-0.09725911
13	0x3e9af288	0.30263162
14	0xbdab6449	-0.08368737
15	0x3e9078b7	0.28217098
16	0x3d86e0f0	0.06585872
17	0x3dd10c64	0.102074414
18	0xbd936a11	-0.07197965
19	0xbdf20771	-0.118178256
20	0x3e09cbec	0.13456696
21	0x3d389936	0.04506799
22	0x3dc0c122	0.09411837
23	0xbe1e26c5	-0.15444477
24	0x3dc7186d	0.09721456
25	0xbc8a6830	-0.016895384
26	0xbe5af530	-0.21382594
27	0xbdb5f28c	-0.08884153
28	0x3e0dd534	0.13850862
29	0x3decd2be	0.115636334
30	0xbda939f3	-0.08263006
31	0x3e20b13c	0.1569261
