models/gru_model.pt (torch, 158693 bytes, 9 tensors)

gru.weight_ih_l0 f4 [192, 5]
0	0xbcb015d9	-0.021494793
1	0xbc35247a	-0.01105606
2	0xbcc7cbdc	-0.0243892
3	0xbe03a526	-0.12855968
4	0xbe0a9e6e	-0.13536999
5	0x3d564e0f	0.052320536
6	0xbd97c231	-0.07410086
7	0xbdb80c62	-0.08986737
8	0xbbf1ca2c	-0.007378837
9	0x3d80f921	0.062975176
10	0xbce7de36	-0.0283042
11	0x3e5e815d	0.21729036
12	0xbca0ebf8	-0.019643769
13	0xbdbcbfa8	-0.09216243
14	0x3d2d74f0	0.04234785
15	0xbae8b485	-0.0017753994
16	0xbdc418bb	-0.095750295
17	0x3d35e054	0.04440339
18	0xbd6d7a6a	-0.05797807
19	0xbe0199b3	-0.12656288
20	0x3d188d50	0.03724414
21	0xbd3e0b4c	-0.046397492
22	0xbdfe7816	-0.12425248
23	0xbdb215e1	-0.08695579
24	0x3d278c10	0.04090506
25	0x3cddad01	0.027060034
26	0xbd02b612	-0.031911917
27	0x3dae5841	0.08512927
28	0xbb56d0eb	-0.0032778333
29	0xbda5777d	-0.08079431
30	0x3d09eac1	0.033671144
31	0xbd6bd734	-0.05757828
32	0x3d9e0122	0.0771506
33	0x3e33cad2	0.17557839
34	0x3c76b574	0.01505791
35	0xbddc5b07	-0.107595496
36	0x3d161bd6	0.03664764
37	0x3d2bee21	0.041975144
38	0x3d8376c1	0.06419135
39	0xbda8c1ce	-0.0824009
40	0x3d8e9d4f	0.06963598
41	0xbdfeb182	-0.12436201
42	0xbe055c3c	-0.13023466
43	0x3dd196bd	0.10233829
44	0x3e203242	0.15644172
45	0xbf160dae	-0.58614624
46	0xbd3a3844	-0.045463815
47	0x3ded3870	0.1158303
48	0xbd2f7f61	-0.042846087
49	0xbd742bd9	-0.05961213
50	0x3d91652e	0.070993766
51	0xbdaac672	-0.08338632
52	0xbdf25b2d	-0.11833797
53	0xbcc6fe01	-0.02429104
54	0xbdae8ebd	-0.08523319
55	0x3d3a1e85	0.045439262
56	0xbd5a55f4	-0.053304628
57	0x3ca310d5	0.019905487
58	0x3dc91b81	0.09819699
59	0xbd87f52a	-0.06638558
60	0xbc19db6e	-0.009390695
61	0x3e044697	0.12917553
62	0x3d25087c	0.040291294
63	0x3da56872	0.08076562
64	0x3e1c25ac	0.15248746
65	0x3dc1852a	0.09449227
66	0xbd557f74	-0.052123502
67	0x3c470406	0.012146955
68	0xbbfa2145	-0.0076333606
69	0xbde119a4	-0.10991219
70	0x3cea0327	0.028565956
71	0x3da881a5	0.08227853
72	0xbd5abde6	-0.053403758
73	0xbdd73eea	-0.10510047
74	0x3dbdbf8b	0.092650495
75	0xbe4b401b	-0.19848673
76	0x3e309462	0.17244104
77	0x3cc9dce9	0.024641471
78	0x3e011dfe	0.12609097
79	0xbda34848	-0.07972771
80	0x3e1b8fc4	0.15191561
81	0x3d271953	0.040795635
82	0xbdb12ac2	-0.086507335
83	0x3de6c1e1	0.11267448
84	0x3c8d299c	0.017231755
85	0x3d526480	0.051365376
86	0x3e0bb043	0.13641457
87	0xbd96a72b	-0.073561035
88	0x3c99b0f3	0.018761134
89	0x3e71854d	0.23586006
90	0xbddd1ded	-0.107967235
91	0x3e1185fb	0.14211266
92	0x3da132aa	0.078709915
93	0x3cba6bdf	0.022756515
94	0xbbcb16fb	-0.006197808
95	0x3d4b4bbd	0.049632777
96	0xbd93e510	-0.072214246
97	0x3c08ce8c	0.008350026
98	0x3c8801c6	0.016602408
99	0xbe0a6f98	-0.13519132
100	0xbe2faa55	-0.1715482
101	0x3db57437	0.08860057
102	0xbd69cdc2	-0.05708099
103	0x3e0e30f8	0.13885868
104	0xbbd6b25a	-0.006552023
105	0xbe9d662f	-0.30742022
106	0x3e084a6c	0.1330964
107	0xbd3d6773	-0.046241235
108	0xbd9227b0	-0.07136476
109	0x3d6a9531	0.057271186
110	0xbe88d62c	-0.267259
111	0xbd740406	-0.05957415
112	0x3d80624e	0.0626875
113	0x3cb64ea5	0.022254298
114	0xbd22f09d	-0.039780248
115	0xbe9b4039	-0.30322435
116	0x3e0611c1	0.1309271
117	0xbcb05a80	-0.021527529
118	0xba81aade	-0.0009892841
119	0x3b31b93e	0.002711847
120	0x3d5b7f95	0.05358847
121	0x3dd97a3c	0.106190175
122	0x3e04d70e	0.12972662
123	0x3cf26750	0.029590279
124	0x3c0d255b	0.008614863
125	0xbe7a421e	-0.24439284
126	0xbd67a887	-0.056557205
127	0xbe09048b	-0.1338064
128	0x3d170f91	0.03688008
129	0xbdc4b191	-0.096041806
130	0x3cb4ab32	0.022054289
131	0x3d9eb638	0.07749599
132	0x3d50a1fd	0.050935734
133	0x3d8db354	0.0691897
134	0xbc8f956d	-0.017527306
135	0xbe2314b8	-0.15925872
136	0x3d0bcfb9	0.034133647
137	0xbd53548f	-0.051594313
138	0xbd1d8ed6	-0.038466297
139	0xbe2773a7	-0.16352712
140	0xbe00ad67	-0.12566148
141	0x3c55fbcd	0.013060522
142	0x3cb3c82f	0.02194604
143	0x3d37bc05	0.044857044
144	0x3bc512a8	0.006014187
145	0x3d7e9ade	0.06215941
146	0x3e1ff023	0.15618949
147	0x3e5b13fa	0.21394339
148	0x3da064fc	0.07831761
149	0x3c68b063	0.01420221
150	0x3d184980	0.03717947
151	0x3dc58d9d	0.09646151
152	0x3c91dc3e	0.017805215
153	0x3c4eb574	0.012616504
154	0xbd6cfc36	-0.057857715
155	0x3c8bdb82	0.017072443
156	0x3d51d2a7	0.051226284
157	0x3e3ec7fb	0.18630974
158	0x3e0aed3d	0.13567062
159	0x3e371eb6	0.17882809
160	0x3c6a6a0c	0.01430751
161	0x3ce5dc4d	0.02805915
162	0x3d4bbbe6	0.04973974
163	0xbcb55dc1	-0.022139432
164	0x3d5a9504	0.05336477
165	0x3d61c407	0.055118587
166	0x3d5b1434	0.053486064
167	0xbccc1752	-0.024913464
168	0x3d032ae6	0.032023333
169	0x3bc8f8d0	0.0061331764
170	0x3c86c9a3	0.01645357
171	0x3cb5f482	0.022211317
172	0x36804370	3.822548e-06
173	0x3e0a0bde	0.1348109
174	0x3da82275	0.08209697
175	0xbcf0e34d	-0.02940526
176	0x3d9bf5e2	0.07615258
177	0x3df7a4f6	0.12092011
178	0xbcaff82c	-0.021480642
179	0x3c05d3e3	0.0081681935
180	0xbe1485c5	-0.14504154
181	0x3d1448c5	0.03620221
182	0xbe343823	-0.1759954
183	0x3dcd4aa6	0.10024004
184	0x3c9ac52a	0.018892843
185	0x3dd0b412	0.10190596
186	0x3d9756ca	0.073896006
187	0x3e0d8345	0.13819607
188	0x3de4c0b1	0.111695655
189	0x3de40005	0.11132816
190	0xbe0be0cd	-0.13659973
191	0x3dbb3692	0.09141268
192	0x3d366e61	0.04453886
193	0xbddad98b	-0.10686024
194	0xbe2bcc12	-0.16777065
195	0xbd59e43a	-0.05319617
196	0x3e751835	0.23935015
197	0x3c614458	0.013749205
198	0x3d091f44	0.033477083
199	0xbbbf0b0a	-0.0058301734
200	0xbd97658a	-0.07392414
201	0x3c03eccd	0.008052063
202	0xbcb07864	-0.021541782
203	0xbcf76891	-0.030201228
204	0x3e0163af	0.12635683
205	0xbdd0557f	-0.10172557
206	0x3d8834dc	0.06650707
207	0x3d670383	0.056399833
208	0xbb5daf87	-0.0033826546
209	0x3da1d86a	0.07902606
210	0x3da70f65	0.08157233
211	0xbd98e6b3	-0.074658774
212	0xbdf0bb50	-0.11754477
213	0xbd022c79	-0.031780694
214	0xbccc84f8	-0.024965748
215	0x3da4252e	0.08014904
216	0x3d44c140	0.04803586
217	0x3d2ba5ef	0.041906293
218	0xbd3ce116	-0.046113096
219	0x3b578c72	0.0032890108
220	0xbee526ed	-0.4475626
221	0xbe05ce12	-0.13066891
222	0xbe298f99	-0.16558684
223	0x3d61921a	0.055070974
224	0xbd05d3b0	-0.032672584
225	0xbb8d88e6	-0.004319298
226	0x3de9aa9e	0.11409496
227	0x3e2f7967	0.17136155
228	0x3dce5551	0.100748666
229	0x3df37dbf	0.118892185
230	0x3da8a984	0.082354575
231	0x3d44564e	0.04793387
232	0x3ce3abaf	0.027791826
233	0xbc8bd255	-0.017068068
234	0x3b0fcdd5	0.0021942754
235	0x3e05c3cb	0.1306297
236	0xbcc3c181	-0.02389598
237	0x3d57dd1d	0.052701104
238	0xbdaf174c	-0.085493654
239	0x3cdd281f	0.02699667
240	0x3d8b6cfc	0.068078965
241	0x3e2caaf2	0.16862085
242	0x3e07e33a	0.13270274
243	0xbe0a7a30	-0.13523173
244	0xbe0a8e3f	-0.13530825
245	0xbe33af63	-0.17547373
246	0xbc3434a0	-0.010998875
247	0xbc3dd185	-0.011585598
248	0xbcac9594	-0.021067418
249	0xbdba3f86	-0.090941474
250	0x3e19f0aa	0.15033212
251	0x3e4a1ddb	0.19737951
252	0xbb97cd5b	-0.0046326346
253	0x3d68b015	0.05680855
254	0x3da1d0e9	0.079011746
255	0xbdeaff08	-0.114744246

gru.weight_hh_l0 f4 [192, 64]
0	0x3ded13df	0.11576056
1	0x3d9773fb	0.073951684
2	0x3d0be89e	0.034157388
3	0xbd9f157e	-0.07767771
4	0xbb961d17	-0.0045811045
5	0xbdf6f77d	-0.120589234
6	0xbcc2bcc3	-0.02377165
7	0xbe34278b	-0.1759321
8	0xbe039ae3	-0.12852053
9	0xbdd10047	-0.10205131
10	0xbc01845a	-0.00790509
11	0x396d9c00	0.00022660196
12	0x3b6f395d	0.0036502697
13	0x3da94975	0.08265964
14	0xbcd12037	-0.025528057
15	0x3bd3119c	0.006441308
16	0xbd067f9b	-0.032836538
17	0xbe3e440d	-0.18580647
18	0x3c0bdd21	0.008536608
19	0x3db39e48	0.08770424
20	0x3d3d437e	0.046206944
21	0xbdd62443	-0.10456135
22	0x3d7f830d	0.06238084
23	0x3db8efa2	0.09030081
24	0xbc94dd78	-0.01817201
25	0xbde19a8b	-0.11015805
26	0x3d7b8abe	0.06141161
27	0x3d30d7d2	0.043174572
28	0x3dc75d25	0.09734563
29	0xbd66fcf9	-0.056393597
30	0xbc121412	-0.008915918
31	0xbe3fac0c	-0.18717974
32	0xbcec2b00	-0.028829098
33	0xbd838a7e	-0.064229
34	0xbd9e4ea3	-0.077298425
35	0xbda48227	-0.08032637
36	0x3df4294d	0.1192194
37	0xbc7798a3	-0.015112075
38	0xbd9e4a79	-0.07729048
39	0x3e030f44	0.12798792
40	0xbc31f125	-0.010860716
41	0xbcb4da6e	-0.022076812
42	0x3d9460ea	0.072450474
43	0xbc8f332e	-0.017480459
44	0xbdab7d70	-0.08373535
45	0x3d5c6a93	0.053812575
46	0xbdf6d44d	-0.12052212
47	0xbd54dc93	-0.05196817
48	0xbe557729	-0.20846237
49	0xbd1f764e	-0.038931184
50	0x3d0a29d3	0.033731293
51	0xbc91beb5	-0.017791132
52	0x3e0a2116	0.13489184
53	0x3e00fcb5	0.125964
54	0x3d963ac7	0.0733543
55	0xbe0bd85a	-0.1365675
56	0xbdac7c71	-0.08422173
57	0xbd08887f	-0.033333298
58	0x3d2a528f	0.04158264
59	0x3de6a2d7	0.11261528
60	0xbd9dbfdb	-0.07702609
61	0xbcdd9683	-0.027049309
62	0xbd35f571	-0.044423524
63	0x3e2af3d7	0.1669458
64	0xbc3e2b8f	-0.011607065
65	0x3d9419fe	0.0723152
66	0x3da0ea55	0.07857195
67	0xbce04ae8	-0.027379468
68	0x3dd1f8e7	0.102525525
69	0xbd960415	-0.07324997
70	0xbcdbfe5f	-0.026854692
71	0xbc654d22	-0.013995441
72	0x3dc51bf7	0.096244745
73	0x3dc4beb9	0.0960669
74	0x3d571e45	0.0525191
75	0xbd7d87bd	-0.06189703
76	0x3d97ffe4	0.07421854
77	0xbe1169b5	-0.1420048
78	0x3dc843cc	0.09778556
79	0x3d46bd31	0.04852027
80	0xbddc0486	-0.1074305
81	0x3e02b037	0.12762533
82	0x3d595d98	0.053067774
83	0xbe065c79	-0.13121213
84	0xbd07d6c3	-0.033163797
85	0xbdc665bf	-0.09687375
86	0xbcd228dd	-0.02565425
87	0x3c1a9634	0.009435225
88	0xbd95fe8e	-0.07323943
89	0xbd6a7f74	-0.057250455
90	0xbd14356c	-0.03618376
91	0xbdea0e35	-0.11428491
92	0x3c150d04	0.009097341
93	0xbddd07b7	-0.10792487
94	0x3dd03e37	0.101681165
95	0x3cfa5ea7	0.030562712
96	0xbdd23c7f	-0.10265445
97	0x3daf4c9d	0.08559535
98	0x3d172eaf	0.036909755
99	0x3d6948c1	0.05695415
100	0x3d566bff	0.052349087
101	0xbddea8ac	-0.10872015
102	0x3d0e8660	0.03479612
103	0x3c931dc4	0.01795853
104	0xbc6bcb03	-0.0143916635
105	0xbe179522	-0.14802983
106	0x3ab03ca0	0.0013445802
107	0xbd64a1cb	-0.05581836
108	0x3c35118d	0.011051548
109	0x3dfb6adc	0.12276241
110	0xbd8f8777	-0.0700826
111	0x3d997e56	0.074948
112	0x3db5bddd	0.08874104
113	0xbcc0518a	-0.02347638
114	0xbd7d2ca8	-0.061810166
115	0xbd57c9d7	-0.052682724
116	0x3da51078	0.08059782
117	0x3c4c0f27	0.0124547845
118	0xbdb9f78c	-0.09080419
119	0x3daa5bfe	0.08318327
120	0x3d1b4d31	0.037915412
121	0x3e2eacaf	0.17058061
122	0x3c7f1de7	0.015571094
123	0x3d4e10f6	0.050309144
124	0x3dd70a4f	0.10500013
125	0x3cd82f90	0.026389867
126	0xbd24f21c	-0.040269956
127	0x3cb3a4e6	0.021929216
128	0x3cc740ed	0.024322951
129	0x3d52b5ec	0.051443025
130	0x3df80f73	0.12112322
131	0x3bc03008	0.005865101
132	0xbc22608f	-0.009910717
133	0x3d5b54f7	0.053547826
134	0xbe2719b5	-0.163184
135	0xbdc4c179	-0.096072145
136	0x3e800718	0.25005412
137	0xbd02385a	-0.031792022
138	0xbca708ec	-0.020389996
139	0x3ceedca0	0.029157937
140	0xbd621610	-0.05519682
141	0xbcb70ca1	-0.02234489
142	0x3d4c11dc	0.04982172
143	0xbbcee872	-0.0063143307
144	0xbe4bec21	-0.19914295
145	0xbc88cff1	-0.016700717
146	0x3e1e4261	0.15455009
147	0x3db488c6	0.0881515
148	0xbde960da	-0.11395426
149	0x3d68170a	0.056662597
150	0xbd1eeb99	-0.038798902
151	0x3da5de6e	0.08099066
152	0xbe10f91f	-0.14157532
153	0x3e0a51c1	0.13507749
154	0xbdb52122	-0.0884421
155	0xbd1103a8	-0.035403877
156	0x3d3f6cf9	0.046734784
157	0x3d67981b	0.056541543
158	0x3b760bb0	0.0037543587
159	0x3db51712	0.08842291
160	0xbd25334c	-0.040332124
161	0x3c69ef31	0.014278219
162	0x3e0a9148	0.13531983
163	0xbd9b649c	-0.07587549
164	0x3d1d8aac	0.038462326
165	0xbcf526f2	-0.029925797
166	0xbdc8e4d9	-0.09809274
167	0xbd8bec60	-0.06832194
168	0x3df7af37	0.120939665
169	0x3d1c1237	0.03810331
170	0xbcaca7cb	-0.021076104
171	0xbd1db942	-0.038506754
172	0xbd48cfb2	-0.0490262
173	0x3d7b210c	0.061310813
174	0xbdb22b92	-0.08699717
175	0xbdab9396	-0.08377759
176	0xbdf70f49	-0.12063462
177	0x3e43aebf	0.19109629
178	0x3b22e8df	0.002485804
179	0xbca63435	-0.020288566
180	0x3d2dfac4	0.042475477
181	0xbcda05ae	-0.026614036
182	0x3d06b2dd	0.03288542
183	0xbdbbb69d	-0.0916569
184	0xbcb9ee07	-0.022696508
185	0x3dfea6e5	0.12434176
186	0xbdc314f6	-0.09525482
187	0x3de53727	0.1119216
188	0xbe2e6c98	-0.17033613
189	0xbc7b2a5a	-0.015329922
190	0xbd626493	-0.055271696
191	0x3db51f37	0.088438444
192	0xbde3d1bc	-0.11123988
193	0x3db9e70f	0.09077274
194	0xbdf83be4	-0.12120798
195	0xbddddf92	-0.10833658
196	0xbdf0f79e	-0.11765979
197	0x3db8686e	0.090042934
198	0x3d3a8b60	0.045543075
199	0x3dbdaac0	0.092610836
200	0x3d46d633	0.04854412
201	0xbde9b074	-0.11410609
202	0xbd8b35b9	-0.06797356
203	0x3d8512cc	0.06497726
204	0x3e10a5a3	0.14125685
205	0xbda761d3	-0.08172955
206	0xbd03c220	-0.032167554
207	0x3df6b1c3	0.12045624
208	0x3dd78a38	0.1052441
209	0x3da005e2	0.07813622
210	0x3e01d081	0.12677194
211	0xbdb9f13f	-0.09079217
212	0xbcc32e51	-0.023825796
213	0x3dda2935	0.10652391
214	0x3d875e3d	0.066097714
215	0xbda74bcd	-0.08168755
216	0x3bcb99ac	0.0062133875
217	0x3e151d82	0.14562038
218	0x3dadadb8	0.084804
219	0x3dee0e61	0.11623836
220	0x3b400b6a	0.0029303678
221	0x3d47e8eb	0.048806112
222	0x3dc9d0f8	0.09854311
223	0x3ce44942	0.027866963
224	0x3dc52b63	0.09627416
225	0xbcfa83c7	-0.030580414
226	0xbcc3ab67	-0.023885442
227	0xbdc8b759	-0.09800596
228	0xbb42191c	-0.0029617017
229	0x3c8440d9	0.016144203
230	0xbd93e5b4	-0.07221547
231	0x3d7671ae	0.060167007
232	0xbcc4d2dd	-0.024026329
233	0xbe0bfbaa	-0.13670221
234	0x3dc7e593	0.09760585
235	0x3e0cf783	0.13766293
236	0xbdadceb7	-0.08486693
237	0x3d6b40e4	0.05743493
238	0xbb053971	-0.0020328427
239	0xbe1b95eb	-0.15193908
240	0x3dec4d3c	0.11538169
241	0xbd0e839a	-0.034793474
242	0x3d499ed8	0.04922375
243	0xbd1a5f32	-0.03768844
244	0xbdaff035	-0.08590738
245	0x3d554806	0.05207064
246	0xbd168e84	-0.036757007
247	0x3e10431b	0.14088099
248	0x3d995c38	0.074882925
249	0x3d48ac51	0.04899246
250	0x3d210b28	0.03931728
251	0x3bbd0715	0.0057686665
252	0x3c86c79f	0.016452609
253	0xbc883e43	-0.016631251
254	0x3ce16fee	0.027519193
255	0xbd332dd9	-0.043744896

gru.bias_ih_l0 f4 [192]
0	0xbd8652e6	-0.0655878
1	0xbc89b88c	-0.016811632
2	0x3e2e9b6e	0.17051479
3	0xbdb7a8d3	-0.089677475
4	0x3cdffbc6	0.027341735
5	0x3d0eb966	0.03484478
6	0x3df66a48	0.1203199
7	0x3dbdfaae	0.09276329
8	0x3c9daf28	0.01924856
9	0x3dda201f	0.10650658
10	0xbd2f6088	-0.04281667
11	0x3de5dc70	0.11223686
12	0x3df42a58	0.11922139
13	0x3c88dc59	0.016706632
14	0x3df2104d	0.118195154
15	0x3dae583d	0.08512924
16	0x3d94a90f	0.07258808
17	0x3e28cba3	0.16483931
18	0x3cbb9fcc	0.022903346
19	0xbd8a8bd9	-0.06764955
20	0xbc741428	-0.014897384
21	0xbd616421	-0.05502713
22	0x3bb8dd5a	0.0056416215
23	0x3cd0863a	0.02545463
24	0x3d10b071	0.035324518
25	0x3d80828e	0.06274901
26	0x3d9eb0d8	0.07748574
27	0xbdba65a0	-0.09101415
28	0xbbe19d9f	-0.006885245
29	0x3db3c64d	0.08778057
30	0xbd99404c	-0.07482967
31	0x3c9dfa6a	0.019284446
32	0xbcf6f3d3	-0.030145561
33	0x3ca16450	0.019701153
34	0x3e0029d3	0.12515955
35	0x3e152e47	0.14568435
36	0x3daf23c1	0.085517414
37	0xbcea3ac3	-0.028592473
38	0x3d177b92	0.03698308
39	0x3dc4a4a0	0.09601712
40	0x3ce7fe8e	0.028319623
41	0xbdaed302	-0.0853634
42	0xbdd4e76b	-0.10395702
43	0x3d58366d	0.05278628
44	0xbcf613ec	-0.030038796
45	0x3e2ff98f	0.17185043
46	0x3e2aef3b	0.16692822
47	0xbc1b7349	-0.009487935
48	0x3e0d2842	0.13784888
49	0x3e206d57	0.1566671
50	0x3e1bbe4d	0.15209313
51	0xbdfdd7ef	-0.12394702
52	0x3d47a2dd	0.048739303
53	0xbc0e7bd8	-0.008696519
54	0x3e0ddd09	0.1385385
55	0xbdd77216	-0.10519807
56	0x3af3ba6d	0.0018594988
57	0x3daad740	0.08341837
58	0x3d6a6e43	0.05723406
59	0x3d5c5926	0.053795956
60	0x3e532421	0.20619251
61	0x3cf27c51	0.029600294
62	0x3d847a45	0.064686336
63	0xbb06cb12	-0.0020567817
64	0x3d39f4ba	0.045399405
65	0xbd797869	-0.060905848
66	0xbf116bbb	-0.5680501
67	0x3cc8fd7a	0.02453493
68	0xbe65c56a	-0.22438589
69	0xbe7667b2	-0.24062994
70	0x3e593f74	0.21215612
71	0xbe3c2d33	-0.18376617
72	0xbd34171b	-0.043967348
73	0xbf2163f9	-0.6304317
74	0xbe810cf6	-0.252052
75	0x3e22737a	0.15864363
76	0x3dd84570	0.10560119
77	0xbf0e10ba	-0.5549427
78	0x3e2f318c	0.17108744
79	0xbe5ba0a4	-0.21447998
80	0xbeeab011	-0.45837453
81	0xbf07b31d	-0.5300768
82	0x3c9b905c	0.018989734
83	0x3de930be	0.1138625
84	0xbf181301	-0.59404
85	0xbec20e85	-0.37901703
86	0xbf015350	-0.5051775
87	0xbed00dd1	-0.4063554
88	0x3b0388ae	0.002007048
89	0xbede03c1	-0.4336224
90	0xbe9ac585	-0.3022882
91	0xbeac6b25	-0.33675495
92	0x3dfe6838	0.12422222
93	0xbe8c3112	-0.27381188
94	0xbea99ebf	-0.33128926
95	0xbd3cecf0	-0.0461244
96	0xbd13c370	-0.036075056
97	0xbe62a574	-0.22133428
98	0xbd2771d7	-0.04088005
99	0xbdcd5c3a	-0.100273564
100	0xbf0b8e86	-0.5451435
101	0xbe9b74ac	-0.3036245
102	0xbec55f7a	-0.38549405
103	0xbebd96c2	-0.37029082
104	0xbd2e39ee	-0.042535715
105	0x3da0ebff	0.07857513
106	0xbd7d3a45	-0.06182315
107	0xbb65e56f	-0.003507938
108	0xbf2c1e4f	-0.6723375
109	0xbda04a3a	-0.078266576
110	0x3be52723	0.006993191
111	0xbdde7495	-0.1086208
112	0x3e8586ac	0.2607931
113	0xbf20a5f0	-0.627532
114	0xbde8bb76	-0.1136388
115	0x3e91291b	0.28351673
116	0xbec093e6	-0.37612838
117	0xbf1aa07b	-0.60401124
118	0xbe880990	-0.26569796
119	0x3ebe586e	0.37176841
120	0xbefd9277	-0.49525806
121	0xbf349a25	-0.70547706
122	0xbe349953	-0.17636614
123	0xbe70f6e0	-0.23531675
124	0xbe99a344	-0.30007374
125	0xbf14a359	-0.5806175
126	0xbf2595aa	-0.64681494
127	0xbe2586c0	-0.16164684
128	0x3dddf5e1	0.10837913
129	0xbde115cd	-0.10990486
130	0xbdb48bd8	-0.088157356
131	0xbd9bbbdd	-0.076041915
132	0xbcc69e44	-0.024245389
133	0xbd8bfd36	-0.068354055
134	0xbd6a1622	-0.057150014
135	0xbda5833a	-0.0808167
136	0x3dc2791e	0.094957575
137	0xba73436e	-0.0009279762
138	0x3d2853d7	0.04109558
139	0xbdaec95d	-0.08534501
140	0xbc45a0d6	-0.012062272
141	0x3d878242	0.066166416
142	0x3b2140d7	0.0024605298
143	0x3d6e6a60	0.058206916
144	0xbd8ae6b3	-0.06782284
145	0xbdbaeba5	-0.09126977
146	0x3d9d2b14	0.07674232
147	0x3d065e2f	0.032804664
148	0xbda31d06	-0.0796452
149	0x3d431b5d	0.047633518
150	0x3d0ad0b1	0.03389043
151	0xbd0f09eb	-0.034921568
152	0xbc94892d	-0.018131817
153	0x3d513dea	0.051084436
154	0xbd07e619	-0.033178423
155	0x3c267f5c	0.010162201
156	0x3dca81b9	0.09888024
157	0x3d1be2ec	0.038058206
158	0x3ccae4af	0.024767248
159	0x3d3dd050	0.04634124
160	0xbdc86302	-0.09784509
161	0xbe06b3b0	-0.13154483
162	0x3ca1535e	0.019693073
163	0xbd1a7d0b	-0.037716907
164	0xbcd8d849	-0.02647032
165	0x3dda3a83	0.106556915
166	0xba8458b1	-0.0010097233
167	0x3d908767	0.07057076
168	0xbc3b060b	-0.011415015
169	0x3d42fd74	0.047604993
170	0xbd91206f	-0.07086264
171	0xbd4a8465	-0.049442668
172	0xbd664438	-0.056217402
173	0xbd11c6d0	-0.035589993
174	0xbd673d7f	-0.05645513
175	0x3d460de9	0.04835311
176	0x3c5e0a5d	0.0135522755
177	0xbd6b5d74	-0.05746217
178	0xbd4ea16e	-0.05044692
179	0xbd54c854	-0.05194886
180	0xbcc669eb	-0.024220427
181	0xbd82d7be	-0.06388806
182	0xbdb3540c	-0.08756265
183	0xbd565717	-0.05232915
184	0xbc5b3c05	-0.013381009
185	0xbc3e4daf	-0.011615201
186	0x3c8b7fa5	0.01702864
187	0x3d3626ad	0.044470478
188	0x3d73dbec	0.059535906
189	0xbc9a284c	-0.018818043
190	0x3da2b41e	0.07944511
191	0xbd20f4e2	-0.03929604

gru.bias_hh_l0 f4 [192]
0	0xbdca5727	-0.09879904
1	0x3d777423	0.06041349
2	0x3e26559e	0.16243598
3	0x3c5ef0e7	0.01360724
4	0xbc98e55a	-0.01866405
5	0xbd31cd1c	-0.0434085
6	0xbb4013b9	-0.002930863
7	0x3e062e20	0.13103533
8	0x3e5560ca	0.20837703
9	0x3c9c9c2b	0.019117435
10	0x3b938f79	0.0045031873
11	0xbd5e2aa4	-0.054239884
12	0x3cff30f2	0.031151269
13	0x3b96205e	0.004581495
14	0x3d488c68	0.048962027
15	0x3d97424c	0.07385692
16	0x3d619b1b	0.05507956
17	0x3e349a90	0.17637086
18	0x3da3954b	0.0798746
19	0x3ccbd161	0.024880113
20	0x3de07977	0.109606676
21	0x3de39859	0.111130424
22	0x3c94751c	0.018122248
23	0xbd828124	-0.06372288
24	0x3e452948	0.19254029
25	0x3d95aa33	0.073078535
26	0xbd8e78b4	-0.06956616
27	0x3e0813a2	0.1328874
28	0xbdf12411	-0.11774457
29	0x3d9fcd93	0.07802882
30	0x3c9b5f49	0.018966334
31	0x3c5efdbb	0.013610299
32	0x3c17f745	0.009275262
33	0x3db5e9ba	0.088824704
34	0x3dac01c9	0.08398778
35	0x3d09c91f	0.03363907
36	0x3daae05e	0.08343576
37	0x3d42752e	0.047475033
38	0xbd297528	-0.041371495
39	0x3d6549be	0.05597853
40	0x3dab0889	0.08351237
41	0xbcd6ee04	-0.026236542
42	0x3d499c4d	0.049221326
43	0x3e0d8eb8	0.13823974
44	0x3d5a3385	0.05327179
45	0x3e146fe1	0.14495803
46	0x3ce98d5f	0.028509794
47	0x3e187741	0.14889242
48	0x3cc0a935	0.023518184
49	0x3e37f987	0.17966281
50	0x3dc4b225	0.09604291
51	0xbd16497d	-0.036691178
52	0x3bdc1d45	0.0067173564
53	0x3e013d47	0.12621032
54	0x3d633b03	0.0554762
55	0x3d3cd29f	0.0460993
56	0x3dc269e7	0.094928555
57	0xbcb053f3	-0.021524405
58	0xbde3d5f4	-0.11124793
59	0x3da14db1	0.078761466
60	0x3e363a55	0.1779569
61	0xbd471305	-0.048602123
62	0x3dc98f54	0.09841791
63	0xbd690a22	-0.05689443
64	0x3c19a2b1	0.009377168
65	0xbdd84964	-0.10560873
66	0xbeeec791	-0.46636632
67	0x3e3848e7	0.1799656
68	0xbd865a5d	-0.06560204
69	0xbe20472e	-0.15652153
70	0x3d9212f7	0.071325235
71	0xbe25c21a	-0.16187325
72	0x3dce881f	0.10084557
73	0xbf4efe40	-0.80856705
74	0xbe481fc3	-0.19543366
75	0x3dc4dc65	0.096123494
76	0xbc947350	-0.018121392
77	0xbf196baf	-0.5992994
78	0xbd3e4a03	-0.0464573
79	0xbe83d231	-0.257463
80	0xbf06467f	-0.5245132
81	0xbf1493a2	-0.5803777
82	0x3e430481	0.19044687
83	0x3ce3fecc	0.027831458
84	0xbf32c931	-0.69838244
85	0xbec9b3aa	-0.39394885
86	0xbeb69fed	-0.3566889
87	0xbf1d81ef	-0.6152639
88	0xbdb1e6c1	-0.08686591
89	0xbef98e9e	-0.4874162
90	0xbeac3856	-0.3363673
91	0xbea9e1e3	-0.3318015
92	0x3d757cd9	0.059933517
93	0xbe976fe6	-0.2957756
94	0xbecf96d7	-0.4054477
95	0xbdc05350	-0.093908906
96	0xbc152a6c	-0.009104352
97	0xbe64b4f7	-0.22334658
98	0x3a05929c	0.0005095394
99	0xbe464597	-0.19362484
100	0xbef2a916	-0.47394627
101	0xbee82caf	-0.4534659
102	0xbe5b8707	-0.21438228
103	0xbec3bb0f	-0.38228652
104	0x3d2e8aab	0.042612713
105	0x3e215fdb	0.15759222
106	0xbd634772	-0.055488057
107	0x3d8ffb54	0.07030359
108	0xbf10cb07	-0.56559795
109	0xbe64c7de	-0.22341868
110	0x3d6e2434	0.058139995
111	0xbe723853	-0.23654298
112	0x3ea12c52	0.31479126
113	0xbf254641	-0.64560324
114	0xbe815a90	-0.25264406
115	0x3d9621da	0.073306754
116	0xbe5f14ba	-0.2178525
117	0xbeeaace7	-0.4583504
118	0xbe39828a	-0.18116203
119	0x3edb2e64	0.4280883
120	0xbea75ecf	-0.3268952
121	0xbf371f6e	-0.7153233
122	0xbe35854d	-0.17726631
123	0xbe18cd31	-0.14922024
124	0xbea9ebfb	-0.3318785
125	0xbef076d8	-0.4696567
126	0xbf2c5aec	-0.67326236
127	0xbe097f28	-0.13427413
128	0x3d332db5	0.04374476
129	0xbdb9fe0b	-0.09081658
130	0x3d1a14fa	0.03761766
131	0xbd66741e	-0.05626308
132	0x3dc4514d	0.095858194
133	0xbd74bd36	-0.059750758
134	0xbdcc56db	-0.09977504
135	0xbd85416b	-0.06506618
136	0x3d305d4a	0.043057717
137	0xbdc4e1fb	-0.09613415
138	0x3c4f51a3	0.012653741
139	0x3dd28227	0.10278731
140	0x3d1d3995	0.038384993
141	0x3c592399	0.013253116
142	0xbc6de9d3	-0.01452108
143	0xbd94947c	-0.07254884
144	0x3ded44fc	0.11585423
145	0xbd7d33fc	-0.061817154
146	0x3d6e94db	0.05824743
147	0xbc5dc9f0	-0.013536915
148	0x3d3c4eb6	0.045973502
149	0xbe23d4cd	-0.15999146
150	0xbe01bc75	-0.12669547
151	0x3de199da	0.11015673
152	0x3ad85e4d	0.0016507596
153	0xbd7d527c	-0.06184624
154	0xbde1b65c	-0.110211104
155	0xb88972a9	-6.554026e-05
156	0xbd4b946a	-0.049702086
157	0xbdc046f5	-0.09388534
158	0xbd9071e8	-0.07052976
159	0xbdba0215	-0.09082428
160	0x3cd2969f	0.025706587
161	0xbda1e4e5	-0.07904986
162	0xbd4d223a	-0.05008147
163	0xbd85f279	-0.065403886
164	0xbd844495	-0.064583935
165	0xbdf609bf	-0.12013578
166	0x3c9f92ff	0.019479273
167	0xbd674190	-0.05645901
168	0x3e004e14	0.12529784
169	0xbce888ef	-0.028385608
170	0x3dbc6cea	0.09200461
171	0xbd7e22ed	-0.062045027
172	0x3d4558d6	0.048180424
173	0x3e03b3e9	0.12861599
174	0x3bb2db4e	0.005458272
175	0x3d23c103	0.039978992
176	0xbc9fdfbb	-0.019515863
177	0x3db6c3a1	0.08924032
178	0x3cd6968e	0.026194837
179	0x3d9e009f	0.07714962
180	0x3cbce49d	0.02305823
181	0x3cc6702e	0.024223413
182	0x3d69c9fa	0.057077385
183	0xbdf96623	-0.12177684
184	0xbdbc373d	-0.09190223
185	0xbd1af72d	-0.03783338
186	0x3daa3983	0.08311751
187	0xbdb51dc5	-0.08843569
188	0x3de5de07	0.11223989
189	0xbbe09f7f	-0.006854951
190	0xbe0a85a9	-0.1352755
191	0x3db5efc6	0.08883624

gru.weight_ih_l1 f4 [192, 64]
0	0xbd7d5c3c	-0.06185554
1	0xbd038db8	-0.032117575
2	0xbdd2bd17	-0.10289972
3	0x3c053b7d	0.008131859
4	0xbdd68304	-0.10474208
5	0x3dab919e	0.08377384
6	0xbc219831	-0.009862945
7	0xbde280e1	-0.11059738
8	0x3e1d96ac	0.15389508
9	0xbd2b78ac	-0.04186313
10	0xbdb34ff9	-0.08755488
11	0xbe18d009	-0.14923109
12	0x3ca7c754	0.02048079
13	0x3ea32728	0.3186581
14	0x3c8d9eb6	0.017287593
15	0xbc392e2f	-0.011302515
16	0xbcb26452	-0.021776352
17	0x3d0de943	0.034646284
18	0xbcebd31e	-0.028787192
19	0x3d94be9b	0.072629176
20	0xbe52e11f	-0.2059369
21	0xbdb989bb	-0.09059473
22	0xbdfef11b	-0.12448331
23	0x3e2a333b	0.16621105
24	0x3d97c96f	0.07411467
25	0x3d5689c0	0.052377462
26	0xbdcb4ad5	-0.099263825
27	0x3dc22c11	0.09481061
28	0x3de89ff3	0.11358633
29	0x3d40cfe0	0.047073245
30	0x3d38f7e3	0.04515828
31	0xbc9b76cd	-0.018977547
32	0x3d3f8476	0.046757184
33	0x3cea5ebe	0.02860963
34	0xbd56f3fd	-0.05247878
35	0xbe0a8f28	-0.13531172
36	0x3d57db48	0.052699357
37	0x3e3071bc	0.17230886
38	0xbd47df2f	-0.04879683
39	0x3e027eda	0.12743703
40	0xbdcd6c24	-0.10030392
41	0xbb8ca360	-0.0042919368
42	0xbd018927	-0.03162494
43	0xbdccbb81	-0.09996701
44	0xbdd996fc	-0.10624501
45	0x3d276b7d	0.040873993
46	0x3dd3b570	0.10337341
47	0xbdd5f7e4	-0.10447672
48	0x3b8db5b9	0.0043246415
49	0xbd75a183	-0.059968483
50	0x3d251934	0.04030724
51	0xbcfda46e	-0.030962195
52	0x3cae437a	0.02127241
53	0xbb7b2886	-0.0038323714
54	0xbd5df389	-0.05418733
55	0x3d890f4f	0.06692373
56	0x3d9b4aa9	0.075826
57	0xbccf8c85	-0.02533556
58	0xbd9a2d40	-0.07528162
59	0xbcfbf640	-0.03075707
60	0xbde86701	-0.113477714
61	0xbde24d07	-0.11049848
62	0xbde9381d	-0.11387656
63	0xb9574312	-0.00020528983
64	0xbe1ae2de	-0.15125605
65	0x3c4faa0c	0.01267482
66	0x3e271ef1	0.16320397
67	0x3d7bb4b8	0.061451644
68	0xbcecde1a	-0.0289145
69	0xbc9f895e	-0.019474681
70	0x3ddc5978	0.10759252
71	0x3e05e7f7	0.13076769
72	0xbda25184	-0.07925704
73	0x3e7b25fa	0.24526206
74	0x3d49b919	0.04924879
75	0x3de21196	0.110385105
76	0x3dc0afda	0.09408541
77	0xbf5a217d	-0.8520735
78	0x3c876b37	0.016530616
79	0xbdb657a0	-0.08903432
80	0xbddda8aa	-0.10823186
81	0x3e47b8b6	0.19504055
82	0xbc84f51f	-0.016230164
83	0xbd05f8ba	-0.032707907
84	0x3ef7c8ed	0.48395482
85	0x3e204614	0.15651733
86	0x3e587009	0.21136488
87	0xbe10473b	-0.14089672
88	0x3d92031b	0.071294986
89	0x3eb64c05	0.35604873
90	0xbe050e10	-0.12993646
91	0x3ddb06d6	0.10694663
92	0xbc44ab8a	-0.012003789
93	0x3dec200e	0.115295514
94	0xbe0282f9	-0.12745275
95	0x3dbd9c08	0.09258276
96	0x3e26c653	0.16286592
97	0x3db7fa79	0.08983321
98	0x3dc30f06	0.0952435
99	0x3da98312	0.08276953
100	0x3eb82383	0.35964593
101	0xbe263158	-0.1622976
102	0x3df63e6e	0.12023626
103	0xbe13b37b	-0.14423935
104	0x3d735d69	0.059415255
105	0xbcb36178	-0.021897063
106	0xbd59f4c7	-0.053211953
107	0xbc80f241	-0.015740516
108	0xbdad3018	-0.08456439
109	0x3e228047	0.15869246
110	0x3df27192	0.11838068
111	0xbd3659ed	-0.044519354
112	0xbdba3c1a	-0.09093495
113	0xbce61106	-0.02808429
114	0xbca6923b	-0.0203334
115	0xbd1ca790	-0.038245738
116	0x3b9c3839	0.0047674445
117	0x3e8f5a72	0.27998692
118	0xbe0750e3	-0.1321445
119	0x3e102619	0.14077033
120	0x3d2636b5	0.040579516
121	0x3f0baa88	0.54557085
122	0xbd5221aa	-0.051301636
123	0x3e14bd2d	0.1452529
124	0x3dbce980	0.09224224
125	0x3e29b6df	0.16573666
126	0x3c9878bd	0.01861226
127	0xbe055675	-0.13021262
128	0x3cc35410	0.023843795
129	0xbe0a69e4	-0.13516957
130	0xbdd2bf4e	-0.10290395
131	0xbe1191a1	-0.1421571
132	0x3deed003	0.11660769
133	0x3bd1d433	0.00640347
134	0xbda78d8a	-0.08181293
135	0xbe121f85	-0.14269836
136	0x3da7fe63	0.08202817
137	0xbe31f08f	-0.17376922
138	0xbcafab5b	-0.021444013
139	0xbcd79db4	-0.026320316
140	0xbc8e9fe6	-0.01741023
141	0x3e6221ec	0.22083253
142	0x3daebf4d	0.085325815
143	0x3d293f04	0.041319862
144	0xbd59154e	-0.052998833
145	0xbdfb9e79	-0.12286086
146	0x3dc7626c	0.09735569
147	0xbd93ea4b	-0.07222422
148	0xbe0b2e13	-0.13591795
149	0xbe20ea80	-0.15714455
150	0xbe5f342f	-0.2179725
151	0x3e3bbc4e	0.18333551
152	0x3d70d814	0.05879982
153	0xbe2e5c18	-0.17027318
154	0x3d8044ca	0.062631205
155	0x3df361f0	0.118839145
156	0xbc99dfe6	-0.01878352
157	0xbdb8b00c	-0.09017953
158	0xbdaba018	-0.08380145
159	0xbe223847	-0.1584178
160	0xbd1eeb75	-0.038798768
161	0xbd4b9346	-0.049700998
162	0xbdfa2ab7	-0.122151785
163	0xbdc144e2	-0.094369665
164	0xbe4d44a5	-0.20045717
165	0x3e66bcd6	0.22532973
166	0x3d853df6	0.06505959
167	0x3e403489	0.1877004
168	0x3dd26e08	0.10274893
169	0x3e01b785	0.12667663
170	0x3e080650	0.13283658
171	0xbdd31eb0	-0.103085876
172	0x3e5dc8d5	0.21658643
173	0xbd1469e0	-0.036233783
174	0x3d3204ef	0.043461736
175	0xbd0857ef	-0.033286985
176	0xbddb907e	-0.10720919
177	0x3e25c903	0.16189961
178	0xbdea7766	-0.11448555
179	0x3ba2f4cf	0.004973031
180	0xbe0228c0	-0.12710857
181	0xbe25d9a6	-0.16196308
182	0xbdb2a277	-0.08722394
183	0x3d040ba0	0.03223765
184	0xbd0a2039	-0.033722136
185	0xbd870022	-0.06591822
186	0x3dcb50c8	0.09927517
187	0xbc301eda	-0.010749543
188	0x3e21aff9	0.15789784
189	0x3de5699d	0.11201785
190	0xbd9a8879	-0.07545561
191	0xbd83ad24	-0.06429508
192	0x3ca44866	0.020054054
193	0xbde24e19	-0.11050052
194	0x3d3ad250	0.045610726
195	0x3dacc0d6	0.08435218
196	0xbd908bf4	-0.07057944
197	0xbd92e367	-0.0717228
198	0x3df656d7	0.12028282
199	0xbc2f0155	-0.01068147
200	0x3d9e5e4b	0.07732829
201	0x3d767554	0.060170487
202	0x3db7d1b1	0.08975542
203	0x3d319c06	0.043361686
204	0xbdb73201	-0.08945084
205	0x3d919dc6	0.07110171
206	0xbdcd2de2	-0.10018517
207	0x3d9b87b6	0.07594244
208	0xbe1bc612	-0.15212277
209	0x3d30bdba	0.043149687
210	0xbe339103	-0.17535786
211	0x3dc4873d	0.09596107
212	0xbe0156e9	-0.1263081
213	0x3ccf4a7f	0.025304077
214	0xbd828a84	-0.06374076
215	0x3dcbbd8d	0.09948263
216	0xbe06ef33	-0.13177185
217	0x3c0404f5	0.0080578225
218	0xbdee5507	-0.116373114
219	0xbce67d84	-0.028136022
220	0x3deb8782	0.115004554
221	0xbd9725e7	-0.07380276
222	0xbc064715	-0.008195658
223	0xbcca059e	-0.024660882
224	0x3d23c9f2	0.039987512
225	0x3d669708	0.05629638
226	0xbd471ecb	-0.04861335
227	0xbcfc8213	-0.030823743
228	0xbe19d4b4	-0.15022546
229	0x3e42421d	0.18970533
230	0xbd06aa0f	-0.032877024
231	0xbdd5629d	-0.104191996
232	0x3d81faba	0.063466504
233	0xbbdfcbe2	-0.0068297246
234	0x3d7accfd	0.06123065
235	0xbdbe9caa	-0.09307225
236	0xbe0b5091	-0.13604952
237	0x3c01563f	0.007894098
238	0xbd7ad10b	-0.061234515
239	0xbda5a258	-0.08087605
240	0xbdf2f50b	-0.118631445
241	0x3d197d80	0.0374732
242	0x3da56791	0.08076394
243	0x3d76ca0b	0.060251277
244	0x3e029176	0.12750801
245	0x3abeeb8d	0.0014566049
246	0x3c0eaef3	0.008708703
247	0xbdd43079	-0.10360808
248	0x3d5e8c09	0.054332767
249	0xbdd93018	-0.10604876
250	0xbd944e11	-0.072414525
251	0x3de207ed	0.11036668
252	0x3da7b97e	0.08189677
253	0x3e138d3d	0.14409347
254	0xbd6e4c0e	-0.058178
255	0x36f38ea8	7.2585717e-06

gru.weight_hh_l1 f4 [192, 64]
0	0xbdd417f8	-0.10356134
1	0xbe17af37	-0.14812933
2	0xbd0a6da8	-0.033795983
3	0x3ddfb329	0.10922844
4	0xbd41a61c	-0.047277555
5	0x3b3c2e93	0.0028714284
6	0x3c55037f	0.013001322
7	0x3d932406	0.07184605
8	0xbd436c01	-0.047710422
9	0xbdc11ebe	-0.09429692
10	0x3cb4feb7	0.022094114
11	0x3d930375	0.07178394
12	0xbc83cb33	-0.016088104
13	0x3dc9f1cb	0.098605715
14	0xbdc34c3b	-0.09536024
15	0xbde25368	-0.11051065
16	0xbe1af9b4	-0.15134317
17	0xbc15df62	-0.009147497
18	0xbdaabc46	-0.083366916
19	0xbd37dadf	-0.044886466
20	0x3d527c77	0.05138823
21	0x3cc85b9b	0.024457743
22	0xbddd8720	-0.10816789
23	0xbdb776c7	-0.08958202
24	0x3c6c28e6	0.014414048
25	0x3e1bf869	0.1523148
26	0xbd90753b	-0.0705361
27	0x3d344732	0.04401321
28	0xbce9f3fb	-0.028558722
29	0xbcd72d07	-0.026266588
30	0xbde6150e	-0.112344846
31	0x3dafc4f4	0.08582488
32	0xbdea072c	-0.11427149
33	0xbd1006f7	-0.035162892
34	0x3dc361cc	0.09540138
35	0xbd94cbfc	-0.072654694
36	0x3d7fcf87	0.062453773
37	0xbd89bfd7	-0.06726044
38	0xbd9ac27e	-0.07556628
39	0xbdcc32f1	-0.09970654
40	0x3d728059	0.059204433
41	0x3c2e25a9	0.010629096
42	0xbda0a2ed	-0.078435756
43	0x3dd50576	0.10401432
44	0xbe02ad98	-0.12761533
45	0x3d0d0c84	0.034435764
46	0xbd9ac103	-0.07556345
47	0x3db8f060	0.09030223
48	0x3cee735c	0.029107742
49	0x3d67066c	0.05640261
50	0xbc9ae930	-0.01891002
51	0x3dda5b06	0.106618926
52	0xbba04e25	-0.004892128
53	0x3da37bcc	0.07982597
54	0x3ddeb55e	0.10874437
55	0xbcd532da	-0.026025224
56	0xbdd6a3a3	-0.1048043
57	0xbde1276b	-0.109938465
58	0x3def5c0e	0.1168748
59	0x3c78d5c6	0.015187686
60	0x3dce926c	0.100865215
61	0xbe03b067	-0.12860261
62	0xbd926ca0	-0.07149625
63	0x3d2c9025	0.042129654
64	0x3e13c079	0.14428891
65	0x3e2c7e4f	0.16845058
66	0xbd6e2d07	-0.05814841
67	0x3ab3bdca	0.0013713178
68	0xbe074665	-0.13210447
69	0xbdc36b2f	-0.09541928
70	0x3e268a2a	0.16263643
71	0x3a2ad365	0.00065164856
72	0x3dc1ec52	0.09468903
73	0x3c29925e	0.010349838
74	0xbd00197d	-0.031274308
75	0x3dbc117d	0.09183023
76	0x3d063b76	0.03277155
77	0x3dc2766f	0.09495246
78	0x3cc6537a	0.024209727
79	0xbd2eb602	-0.042654045
80	0x3d61e2ac	0.05514781
81	0xbe1462ac	-0.14490765
82	0x3d937155	0.07199351
83	0x3dcd23f9	0.10016627
84	0xbdae9397	-0.08524244
85	0xbe05d892	-0.13070896
86	0xbdefc10e	-0.11706744
87	0x3d7a4f78	0.061110944
88	0x3d95981f	0.073044054
89	0xbd515331	-0.051104728
90	0x3daf9d20	0.08574891
91	0x3d313678	0.043264836
92	0xbd6770f9	-0.056504223
93	0xbd481df1	-0.04885668
94	0xbd2361f6	-0.039888345
95	0x3dc80703	0.097669624
96	0x3e0eb93e	0.13937852
97	0x3ce8b4e7	0.028406573
98	0xbd22a766	-0.039710425
99	0x3ca9c00b	0.020721456
100	0x3cecb442	0.028894547
101	0x3de1dbd1	0.11028255
102	0xbdb3210c	-0.087465376
103	0xbd7b3318	-0.061328024
104	0x3d50bdfa	0.050962426
105	0x3dc5b4f3	0.09653654
106	0xbd748759	-0.05969939
107	0x3bd38b96	0.006455849
108	0xbd8af55b	-0.06785079
109	0xbe14e7a5	-0.1454149
110	0xbd129ff2	-0.035797067
111	0xbd8586e7	-0.06519871
112	0xbd442172	-0.04788346
113	0xbde28d02	-0.11062051
114	0x3dd04862	0.10170056
115	0xbdeb7137	-0.114962034
116	0x3cb7193d	0.022350902
117	0xbdf55aea	-0.11980231
118	0xbe2992b4	-0.16559869
119	0xbaae6f10	-0.0013308246
120	0x3d8f7169	0.07004053
121	0x3d0ea6e8	0.034827143
122	0x3d959a78	0.07304853
123	0xbd622884	-0.05521442
124	0x3d760a76	0.06006857
125	0x3dd5eb72	0.10445298
126	0xbe346929	-0.1761824
127	0x3da9f410	0.08298504
128	0x3d35505e	0.044266097
129	0xbc979c63	-0.018507188
130	0xbb8b8304	-0.0042575616
131	0xbd59b04f	-0.053146657
132	0x3d84d259	0.06485433
133	0x3ce8a91d	0.028400952
134	0x3d113e84	0.03546001
135	0x3d775220	0.060381055
136	0xbcaec311	-0.02133325
137	0x3d0a5589	0.03377298
138	0xbb844c4b	-0.004037415
139	0xbda6c45c	-0.08142921
140	0xbdb8dbb1	-0.09026278
141	0xbd3ded3f	-0.046368834
142	0xbd497775	-0.04918619
143	0xbda5ac78	-0.080895364
144	0xbd0d82a0	-0.0345484
145	0x3e206430	0.15663218
146	0xbd7dd8ae	-0.06197422
147	0x3c7113df	0.01471421
148	0xbb1a91d7	-0.0023585462
149	0x3c5c9dd3	0.013465363
150	0x3af2c917	0.0018523064
151	0xbc672e99	-0.014110231
152	0xbbb82ab3	-0.0056203245
153	0xbd2a5c43	-0.041591894
154	0xbdef84ac	-0.11695227
155	0x3e036f74	0.12835485
156	0x3dc95331	0.098303206
157	0xbd8dc0b3	-0.0692152
158	0xbd6df557	-0.058095302
159	0x3da2d523	0.07950809
160	0xbc3c1678	-0.011479966
161	0xbd05ef16	-0.032698713
162	0xbc89470d	-0.016757512
163	0x3d0bea0c	0.03415875
164	0x3d3e7ab7	0.04650375
165	0x3dd80dc7	0.10549503
166	0xbdce7a7f	-0.10081958
167	0xbd9ff3f8	-0.07810205
168	0x3dca4759	0.0987689
169	0xbdd8cd90	-0.10586083
170	0x3d46424d	0.048403073
171	0x3c9cacca	0.019125361
172	0x3cef0c86	0.029180776
173	0xbd14b63b	-0.0363066
174	0x3cb08fe1	0.021552982
175	0xbd04b5c9	-0.032399926
176	0xbc38981c	-0.011266734
177	0x3c77f19d	0.015133289
178	0x3c5f2840	0.013620436
179	0x3dc4a085	0.09600929
180	0xbc193554	-0.009351093
181	0xbdd68739	-0.104750104
182	0x3af47f0d	0.0018653587
183	0xbd67d315	-0.056597788
184	0x3d766db7	0.060163226
185	0x3dcd1984	0.10014632
186	0x3cdf1ed1	0.027236374
187	0xbd1da26c	-0.038484976
188	0x3ca68bfd	0.020330423
189	0xbe1a2567	-0.1505333
190	0xbcb3bc2f	-0.021940319
191	0x3cd4e9e9	0.025990443
192	0xbd49baf5	-0.04925056
193	0xbc8e997d	-0.017407173
194	0x3da3fe23	0.08007457
195	0xbd161aec	-0.03664677
196	0xbd1b2370	-0.037875593
197	0xbd2d39f5	-0.0422916
198	0xbdc37f49	-0.09545762
199	0xbda6a3a0	-0.08136678
200	0x3dc9f4a8	0.098611176
201	0xbd805554	-0.06266275
202	0xbc5f65a5	-0.013635074
203	0x3d9e237f	0.07721614
204	0x3e1ddb84	0.1541577
205	0x3cab6b3e	0.02092516
206	0xbdbd8e14	-0.09255615
207	0xbd979021	-0.07400537
208	0xbd64d426	-0.055866383
209	0x3d7bdbe9	0.06148902
210	0x3dc4d9aa	0.096118286
211	0xbdc3ed48	-0.09566742
212	0xbdb38d50	-0.087671876
213	0x3db2c283	0.087285064
214	0x3ca505c2	0.020144347
215	0xbd1e858e	-0.038701586
216	0xbd949e1d	-0.0725672
217	0x3d8337cb	0.06407126
218	0xbba149b5	-0.0049221166
219	0x3d88cec6	0.06680064
220	0xbde3c43e	-0.111214146
221	0xbdb6abe4	-0.08919504
222	0x3ddcea41	0.10786868
223	0xbcd80780	-0.026370764
224	0x3d263a4b	0.040582936
225	0xbcb8bebe	-0.02255189
226	0x3dc1dfde	0.094665274
227	0x3cdfc46c	0.027315341
228	0x3da704c8	0.08155209
229	0xbda04fed	-0.07827745
230	0x3d519535	0.051167686
231	0xbd8d2163	-0.06891134
232	0xbdb7295c	-0.089434355
233	0xbd04ad06	-0.03239157
234	0xbda512f6	-0.08060257
235	0x3d1d0590	0.038335383
236	0x3e016180	0.1263485
237	0x3ac9efc0	0.0015406534
238	0xbdccbbe0	-0.09996772
239	0xbd5486df	-0.051886436
240	0x3ce3c515	0.027803937
241	0xbddf9ec0	-0.10918951
242	0x3d5e5e84	0.054289356
243	0xbd5fc1cf	-0.05462819
244	0x3d9aec0b	0.07564553
245	0x3dbfec42	0.093712345
246	0x3d381ef5	0.044951398
247	0x3d150439	0.03638098
248	0xbe0d938a	-0.13825813
249	0xbccc1f57	-0.024917288
250	0x3d096a1c	0.03354846
251	0xbe0c0a9c	-0.13675922
252	0x3dd488d2	0.10377659
253	0x3cf7f925	0.030270169
254	0x3c0700f6	0.008239975
255	0x3e1f5a59	0.15561809

gru.bias_ih_l1 f4 [192]
0	0xbd7bc5ae	-0.06146782
1	0xbdae5338	-0.085119665
2	0xbccb590d	-0.024822736
3	0xbda79950	-0.08183539
4	0xbca4aff7	-0.020103438
5	0x3dd7ade3	0.10531213
6	0x3db6db0c	0.089284986
7	0xbdf40935	-0.119158186
8	0x3d8fd570	0.07023132
9	0xbd5b30b0	-0.05351323
10	0xbda9f00a	-0.08297737
11	0xbcd42e31	-0.025900932
12	0xbe077dff	-0.13231657
13	0xbd99366f	-0.074810855
14	0x3d4ccbe0	0.049999118
15	0x3ccdaac5	0.025105843
16	0x3c8beda0	0.017081082
17	0xbdac1b05	-0.08403591
18	0xbdd4dbdc	-0.10393497
19	0xbde02a2b	-0.10945543
20	0xbd950eb0	-0.07278192
21	0xbde2c5de	-0.110728964
22	0xbd8a026c	-0.06738743
23	0xbdc89c9d	-0.097954966
24	0x3d339feb	0.04385368
25	0x3d78da17	0.06075486
26	0x3d89fc80	0.06737614
27	0x3dd60857	0.104508094
28	0xbdcb1b20	-0.09917283
29	0x3dc3057c	0.095225304
30	0xbdc052f1	-0.0939082
31	0x3d9be110	0.07611287
32	0xbdae27f8	-0.08503717
33	0xbdbc176e	-0.09184156
34	0x3d9d33b6	0.07675879
35	0x3d37bf47	0.04486015
36	0x3d586c7d	0.052837837
37	0x3dbcbeb6	0.09216063
38	0xbd5f6db4	-0.05454798
39	0xbdc44378	-0.09583181
40	0xbda9c55f	-0.08289599
41	0x3c2b8afa	0.010470146
42	0x3c988ff1	0.018623324
43	0xbcd4ea61	-0.025990667
44	0xbd4abe57	-0.04949793
45	0x3da63576	0.081156656
46	0xbd13c850	-0.036079705
47	0x3db7e615	0.089794315
48	0x3bf6cfce	0.0075320965
49	0x3c396ec3	0.011317912
50	0x3b944309	0.004524593
51	0xbd9c51e3	-0.07632806
52	0xbd0b08be	-0.033943884
53	0xbdb35ddc	-0.08758137
54	0x3c8faee4	0.017539449
55	0x3dddb299	0.108250804
56	0xbd59202e	-0.053009205
57	0x3de37fb3	0.11108341
58	0xbdd71638	-0.10502285
59	0xbd85dc36	-0.065361425
60	0xbc1ea2ca	-0.009682367
61	0xbdebaad3	-0.115071915
62	0xbdc69bb2	-0.09697665
63	0xbcfbbaf9	-0.030728804
64	0xbd1d94ef	-0.038472112
65	0xbe513593	-0.20430593
66	0xbd950a01	-0.07277299
67	0x3e44554c	0.19173163
68	0x3c856e34	0.0162879
69	0x3ccda410	0.025102645
70	0xbd4ac562	-0.049504645
71	0x3df86a33	0.12129631
72	0xbdee35bb	-0.11631342
73	0x3dad5cd5	0.08464972
74	0x3e89a30d	0.2688221
75	0xbe1473bf	-0.14497279
76	0x3dc4ee47	0.0961576
77	0x3c87859c	0.016543202
78	0x3e74d796	0.23910365
79	0x3e1bb51e	0.1520581
80	0x3de318ac	0.1108869
81	0xbd81e79f	-0.06343006
82	0x3e0f38a5	0.13986452
83	0x3d2c2255	0.04202493
84	0xbe17974d	-0.1480381
85	0x3e2e426d	0.17017527
86	0xbdf03835	-0.11729471
87	0x3e3646b8	0.17800415
88	0xbca5713b	-0.020195594
89	0xbcf16e77	-0.029471619
90	0xbd16a9ed	-0.036783148
91	0xbd139d5f	-0.036038753
92	0xbe91e2b1	-0.28493264
93	0x3c41d04e	0.011829449
94	0x3e9237b9	0.28558138
95	0xbb86e5bf	-0.0041167433
96	0x3dcbf0a3	0.09958007
97	0xbe5f2d15	-0.21794541
98	0xbbe48efd	-0.0069750533
99	0x3dffff60	0.12499881
100	0x3d2b766f	0.041860994
101	0x3ddde31d	0.10834334
102	0x3e8a0e83	0.26964197
103	0xbaed0139	-0.001808203
104	0x3ea7cc6e	0.32773155
105	0x3e81c338	0.25344253
106	0x3e86ad73	0.26304206
107	0xbd941407	-0.072303824
108	0xbdaeca7e	-0.08534716
109	0x3e081bbe	0.13291833
110	0x3e0bd6ce	0.1365616
111	0xbd262d98	-0.040570825
112	0x3da9d079	0.08291716
113	0x3eaa35c3	0.33244142
114	0x3d3f8958	0.04676184
115	0x3d059a2a	0.032617725
116	0x3e2ca12c	0.16858357
117	0x3df224de	0.11823438
118	0x3e0edbfb	0.13951103
119	0xbc96b735	-0.018397907
120	0x3e62f7c8	0.22164834
121	0x3d0aaf23	0.03385843
122	0xbe3a3f94	-0.18188316
123	0xbcadc50f	-0.021212129
124	0x3d18d533	0.037312698
125	0xbc9f7da5	-0.019469092
126	0xbe1b9a39	-0.1519555
127	0xbbecb359	-0.0072235283
128	0x3dc34fd8	0.09536713
129	0xbd839508	-0.0642491
130	0xbc8eabbc	-0.017415874
131	0x3c8988d3	0.016788876
132	0xbdb38187	-0.0876494
133	0xbd747560	-0.05968225
134	0xbc3a1cea	-0.011359433
135	0x3d4e3b5d	0.050349582
136	0x3df35656	0.11881702
137	0x3d8ced1f	0.06881165
138	0x3d21ce17	0.039503183
139	0xbd84eb02	-0.06490137
140	0x3e003e54	0.12523776
141	0x3ca826c9	0.020526307
142	0xbdf2229e	-0.11823009
143	0x3ce21712	0.027598891
144	0xbe1ce61c	-0.15322155
145	0xbdccaeda	-0.09994288
146	0x3dc74899	0.09730644
147	0xbda01f47	-0.07818466
148	0x3ca965de	0.020678457
149	0x3e09d3fe	0.13459775
150	0x3d868450	0.06568205
151	0x3db7efb3	0.08981266
152	0xbdb98659	-0.09058828
153	0xbcb8a07f	-0.022537468
154	0x3e0eaa88	0.1393224
155	0x3da0093e	0.07814263
156	0xbdb4c5b7	-0.088267736
157	0xbc6990f1	-0.014255748
158	0x3da2d4c8	0.07950741
159	0x3db7ba2d	0.08971057
160	0xbd72c1b8	-0.059266776
161	0xbd448017	-0.04797372
162	0x3ccb12dd	0.024789268
163	0xbdb9c713	-0.090711735
164	0x3db9bae4	0.0906885
165	0x3cd578c2	0.026058558
166	0xbe0678b8	-0.13131988
167	0x3ddaa368	0.106756985
168	0xbe07362e	-0.13204262
169	0xbdb9808c	-0.090577215
170	0xbda82496	-0.08210103
171	0xbbf994b0	-0.007616602
172	0x3c1369b6	0.008997371
173	0xbd6cbf71	-0.05779976
174	0xbd9b8d67	-0.0759533
175	0x3d025d3f	0.031827208
176	0x3ca16d06	0.019705307
177	0xbd87e135	-0.06634752
178	0x3c07d5a7	0.008290685
179	0xbdfd742f	-0.12375676
180	0xbe0810ae	-0.13287613
181	0x3db6562b	0.08903154
182	0xbdaaea94	-0.083455235
183	0xbd2ec713	-0.04267032
184	0xbdaea417	-0.085273914
185	0xbd29a099	-0.041412923
186	0x3cb3005d	0.02185076
187	0xbe12596d	-0.14291926
188	0xbc92e111	-0.017929586
189	0xbdd24571	-0.10267151
190	0xbdf6c01f	-0.12048363
191	0xbdb72bca	-0.08943899

gru.bias_hh_l1 f4 [192]
0	0xbdc81c7e	-0.097710595
1	0xbdb4c738	-0.088270605
2	0x3d8490ef	0.064729564
3	0x3d8fb47a	0.07016845
4	0xbd30eeac	-0.043196365
5	0xbd345212	-0.04402358
6	0xbd253b17	-0.040339556
7	0xbc5973a1	-0.013272197
8	0x3d48d78a	0.04903368
9	0xbd8e5c93	-0.06951251
10	0xbd21e5b4	-0.039525703
11	0x3bca1e24	0.006168144
12	0x3ca34e5e	0.01993483
13	0x3e056ee6	0.13030586
14	0xbe176406	-0.1478425
15	0x3dcf8420	0.10132623
16	0x3cd9db2b	0.026593765
17	0xbdbbf7d4	-0.09178129
18	0xbe04c824	-0.12966973
19	0xbdc78663	-0.09742429
20	0x3e046168	0.12927783
21	0xbca0b12d	-0.019615734
22	0xbdc6a340	-0.09699106
23	0xbdbce076	-0.092225
24	0x3d04b0dc	0.03239523
25	0x3cd44f2c	0.025916658
26	0x3df4e059	0.119568534
27	0x3dcc5a61	0.09978176
28	0xbd9cb359	-0.07651395
29	0x3d60d826	0.054893635
30	0x3d1b3270	0.037889898
31	0xbd8bc455	-0.06824557
32	0x3d52a197	0.051423635
33	0xbbe3a341	-0.0069469516
34	0xbdbcdad7	-0.09221428
35	0xbe0e4169	-0.1389214
36	0x3e0fb87a	0.14035216
37	0xbc1ecd7c	-0.009692546
38	0xbd9a2d23	-0.075281404
39	0x3dc0c5ff	0.09412765
40	0x3d9cbfe3	0.07653787
41	0x3d3850b8	0.044998854
42	0x3d543921	0.051812295
43	0x3d30b3b0	0.043140113
44	0xbcc03192	-0.023461137
45	0xbd6b0ef1	-0.057387296
46	0x3ccaa93d	0.024738902
47	0x3ded4b3f	0.11586618
48	0xbcbb3447	-0.022852076
49	0xbced6275	-0.028977612
50	0x3b956566	0.004559207
51	0xbd8a43b8	-0.067511976
52	0xbd8a7fe3	-0.06762674
53	0x3d0ba7b1	0.03409547
54	0x3d8b3812	0.06797804
55	0xbd39a353	-0.045321774
56	0xbc5151d3	-0.012775856
57	0x3e09b361	0.13447334
58	0x3cb100fb	0.021606913
59	0x3cf4cfc4	0.029884227
60	0xbd1520ce	-0.036408238
61	0x3d682b31	0.056681816
62	0xbd9e661c	-0.077343196
63	0x3d915d8d	0.070979215
64	0xbe44c5fd	-0.19216152
65	0xbd80dbc7	-0.06291919
66	0xbd3a22e6	-0.045443438
67	0x3e55ce09	0.20879377
68	0xbc532d74	-0.012889255
69	0x3e6a1790	0.22860551
70	0xbcaed59b	-0.02134209
71	0x3de1ef33	0.11031952
72	0xbae339e8	-0.0017335983
73	0x3d22575a	0.039634086
74	0x3daff777	0.08592122
75	0xbe191054	-0.14947635
76	0xbdebb051	-0.11508239
77	0x3ded5790	0.11588967
78	0x3e473ed2	0.19457558
79	0x3daca878	0.0843057
80	0x3e3517ec	0.17684907
81	0x3ba7052d	0.0050970525
82	0x3ba40fea	0.00500678
83	0x3dbe5d22	0.092951074
84	0xbda80f04	-0.08205989
85	0x3e6445ca	0.22292247
86	0xbd62d30a	-0.055377044
87	0x3d837259	0.064182945
88	0x3d010edb	0.031508308
89	0x3a7be428	0.0009608888
90	0x3c30a05f	0.010780423
91	0xbb3a9867	-0.0028472187
92	0xbe9f3592	-0.31095558
93	0x3d8519bf	0.06499051
94	0x3e7b7cd6	0.2455934
95	0x3dc2a1ca	0.09503515
96	0xbd6fec05	-0.058574695
97	0xbe68994c	-0.22714728
98	0x3d8caf6d	0.06869397
99	0x3de05751	0.10954154
100	0xbd869583	-0.06571486
101	0xbde80e21	-0.1133082
102	0x3e9309b5	0.28718343
103	0x3ce9eac0	0.02855432
104	0x3e55a8bd	0.2086515
105	0x3de24e97	0.11050146
106	0x3e4e5f02	0.2015343
107	0x3d9c56dc	0.076337546
108	0x3d5b197a	0.053491093
109	0x3e0d1cc3	0.13780503
110	0xbc83f07f	-0.016105888
111	0xbe11e8a9	-0.14248909
112	0xbd3663fb	-0.044528943
113	0x3e32370e	0.17403814
114	0xbd17ee23	-0.03709234
115	0x3a9e24cb	0.0012065409
116	0x3d94b8b8	0.07261795
117	0x3ddce819	0.107864566
118	0x3acd4f81	0.0015663953
119	0xbdd1bfc2	-0.10241653
120	0x3e3ce030	0.18444896
121	0xbe2e94e9	-0.17048992
122	0xbb9a1cff	-0.0047031636
123	0x3ca8ad4c	0.020590447
124	0x3d369dbf	0.044584032
125	0xbdbcc03f	-0.092163555
126	0xbeafa7ce	-0.34307712
127	0x3d1e858d	0.038701583
128	0xbe15fb81	-0.14646722
129	0xbcd123d3	-0.025529778
130	0x3c9d1c0d	0.019178415
131	0xbd59e0bc	-0.05319284
132	0xbd1a9b6a	-0.03774587
133	0x3d8884fc	0.0666599
134	0x3d308eab	0.04310481
135	0x3d4da718	0.05020818
136	0x3def5cec	0.11687645
137	0xbd9423c3	-0.072333835
138	0x3d651d1d	0.055935968
139	0x3d9b0a4d	0.07570324
140	0xbc151fc9	-0.009101816
141	0x3dd6b5da	0.10483904
142	0x3dc8a92c	0.09797892
143	0xbbed1fb2	-0.0072364444
144	0xbde9cfbb	-0.114165746
145	0xbd5fe743	-0.054663908
146	0xbda13ca9	-0.07872898
147	0x3ce546c9	0.027987855
148	0x3d36f77d	0.044669617
149	0x3dd06375	0.1017522
150	0x3d9569d7	0.07295578
151	0x3dfef1ab	0.12448438
152	0xbd005f66	-0.03134098
153	0x3dceb005	0.10092167
154	0x3c51d0ee	0.01280616
155	0xbdf72995	-0.12068478
156	0x3de00cec	0.10939965
157	0x3dd99e4c	0.10625896
158	0xbbba81ca	-0.0056917416
159	0x3d7e172f	0.06203383
160	0xbccd13cd	-0.025033856
161	0xbdd91ece	-0.10601579
162	0x3d682b6f	0.056682047
163	0x3da0cdd4	0.078517586
164	0x3d3e66af	0.046484645
165	0xbdb212b6	-0.08694975
166	0xbdcb932e	-0.09940182
167	0xbd88523b	-0.06656309
168	0xbcfe4b9f	-0.031041918
169	0x3dbe76a5	0.092999734
170	0xbc746217	-0.014915965
171	0x3dc645b4	0.096812636
172	0xbdac0e82	-0.08401205
173	0x3d1e6478	0.038670033
174	0xbb168e2e	-0.002297293
175	0xbd955697	-0.07291906
176	0x3daa279d	0.08308337
177	0x3d6ee83c	0.058326945
178	0x3d623053	0.055221867
179	0xbc912cbc	-0.017721526
180	0xbc778aad	-0.0151087465
181	0xbd332563	-0.043736827
182	0x3ddc60e2	0.107606664
183	0x3d96ec13	0.07369246
184	0x3dcd21b9	0.10016198
185	0x3d64420b	0.055727046
186	0xbce0c77e	-0.027438875
187	0xbd83bc69	-0.06432421
188	0x3d182a19	0.037149522
189	0xbe0a8ccc	-0.13530272
190	0xbdca34e3	-0.098733686
191	0x3da7bf7c	0.081908196

fc.weight f4 [1, 64]
0	0xbd5904b9	-0.05298302
1	0x3e2cbdd0	0.16869283
2	0xbe2b0e27	-0.16704617
3	0xbd051520	-0.03249085
4	0x3dbdf3e3	0.09275033
5	0xbd215dbd	-0.039396036
6	0x3dc0e36b	0.094183765
7	0xbce3ed83	-0.027823215
8	0x3d7b4dd3	0.061353516
9	0xbd9ab6a4	-0.07554367
10	0xbd87440e	-0.06604777
11	0x3de2846f	0.11060416
12	0x3d274086	0.04083302
13	0x3d594959	0.053048465
14	0xbd72dace	-0.0592907
15	0xbddd288c	-0.10798749
16	0xbd683280	-0.056688786
17	0xbda0a838	-0.07844585
18	0xbd9dc0ea	-0.07702811
19	0x3d59b5dc	0.05315195
20	0x3df6c559	0.1204936
21	0x3db649c1	0.08900786
22	0x3cdf13a1	0.02723104
23	0x3cc07e1f	0.02349764
24	0xbd1db6f4	-0.038504556
25	0xbdd841f5	-0.10559455
26	0x3d764e7f	0.060133453
27	0xbdccddb2	-0.100032225
28	0xbe13bffd	-0.14428706
29	0x3c8d8b39	0.0172783
30	0xbd1bd806	-0.038047813
31	0x3db8250a	0.0899144
32	0xbd0ed458	-0.034870476
33	0xbe60395a	-0.21896878
34	0xbdd630de	-0.104585394
35	0x3d20fe77	0.039305177
36	0x3d9693a2	0.073523775
37	0xbd2bb1d0	-0.041917622
38	0xbdcf9a46	-0.10136847
39	0xbdab6d7a	-0.0837049
40	0x3da8d138	0.0824303
41	0x3c059926	0.008154189
42	0xbd674a92	-0.0564676
43	0xbd8de783	-0.06928923
44	0x3dfb5c78	0.122734964
45	0xbc552d59	-0.0130113
46	0xbd211b68	-0.039332777
47	0x3e1d750d	0.15376683
48	0x3e166b6e	0.14689419
49	0xbcf24986	-0.029576074
50	0x3d38945f	0.045063373
51	0x3b2c2ab3	0.0026270568
52	0x3dc46c6f	0.095909946
53	0x3da03578	0.07822698
54	0x3db0ad2e	0.086267814
55	0xbda20c6a	-0.07912524
56	0x3d815c98	0.06316489
57	0x3e491ec3	0.19640641
58	0x3dca5bf8	0.09880823
59	0x3d833184	0.06405929
60	0x3d9113d2	0.070838585
61	0x3e181bb7	0.14854322
62	0xbe874ff4	-0.26428187
63	0xbd815a73	-0.0631608
