models/gru_model.pt (torch, 44517 bytes, 9 tensors)

gru.weight_ih_l0 f4 [96, 5]
0.15780787 0.25583345 -0.18762283 0.06839271 -0.010493421 0.2307584 0.10168173 -0.1750233
0.13184123 -0.056084093 -0.8576137 -0.0053420817 0.27432907 0.045447923 0.100637965 -0.3490888
0.09419582 0.35835335 0.2680608 0.25480795 -0.06277626 -0.061015267 0.21717978 -0.10007107
0.06811154 -0.00964486 0.12533636 0.07820326 0.19570172 0.114169516 -0.050799675 0.06839991
0.04915469 0.0606454 0.052861452 -0.0060718325 0.03860042 -0.17599604 0.15277073 0.09007656
-0.062272687 0.027507748 0.14382479 0.008410861 0.009935714 -0.06725461 -0.11256318 -0.11797429
0.16862829 0.07773575 -0.23047337 0.085910715 0.09052278 0.04860158 -0.03337707 0.017526275
-0.0063618547 -0.020234816 0.0028142282 -0.060133006 -0.019003604 0.10681595 0.050261784 -0.16122612
-0.045464266 0.09019792 -0.09498915 -0.08270356 0.07894652 0.11939446 0.08434621 -0.11232531
-0.03834225 -0.09000882 -0.10686495 -0.46661517 0.14697833 -0.073332004 0.21018407 0.283906
0.12420875 0.2547911 0.01644835 -0.053263973 0.1653495 -0.119839735 -0.054715335 0.12072379
-0.008290425 -0.072441936 0.37459794 0.0013552886 0.050946917 0.07360029 0.086326756 -0.043022238
-0.046832003 0.004588407 0.12570113 0.019835304 -0.0036446399 0.014126804 0.0930536 0.09120003
-0.015823273 0.07395593 0.29240415 0.15167777 -0.019478071 0.09598576 0.2248022 -0.08905384
0.04676841 0.082901016 0.119952545 -0.38249195 0.38547826 -0.15326819 0.0031121871 0.030298727
-0.23503017 -0.13940094 0.18195507 -0.08309111 -0.18074265 0.11459922 -0.027086223 0.091340266
0.061683618 -0.0689539 0.14405714 0.14891633 -0.04308415 0.030074356 0.054832846 -0.20276368
-0.030028 -0.048040602 -0.01582112 -0.21776563 -0.16066627 -0.026161607 0.0820403 0.085370935
-0.008406338 -0.05755924 -0.14754061 0.23958696 0.024461528 0.08854833 -0.097978875 -0.11263119
-0.12571925 0.004155351 0.17212458 0.2928587 -0.029136127 0.13051741 0.04850481 0.060878903
-0.7045283 -0.427467 -0.51529574 -0.7438194 -0.5807611 -0.10126678 0.02096681 0.0030107906
0.022501841 -0.17127787 -0.554657 -0.78721493 -0.6184412 -0.862267 -0.7209822 -0.837566
-0.34116876 -0.4656726 -0.47388774 -0.6183192 -0.7823163 -0.56872684 -0.5438298 -0.47653183
-0.75140226 -0.70478576 -0.55274296 -0.17819549 -0.2043481 -0.06745323 -0.8422933 -0.6671199
-0.7186638 -0.74562323 -0.7764099 -0.22382756 -0.3313038 -0.20433293 -0.30329877 -0.31762576
0.20101927 -0.17706816 -0.08742602 0.08137297 0.04929607 -0.78668666 -0.47064668 -0.53366256
-0.64478296 -0.7593947 -0.2972007 -0.41551745 -0.55057204 -0.2894982 -0.20858243 -0.5547104
-0.6195922 -0.6015578 -0.20321572 -0.5082709 -0.26531565 0.02128907 0.0061537735 -0.19499752
0.11357055 0.045508277 -0.1629805 0.21836218 0.2607509 -0.03141608 -0.17401764 0.017762441
-0.23891139 -0.31428093 -0.22771752 -0.73522097 -0.38303545 -0.49523547 -0.4970723 -0.44743094
-0.37165827 -0.16249134 -0.4703319 -0.17635337 -0.21743937 -0.38523275 -0.2391615 -0.30674064
-0.5584266 -0.27931392 0.13900304 0.41889772 0.29843202 -0.009320715 0.009835379 -0.10245425
00000000: 6398 213e 9afc 823e 3320 40be 7a11 8c3d
00000010: 99ec 2bbc ee4b 6c3e 833e d03d 4f39 33be
00000020: 6301 073e 6fb8 65bd 928c 5bbf a10c afbb
00000030: dc74 8c3e 9a27 3a3d 471b ce3d c4bb b2be
00000040: bde9 c03d 177a b73e 443f 893e 3076 823e
00000050: d790 80bd 25eb 79bd 6064 5e3e 10f2 ccbd
00000060: 107e 8b3d 7a05 1ebc 2d58 003e 0829 a03d
00000070: 0866 483e b5d1 e93d 5213 50bd 4115 8c3d
00000080: 6e56 493d 5067 783d 4085 583d 39f6 c6bb
00000090: 791b 1e3d 4e38 34be ee6f 1c3e 0f7a b83d
000000a0: a511 7fbd ee57 e13c ce46 133e b5cd 093c
000000b0: 68c9 223c c9bc 89bd 8687 e6bd 819c f1bd
000000c0: e5ac 2c3e ec33 9f3d 3601 6cbe f5f1 af3d
000000d0: 0264 b93d 7312 473d 65b6 08bd 4393 8f3c
000000e0: 1b77 d0bb 7cc3 a5bc ea6e 383b 074e 76bd
000000f0: 72ad 9bbc 52c2 da3d 4ddf 4d3d 7618 25be
00000100: bd38 3abd b0b9 b83d ac89 c2bd 7c60 a9bd
00000110: b7ae a13d 1585 f43d b5bd ac3d d00a e6bd
00000120: c30c 1dbd 8b56 b8bd 03dc dabd 2fe8 eebe
00000130: 7d81 163e 172f 96bd 7e3a 573e 215c 913e
00000140: 2861 fe3d fb73 823e b1be 863c 532b 5abd
00000150: 6151 293e 896e f5bd 301d 60bd 093e f73d
00000160: 90d4 07bc 705c 94bd 4dcb bf3e f0a3 b13a
00000170: b7ad 503d c0bb 963d 15cc b03d 1638 30bd
00000180: ead2 3fbd 595a 963b ccb7 003e a67d a23c
00000190: e9da 6ebb 1c74 673c e392 be3d 15c7 ba3d
000001a0: cf9f 81bc 3576 973d ffb5 953e 6b51 1b3e
000001b0: 7a90 9fbc 2f94 c43d 8c32 663e dc61 b6bd
000001c0: 3b90 3f3d 02c8 a93d aea9 f53d fcd5 c3be
000001d0: 685d c53e 56f2 1cbe d6f5 4b3b 0935 f83c
000001e0: c0ab 70be 1fbf 0ebe 6e52 3a3e ac2b aabd
000001f0: 9a14 39be ffb2 ea3d ede3 ddbc 9b10 bb3d
00000200: f6a7 7c3d b437 8dbd b783 133e 867d 183e
00000210: 0179 30bd 7f5e f63c 6898 603d 48a1 4fbe
00000220: 48fd f5bc 39c6 44bd 4b9b 81bc f4fd 5ebe
00000230: b385 24be de50 d6bc bf04 a83d f5d6 ae3d
00000240: bdba 09bc 3dc3 6bbd e314 17be 4956 753e
00000250: 8b63 c83c d458 b53d 26a9 c8bd 2eab e6bd
00000260: 8cbc 00be 9c29 883b 6d41 303e 93f1 953e
00000270: e3ae eebc 5ba6 053e fbac 463d 285c 793d
00000280: f75b 34bf f4dc dabe 6cea 03bf f36a 3ebf
00000290: c2ac 14bf f564 cfbd 96c2 ab3c af50 453b
000002a0: c855 b83c 7763 2fbe 00fe 0dbf eb86 49bf
000002b0: 2a52 1ebf 88bd 5cbf 4a92 38bf ba6a 56bf
000002c0: acad aebe a46c eebe 6aa1 f2be 2b4a 1ebf
000002d0: e245 48bf 1598 11bf 6e38 0bbf fbfb f3be
000002e0: e65b 40bf d76c 34bf 9080 0dbf e178 36be
000002f0: a140 51be eb24 8abd 89a0 57bf 5fc8 2abf
00000300: 5afa 37bf 2ae1 3ebf cdc2 46bf 0d33 65be
00000310: a7a0 a9be a73c 51be fa49 9bbe d89f a2be
00000320: ffd7 4d3e 5b51 35be 6a0c b3bd dfa6 a63d
00000330: adea 493d 4c64 49bf 9af8 f0be 1c9e 08bf
00000340: 7f10 25bf b167 42bf b12a 98be b4be d4be
00000350: 4af2 0cbf 1c39 94be a296 55be 8001 0ebf
00000360: 989d 1ebf b1ff 19bf c817 50be 0b1e 02bf
00000370: 74d7 87be 6a66 ae3c 98a5 c93b 6ead 47be
00000380: ad97 e83d e366 3a3d 5ce4 26be 569a 5f3e
00000390: 2481 853e 26ae 00bd ae31 32be 8a82 913c
000003a0: 30a5 74be 6ee9 a0be c82e 69be 7137 3cbf
000003b0: 391d c4be 818f fdbe 4380 febe ab15 e5be
000003c0: fe49 bebe 2164 26be 58cf f0be fa95 34be
000003d0: 6da8 5ebe 3a3d c5be c1e6 74be 1c0d 9dbe
000003e0: 0cf5 0ebf 3c02 8fbe d056 0e3e c379 d63e
000003f0: 15cc 983e eab5 18bc 9224 213c 89d3 d1bd

gru.weight_hh_l0 f4 [96, 32]
-0.25719553 0.07614635 0.07172506 0.25641575 0.059650034 -0.030131388 0.22277117 0.0862881
-0.19578056 0.1855065 -0.09022075 0.09316288 -0.2494032 0.20147973 0.034659214 -0.14012532
-0.18039826 -0.070731655 0.0134611735 -0.13103013 -0.116873585 0.10710029 -0.16118395 0.14043076
-0.065386906 0.10121141 -0.13892874 0.04474209 0.3796517 -0.12367629 -0.00020922732 0.19783042
0.033053957 0.03295336 -0.046225283 0.14465484 0.12125132 0.13309813 0.15268844 0.029381821
0.1919587 0.1432185 -0.08030055 -0.11094845 -0.106643684 -0.16810898 -0.09150264 -0.17035319
-0.15722033 0.10690202 -0.035293102 0.16671944 -0.05386132 0.0313969 0.099228114 -0.022456387
-0.13468732 0.019265415 -0.017820407 0.070844606 0.04187344 0.04891149 0.052926082 0.18954664
0.76719946 -0.013471469 1.1718525 -0.7200877 -0.5549365 0.034829944 -0.6123572 0.003975665
0.22033732 0.022378998 -0.14226884 0.36357078 0.013022272 -0.22700943 0.069643624 -0.00093096093
0.25718802 0.019461412 -0.3613584 0.21048053 0.11990471 -0.10236246 0.22310787 -0.07018165
0.6583949 -0.38144982 0.8046529 0.082559064 -0.12762481 0.34826005 0.37471938 -0.790921
-0.3457436 0.009426236 -0.6721222 0.6185033 0.5224301 -0.72027606 0.46196958 -0.046613634
-0.19577819 0.9541106 0.9093883 -0.15603387 -0.04009101 0.16252322 0.20674567 0.46878305
-0.49313012 0.24116303 -0.22706205 -0.07349775 -0.017843403 -0.3072393 0.16254996 0.31664512
-0.5376359 0.09207373 -0.6036385 0.3225903 0.3622534 0.1327072 0.23290356 0.5641142
0.041231655 -0.12510116 0.4801166 -0.30090052 -0.5112133 -0.07254192 -0.00760307 -0.3968208
0.028396184 0.29918426 0.21294807 -0.012028282 -0.0759587 0.16443357 0.07574941 -0.17811906
0.37571293 0.114032425 -0.4146899 -0.13559294 0.13730161 -0.060177296 -0.012239074 -0.11290591
0.15022817 -0.29137126 0.23510168 -0.013444856 -0.15386198 0.15041846 0.20156531 -0.12260052
0.015554762 -0.13406286 -0.17070404 0.06835886 0.12805039 -0.15161034 -0.03286628 -0.11866586
-0.000997985 -0.1676405 0.065258384 -0.16728401 0.11291795 0.119936936 -0.065051235 0.09527255
-0.16360585 -0.12689264 0.009279525 0.17430247 -0.1269488 -0.056751173 -0.0456707 -0.06883841
-0.058545716 -0.09870521 -0.14173248 -0.14284314 0.011989074 0.14681916 0.09276308 -0.09466124
-0.1892597 -0.05024244 -0.13575217 0.22523908 0.033982508 -0.24602598 0.18859634 -0.17008975
-0.16153094 0.03617455 0.24789107 0.12740302 -0.07511013 -0.0517514 0.14596109 -0.15651014
-0.09086105 0.21783614 0.12748317 -0.09721264 -0.01274858 0.05538366 0.21111472 -0.029018257
-0.26219022 0.061235946 -0.15779723 -0.14204356 -0.010463181 0.19586766 0.20848341 -0.07119968
-0.114077784 -0.06627555 0.14355057 0.1486223 0.07888341 0.049736455 -0.114054 -0.08698992
-0.15881917 -0.052086126 -0.021980412 0.17713349 0.05640342 0.031185279 0.05824641 -0.15872332
0.18804124 0.014185705 -0.08815396 -0.056239437 -0.038823605 0.07809203 -0.16429004 -0.07567923
-0.07686164 0.07311939 0.12531506 -0.11112487 0.0195037 -0.14905983 -0.10960629 0.011570597
00000000: 22af 83be 9ef2 9b3d 97e4 923d ed48 833e
00000010: 9853 743d 1ad6 f6bc 201e 643e d1b7 b03d
00000020: b37a 48be 6af5 3d3e a8c5 b8bd 2ecc be3d
00000030: 8d63 7fbe b450 4e3e d2f6 0d3d 037d 0fbe
00000040: 52ba 38be c2db 90bd 418c 5c3c c32c 06be
00000050: 6b5b efbd 6657 db3d 680d 25be 15cd 0f3e
00000060: 92e9 85bd ed47 cf3d 5643 0ebe 7b43 373d
00000070: b561 c23e ff49 fdbd 0864 5bb9 0f94 4a3e
00000080: 9663 073d 1afa 063d b956 3dbd 6620 143e
00000090: 9d52 f83d e04a 083e 5c5a 1c3e 25b2 f03c
000000a0: d290 443e dfa7 123e 9d74 a4bd f138 e3bd
000000b0: 0168 dabd c324 2cbe bc65 bbbd 1171 2ebe
000000c0: 5efe 20be 72ef da3d 808f 10bd 80b8 2a3e
000000d0: b09d 5cbd 099a 003d 1c38 cb3d 75f6 b7bc
000000e0: 79eb 09be 81d2 9d3c 1afc 91bc fa16 913d
000000f0: 7c83 2b3d 6a57 483d 05c9 583d 8418 423e
00000100: 2f67 443f 70b7 5cbc 43ff 953f ab57 38bf
00000110: 5210 0ebf d8a9 0e3d 71c3 1cbf 4c46 823b
00000120: 1ba0 613e 2954 b73c ecae 11be f325 ba3e
00000130: 5e5b 553c 2975 68be 51a1 8e3d bb0b 74ba
00000140: 26ae 833e 8a6d 9f3c f803 b9be 3588 573e
00000150: 9a90 f53d 69a3 d1bd 6476 643e 66bb 8fbd
00000160: 918c 283f 644d c3be bcfd 4d3f ba14 a93d
00000170: 14b0 02be 244f b23e 38db bf3e cc79 4abf
00000180: 4e05 b1be 8070 1a3c 3310 2cbf 3b56 1e3f
00000190: fbbd 053f 0364 38bf 4787 ec3e f0ed 3ebd
000001a0: 147a 48be 9840 743f accd 683f 58c7 1fbe
000001b0: 7936 24bd 7d6c 263e 23b5 533e 5504 f03e
000001c0: 8d7b fcbe 71f3 763e f482 68be fd85 96bd
000001d0: 542c 92bc 784e 9dbe 7f73 263e 4f1f a23e
000001e0: 82a2 09bf 2791 bc3d 0e88 1abf 8e2a a53e
000001f0: 4779 b93e 65e4 073e 457e 6e3e ca69 103f
00000200: 86e2 283d 851a 00be d8d1 f53e a20f 9abe
00000210: e0de 02bf dc90 94bd 2c23 f9bb 192c cbbe
00000220: 1d9f e83c ae2e 993e 0f0f 5a3e 4512 45bc
00000230: 3c90 9bbd 4661 283e 8222 9b3d d864 36be
00000240: 725d c03e d589 e93d 3c52 d4be e0d8 0abe
00000250: cb98 0c3e 787c 76bd 6686 48bc 373b e7bd
00000260: 6ad5 193e 9d2e 95be 7fbe 703e d047 5cbc
00000270: ff8d 1dbe 4c07 1a3e 2367 4e3e fb15 fbbd
00000280: 67d9 7e3c c647 09be 0acd 2ebe bbff 8b3d
00000290: a41f 033e be3f 1bbe cb9e 06bd 1607 f3bd
000002a0: d2ce 82ba f4a9 2bbe 30a6 853d 804c 2bbe
000002b0: 8741 e73d 7fa1 f53d 9539 85bd 411e c33d
000002c0: 4b88 27be 25f0 01be 2609 183c 597c 323e
000002d0: defe 01be eb73 68bd 3311 3bbd 27fb 8cbd
000002e0: a2cd 6fbd f525 cabd 5222 11be 7945 12be
000002f0: d26d 443c c357 163e 92fa bd3d c1dd c1bd
00000300: 4bcd 41be 04cb 4dbd 9e02 0bbe 13a5 663e
00000310: 3e31 0b3d 3cee 7bbe 661f 413e 022c 2ebe
00000320: 5e68 25be c42b 143d 28d7 7d3e f075 023e
00000330: 57d3 99bd 47f9 53bd d376 153e 3244 20be
00000340: 5c15 babd 7010 5f3e f38a 023e 6c17 c7bd
00000350: 6cdf 50bc fad9 623d 752e 583e b2b7 edbc
00000360: cc3d 86be 8bd2 7a3d 9995 21be de73 11be
00000370: c36d 2bbc 8891 483e ad7c 553e 23d1 91bd
00000380: 9da1 e9bd 7abb 87bd ecfe 123e 7230 183e
00000390: a08d a13d 74b8 4b3d 2595 e9bd c527 b2bd
000003a0: 7ea1 22be 4358 55bd 4410 b4bc 7b62 353e
000003b0: 4607 673d 4578 ff3c ca93 6e3d 5e88 22be
000003c0: e28d 403e 296b 683c 108a b4bd 535b 66bd
000003d0: 8005 1fbd b7ee 9f3d a63b 28be b6fd 9abd
000003e0: a369 9dbd 9ebf 953d 9752 003e 7095 e3bd
000003f0: 39c6 9f3c 24a3 18be 4379 e0bd 9a92 3d3c

gru.bias_ih_l0 f4 [96]
0.1302431 0.13115789 0.02232272 0.46574724 0.22843182 -0.015249419 0.18923791 -0.14231728
0.13284951 0.0018456845 -0.06178528 0.17945784 0.10601207 0.045084525 0.17298456 0.0406169
0.039692547 -0.12510376 0.15274137 -0.0012104595 0.021116449 0.17935635 0.18882132 0.21883105
-0.05889843 0.17357004 0.26333836 -0.013521089 0.15072802 0.09119906 0.15998006 0.004487567
-0.8265155 -0.09439401 -0.7272963 -0.7117353 -0.8356321 -0.37390622 -0.60998017 -0.12849638
0.11620605 -0.74245876 -0.446729 -0.43389103 -0.055732287 0.28474143 -0.23890096 -0.5271201
-0.45850012 -0.5200898 -0.122835636 -0.2970219 0.105188206 -0.21487324 0.24625415 -0.3945641
-1.0183038 0.045617413 -0.5297589 0.3200412 -0.21454221 -0.34325242 0.105677895 -0.49000034
-0.15110885 -0.040435977 -0.0005052781 -0.0982345 -0.08046334 -0.14781255 0.13147101 -0.086894564
-0.032303333 0.05479023 0.16937058 -0.03079718 -0.016920447 0.094591245 0.10571884 -0.04042106
0.07353809 0.12134458 -0.13679935 -0.025690015 -0.002271499 -0.116891995 0.06093528 -0.074691966
0.022950193 -0.03066298 -0.0982297 0.05988988 -0.070300646 0.054358907 0.13981979 0.110921055
00000000: 725e 053e 414e 063e 23de b63c 6c76 ee3e
00000010: 08ea 693e b3d8 79bc 95c7 413e 9fbb 11be
00000020: b409 083e e5ea f13a 9012 7dbd ccc3 373e
00000030: db1c d93d 8daa 383d dd22 313e e85d 263d
00000040: a794 223d 331b 00be 3c68 1c3e 48a8 9eba
00000050: 67fc ac3c 31a9 373e 605a 413e 3f15 603e
00000060: 7b3f 71bd 58bc 313e 49d4 863e 8f87 5dbc
00000070: 7258 1a3e 93c6 ba3d d0d1 233e 710c 933b
00000080: 8596 53bf a651 c1bd 1730 3abf 4934 36bf
00000090: fceb 55bf a370 bfbe a927 1cbf 8e94 03be
000000a0: 70fd ed3d c711 3ebf aab9 e4be f726 debe
000000b0: 8a47 64bd a1c9 913e 74a2 74be 58f1 06bf
000000c0: 87c0 eabe 9b24 05bf 4091 fbbd 4113 98be
000000d0: ea6c d73d bb07 5cbe 0c2a 7c3e 4e04 cabe
000000e0: c757 82bf 53d9 3a3d 479e 07bf 71dc a33e
000000f0: f4b0 5bbe c8be afbe a76d d83d 53e1 fabe
00000100: 47bc 1abe 32a0 25bd a474 04ba 2b2f c9bd
00000110: f7c9 a4bd 2c5c 17be 56a0 063e c7f5 b1bd
00000120: 8050 04bd b86b 603d 7b6f 2d3e 5e4a fcbc
00000130: c09c 8abc 0eb9 c13d 1f83 d83d 8e90 25bd
00000140: 239b 963d 8283 f83d 2115 0cbe de73 d2bc
00000150: 6edd 14bb 1265 efbd 4697 793d 1af8 98bd
00000160: 0b02 bc3c ee30 fbbc a72c c9bd 174f 753d
00000170: c9f9 8fbd 72a7 5e3d eb2c 0f3e 942a e33d

gru.bias_hh_l0 f4 [96]
-0.051826224 0.14932713 0.04709798 0.34929806 0.2746867 -0.06778714 0.28084987 0.060463004
0.12699403 0.04067562 -0.01692807 -0.06621477 -0.11968694 -0.00961013 0.06635524 0.2758316
-0.06504137 -0.17694837 0.21035814 -0.033169907 -0.06494346 -0.06079973 0.008620552 -0.014603659
0.13312775 0.13943452 0.30182523 -0.094500005 0.11262642 0.16939437 0.016816696 0.12858087
-0.5668544 -0.037809394 -0.7155324 -0.627364 -0.5886449 -0.3612338 -0.6577854 -0.41322908
0.14564358 -0.74745256 -0.25842372 -0.32399738 -0.17505822 0.30787092 -0.3168774 -0.62332267
-0.111334585 -0.4460733 -0.0050422032 -0.28983796 -0.000312262 -0.40944043 0.24357249 -0.48728597
-0.85835284 0.027852487 -0.62793726 0.29325178 -0.4283481 -0.2933407 0.12089455 -0.6627499
0.16219096 -0.034979504 -0.045409013 0.09277735 0.14224038 0.14019993 -0.032812815 -0.0476498
-0.008223615 0.19499566 0.02838971 0.055455882 0.037814055 -0.08910743 -0.20590107 0.021258749
-0.071017005 -0.14462414 -0.17983766 -0.03972339 0.104743354 -0.081022896 0.11908008 0.11334335
-0.117699355 -0.016246736 -0.024039678 -0.047579337 0.08358071 -0.02290985 -0.11154245 -0.017888619
00000000: bc47 54bd 36e9 183e d0e9 403d 32d7 b23e
00000010: bca3 8c3e fcd3 8abd 8ecb 8f3e 0ea8 773d
00000020: b90a 023e 7b9b 263d bcac 8abc 9c9b 87bd
00000030: 6d1e f5bd cf73 1dbc 42e5 873d cd39 8d3e
00000040: 6934 85bd f431 35be 2068 573e 2bdd 07bd
00000050: 1401 85bd 2309 79bd 373d 0d3c 2f44 6fbc
00000060: a452 083e ecc7 0e3e d688 9a3e 3889 c1bd
00000070: aea8 e63d b875 2d3e 2bc3 893c b4aa 033e
00000080: 5f1d 11bf 06de 1abd 222d 37bf ed9a 20bf
00000090: 6fb1 16bf a3f3 b8be a064 28bf c392 d3be
000000a0: 9723 153e 0d59 3fbf 1d50 84be fce2 a5be
000000b0: 7642 33be 42a1 9d3e c13d a2be 1392 1fbf
000000c0: 6303 e4bd b863 e4be 1139 a5bb a465 94be
000000d0: 19b7 a3b9 2da2 d1be 116b 793e 8c7d f9be
000000e0: 03bd 5bbf e62a e43c 7fc0 20bf 1925 963e
000000f0: 7150 dbbe c130 96be 9097 f73d faa9 29bf
00000100: 6315 263e ab46 0fbd cdfe 39bd 0d02 be3d
00000110: 76a7 113e 9290 0f3e bb66 06bd 702c 43bd
00000120: 57bc 06bc f1ac 473e 8991 e83c b525 633d
00000130: e9e2 1a3d f57d b6bd bbd7 52be d426 ae3c
00000140: 5d71 91bd 5a18 14be 5d27 38be feb4 22bd
00000150: af83 d63d 55ef a5bd 42e0 f33d 8f20 e83d
00000160: 5c0c f1bd e017 85bc dcee c4bc 8de2 42bd
00000170: 5d2c ab3d 70ad bbbc 5e70 e4bd 278b 92bc

gru.weight_ih_l1 f4 [96, 32]
0.13696119 0.07675997 0.10746946 -0.1461602 -0.2732983 0.19085915 -0.03033291 -0.03477767
-0.15984601 0.10653186 -0.107537016 0.21315353 0.13463283 0.07874488 0.0435285 -0.103006184
0.005963617 -0.14014135 -0.17511265 -0.21578951 -0.085593335 -0.19480066 0.051685285 0.05506525
0.2551808 -0.0651369 0.14554296 0.15299472 -0.15139918 0.119434305 0.03041741 -0.20542446
0.08259616 0.16072375 0.40771928 -0.0489065 -0.18031624 -0.02817101 -0.23593517 0.12889613
-0.086676314 -0.08897824 -0.022420436 0.031058954 0.05566705 -0.14331011 -0.14881842 -0.17603496
-0.019082107 0.08369777 0.0012639487 0.12970814 -0.041362 -0.23974116 -0.18324819 -0.18451779
0.4758429 -0.111678064 0.34942573 0.29597613 -0.1029245 0.14392976 -0.1606545 -0.102393925
0.012179466 -0.09062887 0.114109926 -0.043887638 -0.16597879 -0.06548592 0.05757235 0.024989607
-0.021560743 -0.19673023 -0.05441073 0.011629471 -0.023689192 -0.0545057 0.030868666 -0.1161357
-0.11348647 -0.15237156 0.08806506 0.0063638915 0.010141132 -0.07005009 -0.13112913 -0.04709801
0.15626347 -0.05910112 0.020078214 -0.056078866 -0.14489117 -0.124356955 -0.061645105 -0.19308071
0.033516478 -0.0147741325 0.08037547 0.078416824 -0.023505554 -0.17884861 0.22405139 0.06321177
-0.050150402 0.010685551 0.074391454 0.03365008 0.07502164 -0.2378828 -0.20988126 -0.03289289
0.1284038 -0.008388124 0.06923882 -0.12523252 -0.13223517 -0.06891431 0.022337928 0.14778933
-0.17023458 0.04411408 -0.25416347 0.16175914 -0.025112327 -0.12825233 -0.16489667 -0.10487703
0.2548856 0.013364734 0.10981106 -0.07622982 0.038172055 0.17327031 0.010037591 -0.019981494
0.21033908 -0.12331033 -0.1791906 0.050593566 -0.015035918 -0.2093265 0.04335655 -0.08888577
0.101210296 -0.020511026 0.0060442192 0.19993176 -0.05886709 -0.04123646 -0.18260643 -0.21474926
0.21014546 0.040540867 0.22423293 -0.05066726 -0.23375033 -0.14157335 -0.1513924 0.0012982747
0.17026813 -0.13854602 0.04581821 -0.022038657 -0.09343852 0.23111373 -0.30381402 -0.035821255
-0.044877477 0.07254661 0.046172652 0.23395947 -0.08782324 -0.03146929 0.18365344 -0.007314304
0.03290404 0.119148925 0.12049818 -0.1500721 0.026169172 0.029639851 0.15930583 -0.12895
0.009051319 0.031302635 -0.00039184047 0.1877811 -0.13347815 -0.038181126 0.00042334283 -0.17875075
-0.12722722 0.39903426 -0.093789585 -0.07171686 -0.03586554 -0.20821185 -0.09046466 -0.13908523
0.07349652 0.12346135 0.017939283 -0.15506865 0.12619692 -0.020736996 0.114194684 -0.04292896
0.15191479 -0.23073426 -0.22478124 -0.13610813 0.07560587 -0.068301655 -0.13185467 0.04585564
0.045803618 0.076626785 -0.24920751 0.11271228 0.08835015 0.014123466 -0.11594349 0.23227489
0.25150046 0.26741117 0.21278568 -0.2168143 -0.23625709 -0.2597016 0.09596315 0.09002256
-0.108487986 0.19814187 0.29198337 -0.06705889 0.09211254 0.34361908 -0.14750092 0.22385599
0.12731 0.006808454 -0.042456184 0.0047776704 0.036429983 0.121254064 -0.04020994 0.12887105
-0.03933377 -0.01026556 -0.017113563 -0.46062112 0.028576769 0.06910088 0.14809726 0.020332562
00000000: 8e3f 0c3e 5534 9d3d f318 dc3d 05ab 15be
00000010: c1ed 8bbe 9570 433e b97c f8bc 0873 0ebd
00000020: acae 23be 602d da3d 5e3c dcbd eb44 5a3e
00000030: 30dd 093e ff44 a13d f14a 323d e8f4 d2bd
00000040: 726a c33b 3781 0fbe bb50 33be edf7 5cbe
00000050: 8f4b afbd d379 47be f3b3 533d 198c 613d
00000060: 0fa7 823e 7f66 85bd 3709 153e a6aa 1c3e
00000070: 6308 1bbe f999 f43d ef2d f93c ca5a 52be
00000080: 2d28 a93d c494 243e 95c0 d03e 2f52 48bd
00000090: d2a4 38be e4c6 e6bc fd98 71be 59fd 033e
000000a0: 5a83 b1bd 393a b6bd 10ab b7bc 596f fe3c
000000b0: 2203 643d e3bf 12be db63 18be 8242 34be
000000c0: 1452 9cbc bd69 ab3d 15ab a53a 36d2 043e
000000d0: 336b 29bd b57e 75be 6aa5 3bbe 3bf2 3cbe
000000e0: aea1 f33e 78b7 e4bd eee7 b23e 2f8a 973e
000000f0: 15ca d2bd 5362 133e 9d82 24be e8b3 d1bd
00000100: 628c 473c a19b b9bd 77b2 e93d 86c3 33bd
00000110: 58f6 29be 7b1d 86bd fcd0 6b3d 01b7 cc3c
00000120: 28a0 b0bc a673 49be c9dd 5ebd 8989 3e3c
00000130: d60f c2bc 5e41 5fbd 49e0 fc3c 8ed8 edbd
00000140: 986b e8bd 4a07 1cbe 745b b43d 3188 d03b
00000150: fe26 263c 6c76 8fbd b746 06be d8e9 40bd
00000160: 8803 203e 0414 72bd 117b a43c f4b2 65bd
00000170: 5a5e 14be dcae febd 947f 7cbd f3b6 45be
00000180: 9348 093d 340f 72bc e59b a43d 0099 a03d
00000190: b88e c0bc 1724 37be ba6d 653e 2c75 813d
000001a0: 826a 4dbd 7312 2f3c 8c5a 983d abd4 093d
000001b0: f2a4 993d 8c97 73be 1deb 56be b2ba 06bd
000001c0: 497c 033e 586e 09bc 15cd 8d3d f43c 00be
000001d0: a868 07be f222 8dbd 08fe b63c 1656 173e
000001e0: f951 2ebe f7b0 343d b721 82be 30a4 253e
000001f0: 5eb8 cdbc 9454 03be acda 28be c5c9 d6bd
00000200: 5e80 823e c2f7 5a3c 9fe4 e03d 611e 9cbd
00000210: 4d5a 1c3d c66d 313e b574 243c 3bb0 a3bc
00000220: 2163 573e 208a fcbd be7d 37be 333b 4f3d
00000230: 3659 76bc b059 56be a396 313d be09 b6bd
00000240: 5847 cf3d bd06 a8bc 960e c63b e9ba 4c3e
00000250: 9e1e 71bd 90e7 28bd 2efd 3abe 3be7 5bbe
00000260: 5f30 573e 2e0e 263d 519d 653e 7988 4fbd
00000270: 3f5c 6fbe 9bf8 10be 9c06 1bbe df2a aa3a
00000280: c55a 2e3e 02df 0dbe e0ab 3b3d 6a8a b4bc
00000290: b25c bfbd 14a9 6c3e 838d 9bbe 4fb9 12bd
000002a0: 72d1 37bd 5193 943d 891f 3d3d 1293 6f3e
000002b0: acdc b3bd f1e5 00bd a60f 3c3e d4ac efbb
000002c0: 63c6 063d 5a04 f43d c0c7 f63d 80ac 19be
000002d0: bb60 d63c 46cf f23c 1121 233e 780b 04be
000002e0: fc4b 143c 3137 003d f06f cdb9 b049 403e
000002f0: 7fae 08be d063 1cbd 1df4 dd39 700a 37be
00000300: da47 02be 384e cc3e c114 c0bd 4ae0 92bd
00000310: bfe7 12bd 7d35 55be 8945 b9bd 5c6c 0ebe
00000320: 5885 963d 4ed9 fc3d 67f5 923c 51ca 1ebe
00000330: c439 013e a2e0 a9bc e7de e93d 47d6 2fbd
00000340: 8d8f 1b3e 9a45 6cbe 0e2d 66be ee5f 0bbe
00000350: 40d7 9a3d bde1 8bbd e904 07be 20d3 3b3d
00000360: 939c 3b3d 81ee 9c3d 4130 7fbe b2d5 e63d
00000370: ecf0 b43d 1c66 673c c873 edbd 78d9 6d3e
00000380: abc4 803e 1eea 883e 7de4 593e 9104 5ebe
00000390: 61ed 71be 9cf7 84be 5488 c43d bf5d b83d
000003a0: f32e debd b4e5 4a3e d87e 953e 2c56 89bd
000003b0: 80a5 bc3d d7ee af3e 7b0a 17be 813a 653e
000003c0: 8d5d 023e 7419 df3b 89e6 2dbd 018e 9c3b
000003d0: 9b37 153d 0d54 f83d 2eb3 24bd c6f6 033e
000003e0: 721c 21bd e130 28bc be31 8cbc 88d6 ebbe
000003f0: d419 ea3c c384 8d3d cfa6 173e 7990 a63c

gru.weight_hh_l1 f4 [96, 32]
0.14527193 0.06175102 -0.114645764 0.04799358 -0.016351622 0.041598167 0.030813765 -0.086963356
-0.14524063 0.0029851499 0.016368914 0.08058743 -0.14198965 0.15982717 0.16672556 0.06977916
0.017240351 0.046532474 -0.1484653 -0.0010119237 -0.085270755 0.024826948 0.05177176 -0.1603402
-0.023489214 -0.061325468 -0.0035595929 0.09168095 0.008536758 0.221093 -0.041172564 -0.11068005
0.08559971 -0.04827988 -0.15360938 0.13952814 0.083654225 0.03507165 -0.13385606 0.13207833
0.10128198 -0.17754567 -0.11324517 -0.044425074 0.0657499 0.12614194 -0.017002236 -0.11273848
0.027782047 0.11550773 0.13937743 -0.04831446 -0.07017813 0.09875764 0.16352546 -0.040938795
-0.037070405 -0.008083679 -0.025115285 0.059967127 0.042356722 0.0028532564 -0.046086743 -0.18544431
-0.1740321 -0.0067462884 0.10800634 0.14527428 -0.06177312 -0.16177447 0.18131086 0.12993212
0.10524109 -0.18599607 0.15538844 0.0641992 0.11679949 -0.13600937 0.055645835 -0.059084278
0.06452497 0.15545325 0.10589788 -0.1546156 0.0019571092 0.0973787 0.13996038 0.09242201
-0.15172192 0.08335333 -0.063702576 0.06931109 -0.009085128 0.11425484 -0.0001699217 -0.08732356
-0.03421489 0.13481937 -0.032753572 0.03168448 0.09420232 -0.115190424 -0.05662402 0.11317977
0.04849089 -0.123131536 0.13876411 0.029653119 0.07006133 0.05865523 0.07087575 0.06176439
-0.11387436 -0.071609214 -0.113017574 -0.187019 0.030804973 -0.006861024 0.0015934682 0.03045484
0.23093317 0.11408055 -0.109543204 -0.15143205 -0.10992406 -0.049956895 -0.08187783 -0.09396391
-0.12539972 0.013767911 0.13333154 0.026143543 0.07252378 -0.06788295 -0.014499652 0.1274777
0.10658228 0.098434255 -0.05726176 0.08932228 -0.08067791 0.07166807 0.05865042 -0.062607765
0.09185032 0.18076651 0.17957607 -0.16447313 -0.12409116 0.11711623 0.13215779 -0.113794975
-0.094476104 0.018127162 0.096381135 0.029842824 -0.023878222 0.028698646 0.037388768 0.10099592
0.119798586 -0.11435113 -0.015408517 0.053738497 0.056299143 -0.10965682 0.10346354 0.11832602
0.1640354 -0.07324429 -0.091083385 -0.027018342 0.21999267 -0.021685898 0.059415005 -0.06041218
0.17583898 0.075254306 0.1074567 0.0013884408 -0.19618514 -0.09445057 -0.09165597 -0.18329865
0.022728704 -0.22743045 0.11614331 -0.037391227 -0.1142737 -0.0055743167 0.045212664 0.084398374
-0.019213395 0.20057887 0.039930355 -0.023191951 -0.12674764 0.07584658 0.010221134 0.2266182
0.14486171 0.13145676 0.114719026 -0.056459952 -0.1559788 0.09907811 -0.111495726 -0.03422676
0.005799818 0.029504858 -0.069652565 0.059882626 0.067048505 0.056673627 0.08363379 0.113466255
0.21057622 0.19540848 0.20086683 -0.07878844 -0.24679758 -0.058346782 -0.11260451 -0.010268732
0.05481278 -0.031660058 -0.055664197 -0.11553895 -0.054349717 0.18398957 0.07610593 0.20096768
0.19690387 0.098761216 -0.011120629 0.022516273 -0.030202508 -0.029783241 0.13602155 -0.049949985
0.055887856 0.052575283 0.06943475 -0.030191159 0.13937667 0.027339447 0.07056411 -0.09878611
0.17056166 0.09092108 0.18878776 0.0091052605 0.12625091 0.13991198 0.09929234 0.0112832505
00000000: 2ac2 143e a3ee 7c3d 66cb eabd eb94 443d
00000010: d6f3 85bc d762 2a3d 266d fc3c d819 b2bd
00000020: f6b9 14be 81a2 433b 1a18 863c 060b a53d
00000030: bc65 11be bca9 233e 1bba 2a3e 60e8 8e3d
00000040: a33b 8d3c d698 3e3d 4a07 18be 86a2 84ba
00000050: 6fa2 aebd e261 cb3c a00e 543d 3930 24be
00000060: 746c c0bc 6a30 7bbd 0f48 69bb 39c3 bb3d
00000070: c2dd 0b3c 3466 623e 90a4 28bd 39ac e2bd
00000080: e74e af3d 20c1 45bd c74b 1dbe 77e0 0e3e
00000090: e852 ab3d 4aa7 0f3d 9011 09be 8b3f 073e
000000a0: ed6c cf3d 88ce 35be 15ed e7bd 11f7 35bd
000000b0: e2a7 863d 5a2b 013e 4648 8bbc 6fe3 e6bd
000000c0: 2d97 e33c 518f ec3d f5b8 0e3e 62e5 45bd
000000d0: 8db9 8fbd 7241 ca3d 3873 273e 70af 27bd
000000e0: 23d7 17bd 6871 04bc 92be cdbc 17a0 753d
000000f0: 3e7e 2d3d b3fd 3a3b 74c5 3cbd 1de5 3dbe
00000100: 7935 32be f80f ddbb 6e32 dd3d c8c2 143e
00000110: d005 7dbd 35a8 25be 8ea9 393e ed0c 053e
00000120: a488 d73d c175 3ebe 261e 1f3e df7a 833d
00000130: 9234 ef3d 0a46 0bbe e3ec 633d 5b02 72bd
00000140: ab25 843d 232f 1f3e fde0 d83d 8d53 1ebe
00000150: d842 003b 7c6e c73d c651 0f3e c047 bd3d
00000160: fe5c 1bbe 27b5 aa3d 7f76 82bd f9f2 8d3d
00000170: cad9 14bc 71fe e93d 022d 32b9 b2d6 b2bd
00000180: ea24 0cbd 170e 0a3e 9c28 06bd 96c7 013d
00000190: 25ed c03d f5e8 ebbd 97ee 67bd ccca e73d
000001a0: 629e 463d 632c fcbd 2e18 0e3e 19eb f23c
000001b0: 517c 8f3d 7740 703d 4e27 913d a8fc 7c3d
000001c0: f636 e9bd daa7 92bd c275 e7bd e981 3fbe
000001d0: b65a fc3c 71d2 e0bb ecdb d03a 6e7c f93c
000001e0: bf79 6c3e 10a3 e93d 3058 e0bd 0111 1bbe
000001f0: de1f e1bd 9a9f 4cbd 90af a7bd 2770 c0bd
00000200: c968 00be ce92 613c 1088 083e fc2a d63c
00000210: 5987 943d 3706 8bbd f38f 6dbc 8489 023e
00000220: cf47 da3d e697 c93d 4f8b 6abd 99ee b63d
00000230: 763a a5bd b6c6 923d 6c3b 703d 8038 80bd
00000240: 051c bc3d db1a 393e cae2 373e a56b 28be
00000250: 8223 febd a2da ef3d 5f54 073e 570d e9bd
00000260: b07c c1bd 6a7f 943c 7963 c53d f078 f43c
00000270: 439c c3bc 6c19 eb3c f724 193d f3d6 ce3d
00000280: f658 f53d ed30 eabd 0174 7cbc e61c 5c3d
00000290: ee99 663d c193 e0bd b1e4 d33d ea54 f23d
000002a0: e5f8 273e 1a01 96bd ed89 babd 9255 ddbc
000002b0: c245 613e a0a6 b1bc 265d 733d c372 77bd
000002c0: 220f 343e ee1e 9a3d 4212 dc3d 58fc b53a
000002d0: c2e4 48be 4d6f c1bd 20b6 bbbd a4b2 3bbe
000002e0: 8c31 ba3c 87e3 68be 8bdc ed3d 8b27 19bd
000002f0: 5408 eabd c2a8 b6bb ea30 393d 0ed9 ac3d
00000300: 6965 9dbc 8c64 4d3e 038e 233d 0cfd bdbc
00000310: 22ca 01be 7455 9b3d 8b76 273c 9a0e 683e
00000320: a156 143e 9a9c 063e cff1 ea3d 8d42 67bd
00000330: e8b8 1fbe 77e9 ca3d df57 e4bd 5c31 0cbd
00000340: 660c be3b 2cb4 f13c 01a6 8ebd 7c47 753d
00000350: ba50 893d 9b22 683d 3148 ab3d ff60 e83d
00000360: 4ba1 573e 2919 483e 09b0 4d3e d55b a1bd
00000370: 81b8 7cbe 09fd 6ebd 319d e6bd 2f3e 28bc
00000380: 5e83 603d faad 01bd 2400 64bd af9f ecbd
00000390: cf9d 5ebd c367 3c3e 6ddd 9b3d 79ca 4d3e
000003a0: 2ba1 493e 5243 ca3d 4c33 36bc 0c74 b83c
000003b0: 406b f7bc fcfb f3bc 3c49 0b3e 5b98 4cbd
000003c0: aaea 643d 2e59 573d ce33 8e3d 7353 f7bc
000003d0: c2b8 0e3e faf6 df3c eb83 903d 5f50 cabd
000003e0: b7a7 2e3e d534 ba3d 9451 413e 3b2e 153c
000003f0: eb47 013e 1645 0f3e c859 cb3d 62dd 383c

gru.bias_ih_l1 f4 [96]
-0.09360131 0.13227117 -0.007898069 -0.07032588 -0.05939869 -0.066805735 -0.084141724 -0.016283037
0.105909266 0.117111824 -0.12705928 0.14202075 -0.033986155 -0.0035188578 0.11621004 0.1614662
0.06683718 -0.04533992 -0.111321814 0.039045323 -0.0319508 0.07552623 -0.1010662 -0.045130596
0.045874663 0.0088495575 0.08551856 0.04047426 0.019454595 0.008239288 -0.0474881 -0.0259173
0.13097093 -0.15579009 0.16399793 0.20132825 -0.07838004 -0.04273466 0.035923265 0.27955252
-0.04339658 0.09476286 -0.03881329 -0.27070695 -0.18075447 -0.19153973 -0.095055886 0.026503695
-0.13816968 0.3279299 0.04496435 -0.14572476 -0.17028782 -0.14979346 0.17943248 -0.11877408
-0.39390427 -0.10897558 0.15131634 0.108745925 0.14909175 -0.08684481 0.18194556 0.13380292
0.10293348 0.006707707 0.041909326 -0.016628454 -0.049986713 0.033480402 0.07702388 -0.128063
0.06273561 -0.122126184 -0.04195197 0.15824398 0.15457244 -0.06737107 -0.021564906 0.1773588
-0.041540843 -0.075742565 -0.06288224 0.07526228 -0.116796136 0.19049121 0.17287382 0.06799491
-0.16806912 -0.0021725202 0.08987257 0.075519666 0.0686958 0.0469402 0.069911495 -0.042238373
00000000: 0bb2 bfbd 1872 073e e766 01bc 0407 90bd
00000010: 0a4c 73bd 72d1 88bd 7f52 acbd 0164 85bc
00000020: f5e6 d83d 53d8 ef3d d41b 02be e36d 113e
00000030: 1135 0bbd a39c 66bb 88ff ed3d 6557 253e
00000040: eee1 883d 5ab6 39bd b1fc e3bd fded 1f3d
00000050: d8de 02bd 7fad 9a3d ccfb cebd dcda 38bd
00000060: 12e7 3b3d bcfd 103c 5b24 af3d 56c8 253d
00000070: 3e5f 9f3c 14fe 063c e282 42bd 8450 d4bc
00000080: 3e1d 063e 7087 1fbe 13ef 273e fe28 4e3e
00000090: b785 a0bd 8a0a 2fbd 4624 133d 8221 8f3e
000000a0: 9dc0 31bd 0813 c23d affa 1ebd 1a9a 8abe
000000b0: b317 39be fe22 44be a9ac c2bd 471e d93c
000000c0: 5a7c 0dbe 6ee6 a73e 8a2c 383d df38 15be
000000d0: ee5f 2ebe 7563 19be 26bd 373e d33f f3bd
000000e0: d2ad c9be 972e dfbd acf2 1a3e 2fb6 de3d
000000f0: 82ab 183e b1db b1bd f04f 3a3e a203 093e
00000100: cace d23d 53cc db3b 1da9 2b3d 6538 88bc
00000110: debe 4cbd bf22 093d b2be 9d3d f222 03be
00000120: 877b 803d 4b1d fabd d4d5 2bbd b60a 223e
00000130: 3d48 1e3e d8f9 89bd e3a8 b0bc 8c9d 353e
00000140: bb26 2abd eb1e 9bbd 67c8 80bd 1c23 9a3d
00000150: d032 efbd 2110 433e d605 313e ea40 8b3d
00000160: 501a 2cbe d760 0ebb 1c0f b83d 0eaa 9a3d
00000170: 62b0 8c3d 5e44 403d c22d 8f3d 2502 2dbd

gru.bias_hh_l1 f4 [96]
-0.086274125 0.14534478 -0.016620241 0.14394899 0.16364212 0.17057961 -0.15201926 0.18514402
0.021101065 0.018196682 0.042437453 -0.13382511 0.1647191 0.14235027 0.029268421 0.14070839
0.05809345 0.009535963 0.030253956 0.05567465 0.059532244 0.016672563 0.1585779 0.14529587
-0.015464856 -0.056152605 -0.020904923 -0.14378563 -0.16257654 0.0104829185 -0.06773755 -0.1144504
0.022364503 0.05039072 0.13652341 0.1162875 0.044317 0.028929109 0.04147868 0.17600383
-0.20242901 0.050345324 -0.10738177 -0.22569832 -0.22509581 -0.19019073 -0.23836319 -0.07456801
-0.06594683 0.28599274 -0.20221677 0.07716608 0.110106274 -0.25718424 -0.054976054 0.11733354
-0.16779703 -0.21264383 0.056225535 0.32380155 -0.17525893 0.12571707 0.19333507 0.013146555
0.0013697855 0.09991457 0.08554968 0.06394133 0.036494907 0.16371077 0.06689723 0.07266622
-0.09455107 0.037149496 0.05529272 0.14552203 0.049274605 -0.054109298 -0.073911175 0.17606407
0.05340524 0.13180168 -0.09335701 -0.0007856203 -0.15303344 0.0025328298 0.029061442 0.12867805
0.11827771 0.171971 0.13842553 0.08679789 -0.014553825 0.09616952 -0.17926055 -0.17722172
00000000: 7db0 b0bd 43d5 143e 2c27 88bc 5d67 133e
00000010: cd91 273e 6cac 2e3e f0aa 1bbe 6596 3d3e
00000020: 24dc ac3c 3511 953c e5d2 2d3d 7309 09be
00000030: 20ac 283e 45c4 113e 54c4 ef3c dc15 103e
00000040: 66f3 6d3d ba3c 1c3c 25d7 f73c 1a0b 643d
00000050: 15d8 733d e694 883c 3f62 223e 71c8 143e
00000060: 4f60 7dbc 4600 66bd cd40 abbc 8a3c 13be
00000070: 777a 26be 8cc0 2b3c fcb9 8abd f964 eabd
00000080: c335 b73c 8066 4e3d cbcc 0b3e 2428 ee3d
00000090: be85 353d bdfc ec3c 8ce5 293d 593a 343e
000000a0: 8d49 4fbe e636 4e3d f9ea dbbd 761d 67be
000000b0: 847f 66be 5cc1 42be 7b15 74be 1db7 98bd
000000c0: 220f 87bd a46d 923e ea11 4fbe 4009 9e3d
000000d0: 667f e13d a7ad 83be 922e 61bd 914c f03d
000000e0: fcd2 2bbe 4ebf 59be bf4c 663d 51c9 a53e
000000f0: 1477 33be fabb 003e a1f9 453e a664 573c
00000100: 608a b33a 03a0 cc3d ac34 af3d acf3 823d
00000110: af7b 153d cca3 273e 6a01 893d 07d2 943d
00000120: fea3 c1bd 122a 183d 9f7a 623d ba03 153e
00000130: 2bd4 493d b6a1 5dbd be5e 97bd 244a 343e
00000140: 74bf 5a3d 05f7 063e f631 bfbd 16f2 4dba
00000150: ccb4 1cbe d5fd 253b 4312 ee3c 2ec4 033e
00000160: 963b f23d 2a19 303e 6cbf 0d3e 18c3 b13d
00000170: 2b73 6ebc 86f4 c43d 1490 37be 9c79 35be

fc.weight f4 [1, 32]
0.11956179 0.06911417 -0.08042544 -0.118392184 -0.14530571 0.10173656 -0.017825438 0.23789036
0.042046122 -0.09849133 0.019323245 0.080746 0.22511968 -0.013835306 0.25197276 0.16244449
-0.086836696 0.04955372 0.08231277 0.18270293 0.16722585 0.14420645 0.108686216 -0.02621853
-0.329401 -0.354328 -0.025012037 0.06295329 -0.044488408 0.16174078 -0.1359406 -0.05325504
00000000: d0dc f43d bb8b 8d3d 18b6 a4bd 9a77 f2bd
00000010: 05cb 14be 425b d03d a706 92bc 8899 733e
00000020: 8e38 2c3d d3b5 c9bd c84b 9e3c 295e a53d
00000030: c685 663e 7bad 62bc 9302 813e d957 263e
00000040: 70d7 b1bd d7f8 4a3d 9993 a83d 7a16 3b3e
00000050: 413d 2b3e dbaa 133e e196 de3d 3ec8 d6bc
00000060: 3fa7 a8be 7b6a b5be 0be6 ccbc a8ed 803d
00000070: 7a39 36bd 609f 253e 0334 0bbe f521 5abd
