models/lstm_model.pt (torch, 210229 bytes, 9 tensors)

lstm.weight_ih_l0 f4 [256, 5]
0.00033475284 -0.12615255 0.15006843 0.075509116 0.07400813 0.16415845 0.091148056 -0.032673024
-0.018011788 -0.026710544 0.12738918 -0.11207733 -0.13122503 0.09396854 -0.045791965 0.12896279
0.07413315 -0.107937835 0.18937173 0.13789444 0.12860428 0.085132755 0.09949571 0.009413179
0.061471153 -0.028429138 0.0692276 -0.11819613 -0.1139979 0.065175936 0.020731585 -0.068374075
0.07439976 0.09143557 0.012262023 -0.0884702 0.083985694 0.01740618 0.028856205 0.018104322
0.12978096 0.12618169 -0.13381334 0.0033221073 -0.0008517351 -0.090710916 0.070638716 0.14539967
0.08173289 0.1378241 -0.05549255 0.06477965 -0.019402025 0.09096728 -0.026657302 0.29517108
0.0656557 0.1299564 0.086870424 0.17008573 0.08231262 -0.033913407 -0.09570749 -0.09559849
-0.09242691 0.13782269 0.09622137 0.039716307 0.18611678 0.20464003 0.011494637 -0.020253344
0.02620143 0.14893611 -0.058236737 0.61498463 0.5100543 -0.008966849 0.16361868 0.32745984
-0.0641765 -0.087381355 0.037548237 0.15227222 0.12743913 0.0879831 -0.14264409 -0.015670955
-0.063742645 0.06517891 -0.07411084 -0.00042821426 0.017662141 0.10331076 0.005274144 0.14957368
0.07918109 0.059600875 -0.05646114 -0.0061477367 0.035565037 -0.0010804856 0.013598875 0.030243944
0.16379003 0.18272163 0.23294804 0.091533 -0.034237076 -0.08365642 -0.0741587 0.09653867
0.0042865747 0.00035602882 -0.011452533 0.11045923 -0.041907854 -0.18041645 0.02479042 0.03587699
0.17812404 -0.040240236 -0.02133532 0.012213586 0.12750109 0.13592933 0.17100976 0.10482905
-0.009365476 -0.07452763 0.17994992 0.0046336213 0.17280811 -0.04574416 0.108008586 0.06270415
0.10045486 0.11466651 0.018774992 0.06656599 0.09562352 0.18134099 -0.10160968 0.12233666
0.051665843 0.008651686 0.058694024 0.04640703 0.0060641654 0.09494988 0.09702786 -0.11383992
-0.07431664 -0.13076554 -0.039802384 0.09349704 -0.11206676 0.07930918 0.039735563 0.07370718
-0.038615875 -0.11629239 0.12240943 0.14000185 -0.028076267 0.1766223 0.11267516 0.047819335
-0.0787988 0.12397013 0.0052965884 -0.08889525 -0.096521825 0.029919842 0.03874795 0.05172003
0.07032154 -0.07082113 0.080321215 -0.017923655 0.10965633 -0.028632188 -0.12735999 0.041185316
-0.009848431 -0.02037284 0.02261472 -0.03546222 -0.099293515 -0.064589754 0.4928522 0.3862444
0.4322622 0.3742064 0.2929199 -0.006351946 -0.052957952 -0.12729824 -0.11413929 -0.06756616
0.059363235 -0.15762836 -0.059004508 0.069903396 0.0773665 0.37764934 0.22658207 0.27097997
0.45126048 0.42087367 0.030225474 0.2911545 -0.06975224 0.03027451 0.044234958 0.16485386
0.04674386 -0.087555684 -0.010023255 -0.1194386 0.160428 0.17085755 -0.08816205 0.059098136
0.07572765 -0.018672045 -0.08215677 0.003703358 0.011821521 -0.05217471 0.09013645 0.0483461
0.038201764 -0.059389185 0.12777673 0.4597213 0.17749494 0.5852625 0.22336882 0.3580819
-0.03426001 0.05560579 0.017124757 -0.11525658 0.07496936 0.05504161 -0.087764315 -0.028247854
0.05583184 0.12997648 0.06460702 -0.06412959 -0.052557107 -0.045272347 0.07994109 0.17326096
00000000: c481 af39 222e 01be 8aab 193e 86a4 9a3d
00000010: 9391 973d 2719 283e d5ab ba3d 26d4 05bd
00000020: 758d 93bc 12d0 dabc 4f72 023e cd88 e5bd
00000030: db5f 06be 9472 c03d 5b90 3bbd d20e 043e
00000040: 1fd3 973d 830e ddbd aaea 413e 3334 0d3e
00000050: d7b0 033e 155a ae3d 68c4 cb3d bc39 1a3c
00000060: 2dc9 7b3d 39e4 e8bc 33c7 8d3d d010 f2bd
00000070: bb77 e9bd f67a 853d 49d5 a93c b507 8cbd
00000080: e75e 983d 9242 bb3d a7e6 483c dd2f b5bd
00000090: b100 ac3d 6897 8e3c d963 ec3c 844f 943c
000000a0: 4de5 043e c635 013e 5d06 09be b6b7 593b
000000b0: fa46 5fba a5c6 b9bd 08ab 903d a7e3 143e
000000c0: 9363 a73d c321 0d3e 284c 63bd 31ab 843d
000000d0: fff0 9ebc 0e4d ba3d 6a60 dabc aa20 973e
000000e0: 7f76 863d 4a13 053e 1fe9 b13d f42a 2e3e
000000f0: 8593 a83d c9e8 0abd 4a02 c4bd 24c9 c3bd
00000100: 524a bdbd 6421 0d3e b60f c53d 91ad 223d
00000110: 6695 3e3e 288d 513e 0054 3c3c 57ea a5bc
00000120: 62a4 d63c b582 183e a589 6ebd a26f 1d3f
00000130: eb92 023f b1e9 12bc a88b 273e d1a8 a73e
00000140: f86e 83bd fff4 b2bd 2ecc 193d 40ed 1b3e
00000150: 677f 023e 7c30 b43d 4b11 12be 6060 80bc
00000160: 818b 82bd 857c 853d 6dc7 97bd f281 e0b9
00000170: 32b0 903c 9794 d33d bad2 ac3b d829 193e
00000180: b229 a23d 0c20 743d cc43 67bd f472 c9bb
00000190: a5ac 113d 159f 8dba d1cd 5e3c 26c2 f73c
000001a0: 93b8 273e 611b 3b3e ee89 6e3e a775 bb3d
000001b0: 2d3c 0cbd 0f54 abbd 84e0 97bd 11b6 c53d
000001c0: 6576 8c3b 61a9 ba39 68a3 3bbc 7338 e23d
000001d0: 92a7 2bbd 17bf 38be 4715 cb3c c0f3 123d
000001e0: 2666 363e f2d2 24bd 69c7 aebc 7e1b 483c
000001f0: a58f 023e 0f31 0b3e 2f1d 2f3e 9db0 d63d
00000200: a771 19bc f1a1 98bd cb44 383e a2d5 973b
00000210: 9cf4 303e 3a5e 3bbd 9b33 dd3d 096b 803d
00000220: 47bb cd3d 46d6 ea3d 03ce 993c c053 883d
00000230: 44d6 c33d 74b1 393e bc18 d0bd a58b fa3d
00000240: 909f 533d cdbf 0d3c 2569 703d 4c15 3e3d
00000250: e8b5 c63b 1575 c23d 8bb6 c63d e724 e9bd
00000260: 5333 98bd 67e7 05be d307 23bd 607b bf3d
00000270: 4283 e5bd da6c a23d c2c1 223d caf3 963d
00000280: ae2b 1ebd b42a eebd ccb1 fa3d a55c 0f3e
00000290: 3300 e6bc 7adc 343e 3cc2 e63d 35de 433d
000002a0: 4461 a1bd 0de4 fd3d 018f ad3b b60e b6bd
000002b0: 3cad c5bd 751a f53c 2cb6 1e3d 62d8 533d
000002c0: bd04 903d ab0a 91bd 737f a43d a1d4 92bc
000002d0: 7f93 e03d 0d8e eabc a86a 02be efb1 283d
000002e0: 505b 21bc f1e4 a6bc 8142 b93c d540 11bd
000002f0: 665a cbbd a247 84bd 2057 fc3e d3c1 c53e
00000300: 7951 dd3e fb97 bf3e 99f9 953e fc23 d0bb
00000310: 70ea 58bd 785a 02be dcc1 e9bd 2060 8abd
00000320: dd26 733d 5469 21be b6ae 71bd 8329 8f3d
00000330: 5472 9e3d 415b c13e 2105 683e e3bd 8a3e
00000340: 9d0b e73e c17c d73e 6a9b f73c 3412 953e
00000350: 43da 8ebd 4002 f83c b72f 353d 73cf 283e
00000360: 7d76 3f3d 6550 b3bd 9438 24bc 3a9c f4bd
00000370: 3d47 243e 48f5 2e3e 4e8e b4bd e310 723d
00000380: 1917 9b3d 1ef6 98bc cf41 a8bd 09b4 723b
00000390: 0eaf 413c 26b5 55bd 7699 b83d 8f06 463d
000003a0: 7479 1c3d 1342 73bd e7d7 023e 9760 eb3e
000003b0: 3cc1 353e c3d3 153f ccba 643e 8356 b73e
000003c0: 3954 0cbd e6c2 633d 3849 8c3c a40b ecbd
000003d0: 8989 993d 5073 613d c7bd b3bd 0b68 e7bc
000003e0: edaf 643d 8e18 053e af50 843d 6056 83bd
000003f0: 1f46 57bd 7f6f 39bd 27b8 a33d 526b 313e

lstm.weight_hh_l0 f4 [256, 64]
-0.17331749 0.014688365 -0.09424441 0.2158176 -0.063345216 0.12691066 -0.07518465 -0.01775841
0.011000956 -0.008134077 -0.046692584 0.12667035 -0.06791346 -0.10427216 -0.07948767 -0.2364845
0.08111105 -0.057262145 -0.15280688 0.07449153 0.1353344 0.3419891 -0.013437954 -0.002552623
0.07132771 0.15362765 0.03766772 0.025356472 -0.15304114 -0.024595633 -0.07141399 0.12797861
-0.05996749 0.005086881 0.035976317 -0.0037817496 0.02408416 0.08747037 -0.22091848 -0.14453128
-0.03229536 -0.3148347 -0.0436966 -0.04578139 -0.04921335 -0.14708336 -0.039360292 0.40415993
0.10632991 -0.06325167 -0.0666869 -0.07940046 -0.013401728 0.07764212 0.1107233 -0.049481094
-0.033859648 -0.05565563 -0.011878965 0.086922176 0.13999207 -0.12365567 -0.094113134 -0.09181645
0.14338529 -0.046529785 -0.07570653 -0.04923525 -0.11682181 -0.09896878 0.020608177 0.07879382
-0.11613446 -0.054998126 -0.11848177 0.19765662 -0.07419727 0.17186557 -0.007476561 0.081645794
-0.02345367 0.05446587 -0.03603185 -0.10055756 -0.2612032 0.12697808 -0.08780064 0.05370441
-0.059851225 0.052613392 0.09221243 -0.05239671 0.08574821 0.07889367 0.06472891 0.01669607
-0.03062732 0.14439827 0.037366636 -0.0722238 -0.005874766 0.000632413 0.00818993 0.08017186
-0.07693278 0.3435853 -0.14899574 -0.011277685 0.033725247 0.004062091 -0.07014202 -0.055459782
0.0161784 0.03854951 0.117523454 0.007886831 0.048894256 -0.0049213874 -0.040396884 -0.024874745
0.14665806 -0.027479874 0.055867895 -0.04395565 0.04304505 0.010658755 -0.11561023 -0.0847573
-0.09535911 0.04346175 -0.029409196 -0.014558407 0.036093246 0.016583707 -0.0039492636 0.08766287
-0.01104983 0.04424149 0.084433325 0.015594189 -0.007794108 -0.07765507 -0.040122274 0.0027129082
-0.04747043 0.025916655 0.055505123 0.07249766 0.124007985 -0.066285655 0.048461545 0.042779706
-0.09690527 0.0508388 -0.07893663 -0.094341785 -0.019556655 -0.062231906 -0.07420798 -0.08250433
0.05142785 0.012594182 0.02724277 0.12375584 -0.017504409 -0.011801696 0.018199172 -0.0026600584
0.074989714 -0.10134528 0.048168387 -0.04215919 0.0149311125 -0.056089383 -0.014977241 0.05892564
0.027507039 0.068961754 0.009404318 0.005008616 0.12092204 -0.07007366 0.07373729 -0.10826193
0.091587394 0.062457565 -0.07742843 -0.04086698 -0.11426518 -0.018039882 0.06226442 -0.06922251
-0.025043435 0.16040725 -0.10177164 -0.035938855 0.059482425 0.074724086 -0.060814068 0.089515224
0.092008956 -0.08225821 0.10626613 0.23092999 0.14398243 -0.0917844 0.13513881 0.26848796
0.15812722 -0.012316363 -0.051042795 0.032477196 -0.29006088 -0.39379182 0.036809906 -0.034360457
-0.040402576 0.0487252 0.10630456 -0.075666346 -0.056753304 0.06371803 0.061155338 -0.06935938
0.09283825 -0.08250326 -0.12703553 -0.18145943 0.18194541 0.08815087 0.08335201 -0.20558916
-0.030640889 0.16642372 -0.14285907 -0.021192512 -0.23171161 -0.10098009 -0.051182404 -0.054115232
0.13385764 0.012612079 0.023802668 -0.16357356 -0.057539042 -0.15086862 -0.03207543 0.02320462
-0.15024851 0.22993049 -0.03369462 0.006335213 0.07942166 -0.04166639 -0.02856933 0.004986804
00000000: 247a 31be 78a7 703c 3703 c1bd 4aff 5c3e
00000010: 23bb 81bd def4 013e 69fa 99bd 167a 91bc
00000020: 5b3d 343c cb44 05bc b940 3fbd dfb5 013e
00000030: 3616 8bbd a48c d5bd 6eca a2bd fe28 72be
00000040: 8d1d a63d b68b 6abd 6879 1cbe 048f 983d
00000050: 1a95 0a3e 3219 af3e dd2a 5cbc e849 27bb
00000060: 4314 923d 9150 1d3e 7849 1a3d 60b8 cf3c
00000070: d1b6 1cbe c87c c9bc 7f41 92bd d30c 033e
00000080: 79a0 75bd daaf a63b e75b 133d 3bd7 77bb
00000090: 254c c53c aa23 b33d 7438 62be 0200 14be
000000a0: 2448 04bd 0432 a1be 35fb 32bd 4485 3bbd
000000b0: f093 49bd 059d 16be 4238 21bd 0dee ce3e
000000c0: 7fc3 d93d 178a 81bd 2493 88bd b59c a2bd
000000d0: ec92 5bbc d502 9f3d e6c2 e23d b0ac 4abd
000000e0: 6ab0 0abd 28f7 63bd fe9f 42bc 4104 b23d
000000f0: 155a 0f3e 2f3f fdbd 63be c0bd 430a bcbd
00000100: 98d3 123e 0496 3ebd 060c 9bbd e7aa 49bd
00000110: 4640 efbd 25b0 cabd 7bd2 a83c a85e a13d
00000120: e7d7 edbd b745 61bd 92a6 f2bd 7f66 4a3e
00000130: bdf4 97bd 87fd 2f3e f0fd f4bb e935 a73d
00000140: e921 c0bc 9b17 5f3d 2296 13bd 1ff1 cdbd
00000150: 6dbc 85be 8b06 023e d2d0 b3bd 28f9 5b3d
00000160: 8f26 75bd 2481 573d dfd9 bc3d ef9d 56bd
00000170: c29c af3d 0193 a13d 9790 843d 32c6 883c
00000180: 25e6 fabc 24dd 133e c20d 193d 12ea 93bd
00000190: 1c81 c0bb 85c8 253a 0e2f 063c 2531 a43d
000001a0: ef8e 9dbd 6aea af3e 5792 18be 0ac6 38bc
000001b0: 7c23 0a3d 4a1b 853b 9fa6 8fbd cc29 63bd
000001c0: 9088 843c 17e6 1d3d 23b0 f03d c437 013c
000001d0: 5845 483d 9743 a1bb 3477 25bd 1fc6 cbbc
000001e0: 882d 163e 791d e1bc bcd5 643d d70a 34bd
000001f0: 0250 303d 0fa2 2e3c 0ec5 ecbd 3c95 adbd
00000200: a34b c3bd f304 323d 8eeb f0bc 6286 6ebc
00000210: 83d6 133d 8eda 873c d368 81bb 9788 b33d
00000220: 590a 35bc 9136 353d 61eb ac3d c57e 7f3c
00000230: b765 ffbb 9f09 9fbd 4157 24bd 0ccb 313b
00000240: 5b70 42bd 2a4f d43c 5759 633d a779 943d
00000250: e6f7 fd3d c6c0 87bd 9d7f 463d c639 2f3d
00000260: 4576 c6bd 583c 503d 87a9 a1bd 4436 c1bd
00000270: 4735 a0bc e2e6 7ebd 5afa 97bd 08f8 a8bd
00000280: 02a6 523d d457 4e3c 3b2c df3c b473 fd3d
00000290: 6865 8fbc e75b 41bc 6e16 953c 6054 2ebb
000002a0: 3594 993d 1d8e cfbd 374c 453d 1daf 2cbd
000002b0: a0a1 743c fbbd 65bd 1a63 75bc 035c 713d
000002c0: 7156 e13c d23b 8d3d 9214 1a3c 511f a43b
000002d0: f9a5 f73d c782 8fbd 9403 973d 6eb8 ddbd
000002e0: 2c92 bb3d 81d3 7f3d cc92 9ebd 2264 27bd
000002f0: dd03 eabd 60c8 93bc fa08 7f3d 88c4 8dbd
00000300: e427 cdbc cc41 243e a66d d0bd 9f34 13bd
00000310: d8a3 733d f108 993d 2c18 79bd c253 b73d
00000320: 316f bc3d fe76 a8bd 0fa2 d93d e978 6c3e
00000330: 2170 133e 76f9 bbbd d461 0a3e 4177 893e
00000340: 1aec 213e 92ca 49bc 4012 51bd cf06 053d
00000350: dc82 94be 159f c9be fcc5 163d 8dbd 0cbd
00000360: 2c7d 25bd 1394 473d 35b6 d93d f5f6 9abd
00000370: 2776 68bd 997e 823d 057e 7a3d 4a0c 8ebd
00000380: fb21 be3d 78f7 a8bd 9a15 02be 80d0 39be
00000390: e64f 3a3e 7188 b43d 75b4 aa3d f785 52be
000003a0: 9a02 fbbc fb6a 2a3e a649 12be eb9b adbc
000003b0: cf45 6dbe a6ce cebd a4a4 51bd efa7 5dbd
000003c0: fa11 093e e5a2 4e3c d0fd c23c d47f 27be
000003d0: 0fae 6bbd 4e7d 1abe 8761 03bd 9e17 be3c
000003e0: bfda 19be e672 6b3e 5f03 0abd 9e97 cf3b
000003f0: d3a7 a23d 60aa 2abd 3a0a eabc 5868 a33b

lstm.bias_ih_l0 f4 [256]
-0.06874665 0.033673745 -0.053489357 -0.024503335 -0.01790866 -0.018851541 0.028207913 -0.08312922
-0.10546284 0.13088495 -0.10298707 0.2916539 0.09564669 0.074837245 0.03528504 0.4328902
0.02411633 -0.090559006 0.0030033966 0.025935167 0.14568123 0.1452726 -0.022047974 -0.04169686
0.10179204 0.1749205 -0.03582554 -0.033302106 0.19823201 0.015036899 0.04336223 0.0052977568
0.06385455 0.12848954 0.04452435 0.028613618 0.13720886 0.0030877865 0.6216973 -0.07667702
-0.043157913 0.25986534 0.2078866 0.12933749 0.14852203 0.15242718 -0.059550215 0.42963237
-0.0863567 -0.0050422256 0.15137951 0.04498311 0.15484414 0.01420593 0.16440111 0.105293415
0.028031565 0.09897905 0.05824971 0.16057186 -0.10412467 -0.0031380751 0.082545005 -0.03797381
0.12623103 0.03159128 -0.09165791 -0.062951684 0.037457835 -0.13239788 0.028871775 -0.009888444
-0.068141006 -0.051695842 -0.09133114 0.06464968 0.08446062 -0.10452023 -0.049264878 -0.04248779
-0.027142687 -0.078680195 -0.06179195 0.03460478 0.07842941 0.24448904 0.13220513 0.06240825
0.06421333 -0.15682861 -0.0036487663 0.09126015 0.16861755 -0.008790207 -0.08604816 0.0063549886
0.081742294 -0.07387461 0.1382384 -0.07810503 0.11423518 0.04486525 -0.17857732 -0.073494755
0.054805256 0.02179815 0.18416497 0.075687446 0.119392335 0.108248234 0.100371495 -0.20392148
-0.03495601 0.12622678 0.070085 0.09731633 -0.04199497 -0.10617423 0.059466347 0.023888286
-0.07179146 -0.13921298 -0.090814784 -0.08020345 -0.07136811 -0.037311494 0.06217591 0.044844337
0.07852941 0.036170457 -0.08725639 0.07963363 0.13658088 0.06643172 -0.014643779 -0.100617886
-0.077060886 0.049082886 0.065117046 0.050795067 0.08972875 0.057948265 -0.06724897 0.01730228
0.07916281 -0.1069161 0.089685544 0.0026294703 -0.06251856 0.13288425 -0.13875404 -0.048237804
-0.11982144 0.12227429 0.031937286 -0.01173348 0.051348835 0.043137386 0.00385619 -0.033054654
-0.015083576 0.07776627 0.027796311 -0.029521901 0.002078655 0.13269317 -0.12261957 -0.07947344
-0.0755645 0.1210976 -0.088799916 -0.06128913 -0.08904626 -0.08714187 -0.082187906 0.051796302
0.11182671 0.03214007 -0.1327113 0.08614467 0.027897257 -0.029320912 0.028229766 0.039076254
0.09783682 0.0002830548 -0.08993808 -0.05492644 0.09435066 -0.0535551 0.04447158 -0.024557926
0.09118325 0.06552656 0.051874503 -0.022052646 0.09198542 0.061691944 0.026463551 0.13888754
-0.06731952 0.12787902 0.11273145 0.083314866 0.0773493 0.09796182 0.09327347 0.49756122
0.020429758 -0.0916115 -0.06121682 -0.044058174 0.2974996 0.070412055 0.086453795 0.17162147
0.09575631 0.13716565 0.04034544 0.026666889 -0.008233084 0.12746814 0.0069934702 0.09723613
0.0475378 -0.04747065 -0.020067418 0.11419491 0.012265325 0.11797732 0.49057078 0.049860228
0.09512759 0.34159443 0.14643997 -0.0225061 0.07270226 0.032057684 -0.008802923 0.6127452
0.114780664 -0.022214383 0.10784374 0.030380636 -0.0046131597 0.14275102 0.12725902 -0.050160762
0.05370039 0.056931708 0.14991285 0.09555383 0.011987039 -0.07025759 0.15693022 -0.00072299025
00000000: 0bcb 8cbd 7bed 093d a817 5bbd 38bb c8bc
00000010: 2fb5 92bc 8c6e 9abc 4814 e73c a73f aabd
00000020: e7fc d7bd b406 063e e3ea d2bd a953 953e
00000030: 69e2 c33d 4544 993d 0c87 103d c9a3 dd3e
00000040: 9c8f c53c 0077 b9bd a2d4 443b fd75 d43c
00000050: 762d 153e 57c2 143e f49d b4bc 54ca 2abd
00000060: 5878 d03d 5c1e 333e cdbd 12bd ca67 08bd
00000070: 55fd 4a3e 535d 763c 989c 313d ce98 ad3b
00000080: 2dc6 823d c392 033e 2a5f 363d 1b67 ea3c
00000090: 7b80 0c3e 765c 4a3b 8e27 1f3f d708 9dbd
000000a0: 5ac6 30bd 120d 853e 3ae0 543e 0c71 043e
000000b0: 2916 183e df15 1c3e edea 73bd c6f8 db3e
000000c0: c8db b0bd 4139 a5bb 3b03 1b3e 3640 383d
000000d0: 768f 1e3e fdbf 683c c458 283e 13a4 d73d
000000e0: 74a2 e53c 87b5 ca3d 3f97 6e3d f36c 243e
000000f0: 513f d5bd 2aa8 4dbb 5b0d a93d 6d8a 1bbd
00000100: b542 013e dc65 013d 24b7 bbbd d0ec 80bd
00000110: 636d 193d 4f93 07be 8084 ec3c 2403 22bc
00000120: 838d 8bbd 05bf 53bd d20b bbbd 0d67 843d
00000130: b1f9 ac3d b40e d6bd f8c9 49bd ad07 2ebd
00000140: 575a debc 1523 a1bd 8e19 7dbd bebd 0d3d
00000150: 999f a03d 565b 7a3e c860 073e cb9f 7f3d
00000160: 4782 833d ae97 20be 2420 6fbb 9ae6 ba3d
00000170: 14aa 2c3e cd04 10bc 053a b0bd 823d d03b
00000180: 8168 a73d 924b 97bd 5e8e 0d3e 88f5 9fbd
00000190: 22f4 e93d a0c4 373d f9dc 36be 6b84 96bd
000001a0: 7a7b 603d 0992 b23c be95 3c3e 0502 9b3d
000001b0: f883 f43d 40b1 dd3d 928f cd3d cbd0 50be
000001c0: 082e 0fbd 9841 013e b988 8f3d c94d c73d
000001d0: eb02 2cbd e071 d9bd fc92 733d 5eb1 c33c
000001e0: 6707 93bd d98d 0ebe 1afd b9bd b541 a4bd
000001f0: 7229 92bd f0d3 18bd 2bac 7e3d b2ae 373d
00000200: 07d4 a03d 7927 143d 7ab3 b2bd f516 a33d
00000210: dcdb 0b3e 5b0d 883d 76ec 6fbc c010 cebd
00000220: 19d2 9dbd 230b 493d 165c 853d 7d0e 503d
00000230: b5c3 b73d 295b 6d3d d4b9 89bd 83bd 8d3c
00000240: 1d20 a23d d4f6 dabd 0ead b73d 3153 2c3b
00000250: bb09 80bd cf12 083e 8a15 0ebe 0195 45bd
00000260: f164 f5bd f16a fa3d acd0 023d c83d 40bc
00000270: 2853 523d d4b0 303d 22b8 7c3b 5164 07bd
00000280: 1a21 77bc ec43 9f3d 17b5 e33c ead7 f1bc
00000290: 0b3a 083b b8e0 073e f81f fbbd f9c2 a2bd
000002a0: 90c1 9abd 0502 f83d bbdc b5bd 500a 7bbd
000002b0: e35d b6bd 7077 b2bd 2252 a8bd 5c28 543d
000002c0: 6705 e53d 4ea5 033d 79e5 07be 9e6c b03d
000002d0: ca88 e43c 6932 f0bc 1c42 e73c 6c0e 203d
000002e0: ac5e c83d f966 9439 7531 b8bd 8cfa 60bd
000002f0: eb3a c13d 985c 5bbd d527 363d b42d c9bc
00000300: 49be ba3d ca32 863d 5c7a 543d c0a7 b4bc
00000310: da62 bc3d b1b0 7c3d 17ca d83c 8938 0e3e
00000320: d1de 89bd b8f2 023e bfdf e63d fca0 aa3d
00000330: 4f69 9e3d 35a0 c83d 2906 bf3d 58c0 fe3e
00000340: 4f5c a73c cf9e bbbd 7dbe 7abd 5876 34bd
00000350: de51 983e 3234 903d b00e b13d 8abd 2f3e
00000360: e21b c43d 2775 0c3e 4341 253d 8574 da3c
00000370: 0fe4 06bc 0287 023e 7b29 e53b bc23 c73d
00000380: ffb6 423d 9670 42bd 6d64 a4bc 05df e93d
00000390: 80f4 483c 189e f13d 182c fb3e 3d3a 4c3d
000003a0: 41d2 c23d 77e5 ae3e 5cf4 153e b65e b8bc
000003b0: ece4 943d eb4e 033d 233a 10bc dfdc 1c3f
000003c0: 2012 eb3d f0fa b5bc 2edd dc3d d0e0 f83c
000003d0: fd29 97bb 532d 123e 3050 023e 5f75 4dbd
000003e0: f1f4 5b3d 3931 693d c182 193e bab1 c33d
000003f0: 4965 443c 36e3 8fbd 51b2 203e 0e87 3dba

lstm.bias_hh_l0 f4 [256]
-0.06580929 -0.09334345 0.1100191 0.16023986 0.15445526 0.08691675 0.052492604 -0.036657017
-0.056434244 -0.0042542033 0.08330638 0.087948516 0.028972477 0.08664919 -0.09904394 0.6734889
0.121314116 0.020612394 -0.06605612 -0.04740722 0.21520776 0.0895434 -0.042857524 -0.06623331
-0.06895064 0.23881009 0.14446218 0.011193847 0.22234483 0.007832899 0.030689627 -0.04493806
-0.06767798 0.08769984 -0.03585942 -0.08432366 -0.03292411 0.059498843 0.47605783 -0.0115566235
0.02009178 0.32176402 0.12207006 -0.032395996 0.045674264 -0.010108271 -0.026216052 0.47070062
0.010492372 0.10456948 -0.032773383 0.12437708 0.11262197 0.1421626 0.081973545 -0.061782934
-0.044972897 0.22505097 0.15373987 0.054797743 0.051248606 -0.04685624 0.18828394 -0.028669782
0.13448419 0.04061584 0.10988271 -0.099578485 0.096648075 -0.09097802 -0.011597268 0.0030857162
-0.017251607 0.053157892 0.05911026 -0.08463772 0.085426845 -0.027758356 -0.05870308 0.06316622
-0.052396376 0.04983414 0.07511871 0.13154854 -0.03511514 0.21555236 -0.055915605 -0.065407164
0.019413896 -0.029378334 0.10270698 0.05931836 0.006790011 0.0041219573 0.0058744485 -0.10253996
-0.06920446 -0.0014835671 0.09945703 -0.026130892 -0.0040929187 0.08300643 -0.14760308 -0.10708166
-0.15766548 -0.15440734 0.13047722 -0.05047402 -0.023420617 0.07116358 0.14171046 -0.07261264
-0.0007703076 -0.0042267866 0.07552602 -0.019492354 -0.0060544824 -0.07076077 0.14468531 0.11490622
-0.009595692 -0.0847527 -0.11556938 0.0482318 0.10410954 -0.0104326205 0.15730132 0.09588082
0.020384477 0.14506723 0.014017435 0.076436274 0.0060007763 -0.112076886 0.06273608 0.022783848
0.11014652 -0.10680053 0.099061966 -0.0004471598 0.08860748 -0.019114269 0.08951616 0.017444631
-0.028507981 0.0381086 -0.10842937 0.15102811 0.029740162 0.017198373 0.04019144 0.007661379
0.012704195 -0.045650564 0.08478959 -0.020683764 0.12289299 -0.03150424 -0.12866198 -0.015075231
-0.050046656 0.05232051 -0.06781629 -0.13322811 -0.10633662 0.12244507 0.067333266 -0.024885718
-0.07472135 -0.11868823 0.10112312 -0.10446426 -0.062439468 -0.09235771 -0.05143194 -0.048184484
0.08471375 0.13152117 -0.11299598 -0.0027037696 -0.09386084 -0.1278107 0.016077653 -0.10146833
-0.014311428 -0.03355211 -0.0017260074 0.09255783 0.038908064 -0.0015865074 -0.11284743 0.03900076
-0.04942445 -0.08105725 0.109251596 0.077978276 -0.059789076 0.111196086 0.030204745 0.05274201
0.08424546 0.16338193 -0.039226405 0.29947916 0.060370095 0.19108255 0.1263826 0.5850459
0.024185816 -0.08828325 0.06401544 -0.001535919 0.22277331 0.2543607 0.068675935 -0.069471486
-0.10149607 0.08775983 0.13366641 0.025568971 0.103903405 -0.028274287 0.073107414 0.119352534
0.0726387 0.01799215 0.07922016 0.07997779 -0.04137336 0.084043115 0.51336807 -0.089567974
0.04383517 0.27764794 0.0735717 0.08900903 0.08345288 0.13068841 -0.05764683 0.38556054
-0.022627281 -0.10446751 -0.0021257387 0.14613354 0.050073706 -0.02354047 0.1921818 0.14215136
-0.09569461 0.06636812 0.14452972 0.07206936 0.06355587 0.115144566 0.3151369 0.13621904
00000000: 05c7 86bd da2a bfbd b251 e13d eb15 243e
00000010: 8529 1e3e 6901 b23d 7c02 573d ab25 16bd
00000020: 9827 67bd d866 8bbb 899c aa3d 5a1e b43d
00000030: b057 ed3c 2175 b13d 8dd7 cabd c569 2c3f
00000040: 8973 f83d 53db a83c 6e48 87bd 132e 42bd
00000050: 6c5f 5c3e 8862 b73d 5f8b 2fbd 54a5 87bd
00000060: fe35 8dbd a28a 743e e5ed 133e 6666 373c
00000070: 5dae 633e 8f55 003c d068 fb3c f910 38bd
00000080: c19a 8abd f99b b33d 54e1 12bd e2b1 acbd
00000090: 6edb 06bd 0fb5 733d dabd f33e fe57 3dbc
000000a0: 8497 a43c 41be a43e deff f93d aab1 04bd
000000b0: f014 3b3d 299d 25bc 0cc3 d6bc acff f03e
000000c0: 33e8 2b3c 8628 d63d 623d 06bd 69b9 fe3d
000000d0: 59a6 e63d 1393 113e bfe1 a73d 1a10 7dbd
000000e0: 8035 38bd c373 663e fc6d 1d3e 9973 603d
000000f0: 0fea 513d 54ec 3fbd 81cd 403e e4dc eabc
00000100: 39b6 093e cc5c 263d 300a e13d ceef cbbd
00000110: 6def c53d af52 babd 7802 3ebc ba39 4a3b
00000120: 3e53 8dbc 17bc 593d 9a1d 723d 8a56 adbd
00000130: 45f4 ae3d 7e65 e3bc a472 70bd 4b5d 813d
00000140: 959d 56bd e21e 4c3d d7d7 993d a9b4 063e
00000150: e5d4 0fbd c2b9 5c3e c307 65bd 31f4 85bd
00000160: e409 9f3c d5aa f0bc 0a58 d23d cff7 723d
00000170: be7e de3b 7c11 873b 727e c03b 7800 d2bd
00000180: 11bb 8dbd 4074 c2ba 21b0 cb3d 7410 d6bc
00000190: e41d 86bb 46ff a93d 4325 17be a14d dbbd
000001a0: 0f73 21be f51c 1ebe d29b 053e d9bd 4ebd
000001b0: 98dc bfbc 36be 913d 8c1c 113e f0b5 94bd
000001c0: 78ee 49ba db80 8abb 63ad 9a3d 6eae 9fbc
000001d0: ae64 c6bb 06eb 90bd 6328 143e f453 eb3d
000001e0: 4037 1dbc d392 adbd a4af ecbd b58e 453d
000001f0: 6237 d53d 95ed 2abc 9913 213e 2a5d c43d
00000200: 59fd a63c 818c 143e 62a9 653c 9f8a 9c3d
00000210: 29a2 c43b 9188 e5bd c67b 803d 31a5 ba3c
00000220: 8094 e13d 3cba dabd 00e1 ca3d c670 eab9
00000230: d777 b53d 8795 9cbc 4054 b73d 0be8 8e3c
00000240: 9289 e9bc c317 1c3d 3810 debd 1da7 1a3e
00000250: a4a1 f33c 9ae3 8c3c c89f 243d 4e0c fb3b
00000260: 4225 503c 16fc 3abd 2aa6 ad3d ff70 a9bc
00000270: 52af fb3d 970a 01bd f7bf 03be 1afe 76bc
00000280: b9fd 4cbd 084e 563d 44e3 8abd f36c 08be
00000290: 04c7 d9bd 7bc4 fa3d 06e6 893d 22dd cbbc
000002a0: 8207 99bd d112 f3bd a319 cf3d 5cf1 d5bd
000002b0: 87c0 7fbd 0a26 bdbd 4caa 52bd 185d 45bd
000002c0: 677e ad3d 7cad 063e 706a e7bd ba31 31bb
000002d0: 1d3a c0bd cfe0 02be 48b5 833c a1ce cfbd
000002e0: 7b7a 6abc f06d 09bd 333b e2ba f68e bd3d
000002f0: 105e 1f3d 5bf2 cfba 8e1c e7bd 43bf 1f3d
00000300: 4b71 4abd 5801 a6bd 4dbf df3d 13b3 9f3d
00000310: 64e5 74bd c6ba e33d f16f f73c 0208 583d
00000320: e288 ac3d 984d 273e deab 20bd 5555 993e
00000330: a246 773d 25ab 433e 716a 013e 91c5 153f
00000340: 5521 c63c d9cd b4bd 871a 833d e450 c9ba
00000350: b01e 643e 913b 823e f8a5 8c3d 1147 8ebd
00000360: 2cdd cfbd 6dbb b33d d9df 083e 0576 d13c
00000370: 4fcb d43d 7a9f e7bc 57b9 953d 1a6f f43d
00000380: 99c3 943d 4664 933c 2e3e a23d 65cb a33d
00000390: 1d77 29bd cc1e ac3d 176c 033f 6a6f b7bd
000003a0: 828c 333d df27 8e3e c2ac 963d 5e4a b63d
000003b0: 58e9 aa3d 2fd3 053e 151f 6cbd 3168 c53e
000003c0: d95c b9bc 10f3 d5bd fa4f 0bbb 08a4 153e
000003d0: 161a 4d3d f2d7 c0bc 4ecb 443e 2090 113e
000003e0: 89fb c3bd 02ec 873d 99ff 133e 1a99 933d
000003f0: 9429 823d ead0 eb3d a059 a13e 017d 0b3e

lstm.weight_ih_l1 f4 [256, 64]
0.14121778 -0.1625687 -0.08771891 -0.107520096 -0.021403123 -0.14812043 -0.088280596 -0.14380307
0.04814081 -0.022648893 -0.102726944 0.042348646 -0.058256987 -0.10465207 0.020352151 0.27958658
0.12103418 -0.041428532 -0.07588533 -0.081057206 0.12683116 0.048499472 0.07019054 0.049164318
0.06238913 0.053879283 -0.12338958 -0.05260227 0.057755917 -0.0818118 0.11974515 0.028735993
0.01425905 0.034197196 0.044876214 -0.046668015 -0.027053334 -0.009808822 -0.18148686 0.11573977
-0.05944711 0.06300256 0.24608932 -0.035414662 0.14145924 0.069845214 -0.058559384 0.07857798
0.014961429 -0.033389878 -0.05260399 0.04469832 -0.031771023 -0.012447726 0.043008458 -0.06159293
0.019914817 -0.1639775 0.044099238 0.14954743 0.06488796 -0.15389718 0.11808998 -0.12757969
0.12102266 -0.010880635 0.08933475 0.085712925 -0.08171424 -0.019830257 0.03824698 -0.06499852
0.13340203 -0.15338923 0.07642187 -0.027496485 -0.029862216 0.03605938 -0.006301359 -0.05688816
-0.039048128 0.057194963 0.09871934 0.02637165 -0.11382859 0.086012505 -0.019740043 -0.033333853
-0.03841463 -0.06537643 -0.072362185 0.11591116 0.13898441 -0.046612393 0.099340364 -0.016485376
-0.010483277 0.03610642 0.005821219 -0.059813634 0.012325964 -0.026392305 0.03453373 -0.08709022
0.02661844 0.15489641 -0.052874044 -0.030528273 -0.013205161 -0.12885708 -0.08009488 -0.18105763
0.008308569 0.040166475 -0.0112083135 -0.018723048 -0.06534046 -0.08284545 -0.06507949 -0.09086388
-0.079054944 -0.0054384074 0.04499231 0.0229747 -0.05438254 0.021241652 -0.20055509 -0.08284783
-0.05315113 0.066214025 -0.030134788 0.07075374 0.053010285 0.07570959 -0.038614165 0.027746124
-0.012244639 0.09827105 0.050994962 0.101526864 -0.116630465 0.095653534 0.052118644 -0.02504582
0.12541252 0.0114942305 -0.09558049 -0.035793167 -0.050379355 0.19211578 0.03363649 -0.106083676
0.071187764 -0.10927194 0.08760772 -0.082073964 0.054207522 0.017904531 0.10402143 0.13303909
0.04011054 0.022652937 0.022832451 -0.11019906 -0.074532144 0.014620438 0.055965826 -0.08810908
0.08682097 0.17237161 -0.010827888 -0.043508355 0.02650623 -0.0007141421 0.06279413 -0.044334423
-0.036398724 0.117181085 -0.076481394 -0.008952319 -0.015013062 0.11004534 -0.017497053 -0.09275613
-0.016656335 0.08250037 0.06445379 0.07806862 0.115146175 -0.02109247 -0.061270718 0.0395161
-0.0048531624 -0.1283471 -0.103204004 -0.03189592 0.09336967 -0.008349264 0.0054275566 -0.099348284
0.057646617 0.02081533 -0.09712819 -0.04309601 -0.10759126 -0.04331771 0.013268151 -0.042051986
0.032309793 -0.05526336 -0.030593568 -0.02219673 0.09199294 0.34861183 0.0020037151 -0.08988957
0.059180323 -0.09547595 0.07950175 -0.108320676 -0.07358949 0.03671611 0.0849813 0.04624093
0.037075397 -0.07092092 -0.1157397 -0.08293768 0.014045054 0.02181741 0.011586221 -0.047718138
-0.11689945 0.04315488 -0.18780874 -0.011969102 -0.04437178 0.05005419 0.0369933 0.13500065
-0.09297625 0.018626336 0.012514871 0.06553759 0.049970552 0.086882934 0.06489745 -0.09255048
0.12661222 -0.009431268 0.006886605 0.042520087 0.021491654 0.002323672 -0.14435536 -0.03283187
00000000: 659b 103e 6978 26be f9a5 b3bd 7f33 dcbd
00000010: 9a55 afbc e2ac 17be 75cc b4bd 1d41 13be
00000020: 4c2f 453d 2c8a b9bc 8162 d2bd c675 2d3d
00000030: e19e 6ebd d353 d6bd 8eb9 a63c f925 8f3e
00000040: c5e0 f73d f7b0 29bd c569 9bbd 5201 a6bd
00000050: 07e0 013e 62a7 463d 0fc0 8f3d 8660 493d
00000060: bf8b 7f3d 86b0 5c3d adb3 fcbd 7a75 57bd
00000070: 7891 6c3d f28c a7bd f23c f53d bf67 eb3c
00000080: ca9e 693c 5c12 0c3d 1fd0 373d f626 3fbd
00000090: f49e ddbc 2eb5 20bc b1d7 39be f908 ed3d
000000a0: d07e 73bd 7c07 813d d7fe 7b3e f70e 11bd
000000b0: b1da 103e 020b 8f3d f7db 6fbd 7eed a03d
000000c0: c820 753c d3c3 08bd 4877 57bd 9615 373d
000000d0: 5522 02bd 8cf1 4bbc a329 303d de48 7cbd
000000e0: 6624 a33c b8e9 27be 67a1 343d f622 193e
000000f0: fbe3 843d 3997 1dbe 29d9 f13d 40a4 02be
00000100: bada f73d b144 32bc 23f5 b63d 428a af3d
00000110: cc59 a7bd 1073 a2bc dea8 1c3d f21d 85bd
00000120: 8b9a 083e 1112 1dbe 1283 9c3d 4f40 e1bc
00000130: 9ba1 f4bc 00b3 133d a17b cebb 8f03 69bd
00000140: eef0 1fbd 4445 6a3d 5e2d ca3d 5c09 d83c
00000150: f71e e9bd 5327 b03d dfb5 a1bc 1489 08bd
00000160: a958 1dbd 14e4 85bd a032 94bd d562 ed3d
00000170: ee51 0e3e a3ec 3ebd f672 cb3d 570c 87bc
00000180: 0dc2 2bbc 53e4 133d edbf be3b 24ff 74bd
00000190: d7f2 493c ad34 d8bc 3e73 0d3d 5b5c b2bd
000001a0: ea0e da3c 2a9d 1e3e 7492 58bd 6e16 fabc
000001b0: 765a 58bc 1cf3 03be c908 a4bd 2c67 39be
000001c0: aa20 083c 9a85 243d 13a3 37bc 1461 99bc
000001d0: 38d1 85bd e0aa a9bd 6548 85bd d816 babd
000001e0: 8fe7 a1bd ab34 b2bb db49 383d 7035 bc3c
000001f0: 3ac0 5ebd f902 ae3c 505e 4dbe 20ac a9bd
00000200: 00b5 59bd 389b 873d 3bdd f6bc 56e7 903d
00000210: 5021 593d a10d 9b3d e329 1ebd d74b e33c
00000220: bd9d 48bc 5542 c93d 18e0 503d 51ed cf3d
00000230: f4db eebd 00e6 c33d 5c7a 553d e42c cdbc
00000240: 246c 003e 4c52 3c3c b4bf c3bd db9b 12bd
00000250: 955a 4ebd 00ba 443e 6bc6 093d 6642 d9bd
00000260: e4ca 913d f8c9 dfbd ad6b b33d 6516 a8bd
00000270: b508 5e3d 86ac 923c 3009 d53d 663b 083e
00000280: f34a 243d a792 b93c 1f0b bb3c 0bb0 e1bd
00000290: 4fa4 98bd 908a 6f3c 6c3c 653d 8972 b4bd
000002a0: 31cf b13d 2f82 303e 7467 31bc d135 32bd
000002b0: 9823 d93c 4435 3bba 359a 803d 0398 35bd
000002c0: d416 15bd a3fc ef3d 47a2 9cbd bfac 12bc
000002d0: 59f9 75bc 745f e13d fb55 8fbc edf6 bdbd
000002e0: de72 88bc f4f5 a83d 5900 843d 71e2 9f3d
000002f0: c2d1 eb3d 1eca acbc 01f7 7abd a2db 213d
00000300: 4707 9fbb 6c6d 03be 9f5c d3bd 4ca5 02bd
00000310: 9938 bf3d 5acb 08bc a5d9 b13b 1d77 cbbd
00000320: dc1e 6c3d e984 aa3c 25eb c6bd 7185 30bd
00000330: ce58 dcbd e96d 31bd a962 593c b43e 2cbd
00000340: 4657 043d d55b 62bd 5d9f fabc ebd5 b5bc
00000350: cb66 bc3d 407d b23e c350 033b 0618 b8bd
00000360: 1167 723d e588 c3bd d0d1 a23d 3bd7 ddbd
00000370: 16b6 96bd a263 163d ad0a ae3d 2167 3d3d
00000380: 5fdc 173d fd3e 91bd f008 edbd 3bdb a9bd
00000390: 3a1d 663c 6dba b23c 22d4 3d3c 1874 43bd
000003a0: fb68 efbd 2cc3 303d ef50 40be 0d1a 44bc
000003b0: 2fbf 35bd 9f05 4d3d 4986 173d 9c3d 0a3e
000003c0: 556a bebd 4296 983c 2c0b 4d3c 9238 863d
000003d0: ecad 4c3d aeef b13d f4e8 843d 1b8b bdbd
000003e0: a2a6 013e 9b85 1abc 08a9 e13b 8b29 2e3d
000003f0: 440f b03c bf48 183b e4d1 13be b67a 06bd

lstm.weight_hh_l1 f4 [256, 64]
-0.11657793 -0.15671405 0.11701898 -0.019792438 0.038792387 0.00047957595 -0.07569095 -0.091233544
-0.13593125 -0.029441245 -0.15034164 0.021185268 0.062963486 -0.01797512 0.04129499 -0.076848604
0.032023787 0.05603417 0.08264935 0.15766576 0.07441055 -0.0025807745 0.14947653 -0.13530988
0.013666327 -0.111344814 0.0331219 0.019869452 0.046812996 0.008376278 -0.07030268 0.0072095054
0.16720629 -0.08924872 0.03491467 -0.08719902 0.16579354 -0.07680377 0.014706283 0.0612783
0.05549468 0.0992312 -0.1736904 -0.14228155 0.035741698 0.013838192 0.035197333 -0.13317204
-0.09866093 0.032667432 -0.025371676 -0.16040854 -0.07177705 0.076887235 -0.14369678 -0.028351093
-0.10682252 0.06778297 -0.083456196 -0.011463799 -0.08556062 0.03536423 0.12296947 -0.051280346
-0.14985535 0.03140482 0.035187148 -0.10939146 -0.09070122 0.11408281 -0.09048886 -0.07541846
0.14160557 -0.0598809 -0.020920234 -0.08250131 -0.010071375 -0.051469084 -0.08034018 -0.039903935
-0.0719613 0.07506417 0.045549653 -0.054636996 0.059507024 -0.10291675 -0.11709767 -0.0011101197
0.04924492 -0.037745308 -0.12860362 0.05520837 0.0077073425 0.09201374 -0.09219894 -0.008196167
0.019743396 0.0861832 -0.084070995 0.09034097 -0.02568786 0.11964793 0.02460476 0.11223143
0.09517868 -0.10666665 0.12566863 -0.0045397207 0.058681954 0.04583046 -0.10039585 0.08953084
-0.03770566 0.11924503 -0.11100125 -0.058847327 0.07635258 0.097273536 0.11258432 -0.11205683
0.04055274 -0.03983985 0.072546676 0.009807948 -0.0048019853 -0.06256208 0.053841174 -0.08617439
-0.11072242 -0.10858639 -0.07484828 -0.031188903 0.07034692 -0.020881781 -0.092548296 -0.06405556
-0.07064838 0.06962962 -0.016128866 -0.1039065 -0.035454705 0.018464092 0.020396963 0.082852885
-0.11256353 -0.0007112166 -0.06347175 0.08605564 0.116082475 0.12348038 0.04497451 0.017477077
-0.10095706 0.0224257 -0.046644837 0.032498263 -0.040340926 0.11589225 -0.069149084 -0.11465911
0.009120595 -0.09547406 0.14959453 0.047486495 -0.03742513 -0.0019511667 -0.11037067 0.08253338
-0.037817623 -0.03576472 -0.09269547 -0.112055995 -0.087098844 0.0060338597 0.042508855 0.048093714
-0.079482324 0.008283314 -0.085195564 0.03412504 -0.008936391 0.0015711276 -0.091878116 -0.08258567
0.03248433 -0.16344708 -0.023172809 0.018586336 -0.038671747 -0.06361723 -0.06595765 -0.08854276
0.072844535 -0.001320156 -0.0029391942 0.008876171 0.13477086 -0.059033915 -0.12584952 -0.10323647
-0.019551681 0.09290269 -0.10795143 0.0067995233 0.03145495 0.03696429 0.0596535 -0.053287454
0.09795633 -0.02746579 0.0069736866 0.10945749 -0.11466708 0.04976169 0.027984379 -0.061644282
-0.02193638 -0.0226556 0.07070598 -0.044922765 -0.007333389 0.014731813 0.017525565 0.030426575
0.101216756 0.011899804 0.08534159 -0.01588228 0.0829635 -0.12618664 0.04008906 0.012430629
0.046471763 -0.08968229 -0.09741531 -0.17052962 -0.036211655 0.005605261 0.0016642993 -0.03711482
-0.07511228 0.029557995 0.013466189 -0.1174206 0.1076767 0.14985013 -0.06612921 0.09639548
-0.009957428 0.0819173 -0.12009376 0.089660525 0.07038025 0.0943165 0.003226501 -0.10542108
00000000: 69c0 eebd a679 20be a6a7 ef3d c023 a2bc
00000010: c4e4 1e3d 986f fb39 db03 9bbd a7d8 babd
00000020: 9031 0bbe c42e f1bc 29f3 19be ba8c ad3c
00000030: 00f3 803d 8f40 93bc ef24 293d cd62 9dbd
00000040: 602b 033d 1684 653d 1044 a93d 2273 213e
00000050: 8f64 983d 3622 29bb 6010 193e ac8e 0abe
00000060: bbe8 5f3c c008 e4bd d4aa 073d 43c5 a23c
00000070: fcbe 3f3d a83c 093c dafa 8fbd b73d ec3b
00000080: 2038 2b3e 08c8 b6bd af02 0f3d 6695 b2bd
00000090: c8c5 293e 4c4b 9dbd 9ff2 703c f4fe 7a3d
000000a0: 644e 633d ba39 cb3d e5db 31be 41b2 11be
000000b0: e365 123d 96b9 623c 142b 103d 405e 08be
000000c0: be0e cabd 49ce 053d 43d8 cfbc 2342 24be
000000d0: d9ff 92bd 0e77 9d3d 4025 13be 8d40 e8bc
000000e0: c4c5 dabd ccd1 8a3d 15eb aabd a8d2 3bbc
000000f0: 683a afbd 15da 103d 6bd7 fb3d 570b 52bd
00000100: ae73 19be 57a2 003d 6620 103d a108 e0bd
00000110: 90c1 b9bd 40a4 e93d 3952 b9bd fe74 9abd
00000120: 0d01 113e ad45 75bd e960 abbc 72f6 a8bd
00000130: 6902 25bc 3fd1 52bd 6489 a4bd 4f72 23bd
00000140: 7260 93bd 3ebb 993d 4692 3a3d 0bcb 5fbd
00000150: a3bd 733d 04c6 d2bd e7d0 efbd 7081 91ba
00000160: 0bb5 493d d39a 1abd abb0 03be 2c22 623d
00000170: e08d fc3b b371 bc3d ccd2 bcbd 3749 06bc
00000180: e7bc a13c d180 b03d 6a2d acbd b004 b93d
00000190: 596f d2bc f909 f53d ec8f c93c 98d9 e53d
000001a0: 0aed c23d 0b74 dabd 47af 003e f0c1 94bb
000001b0: 7d5c 703d b8b8 3b3d 579c cdbd f25b b73d
000001c0: 4071 1abd bd36 f43d a054 e3bd e509 71bd
000001d0: be5e 9c3d 5937 c73d 9c92 e63d 0d7e e5bd
000001e0: a11a 263d 1c2f 23bd 5a93 943d 84b1 203c
000001f0: f959 9dbb 8c20 80bd 9088 5c3d 337c b0bd
00000200: 70c2 e2bd 8b62 debd 0e4a 99bd df7f ffbc
00000210: 0c12 903d 4510 abbc f689 bdbd 902f 83bd
00000220: 19b0 90bd f999 8e3d af20 84bc eecc d4bd
00000230: f438 11bd 0242 973c 8817 a73c c6ae a93d
00000240: b587 e6bd f070 3aba 7afd 81bd f03d b03d
00000250: a6bc ed3d 48e3 fc3d 3137 383d 162c 8f3c
00000260: 93c2 cebd 1ab6 b73c a80e 3fbd e61c 053d
00000270: 873c 25bd ea58 ed3d 099e 8dbd 65d2 eabd
00000280: 8c6e 153c e787 c3bd 4f2f 193e 3381 423d
00000290: 184b 19bd 4abe ffba 050a e2bd 4307 a93d
000002a0: a7e6 1abd 077e 12bd 1fd7 bdbd 9d7d e5bd
000002b0: e160 b2bd afb7 c53b c41d 2e3d eafd 443d
000002c0: a1c7 a2bd bdb6 073c 037b aebd b3c6 0b3d
000002d0: f169 12bc 4bee cd3a 982a bcbd ad22 a9bd
000002e0: 4a0e 053d ac5e 27be e7d4 bdbc 5f42 983c
000002f0: 4466 1ebd c049 82bd ce14 87bd e855 b5bd
00000300: 842f 953d 1609 adba 7f9f 40bb 5c6d 113c
00000310: 5f01 0a3e 8ccd 71bd b2de 00be a46d d3bd
00000320: d92a a0bc c443 be3d a415 ddbd 89ce de3b
00000330: e8d6 003d de67 173d 3a57 743d f243 5abd
00000340: 549d c83d f0ff e0bc 8683 e43b 402b e03d
00000350: 93d6 eabd ead2 4b3d 7f3f e53c b77e 7cbd
00000360: ecb3 b3bc 3d98 b9bc 4cce 903d ef00 38bd
00000370: ed4c f0bb b45d 713c c691 8f3c 2741 f93c
00000380: bb4a cf3d 65f7 423c 92c7 ae3d 8e1b 82bc
00000390: c4e8 a93d 1237 01be 6d34 243d d6a9 4b3c
000003a0: 2d59 3e3d 59ab b7bd ae81 c7bd 519f 2ebe
000003b0: ac52 14bd 56ac b73b 9e24 da3a b605 18bd
000003c0: 78d4 99bd 9c23 f23c 4aa1 5c3c 367a f0bd
000003d0: 9a85 dc3d 5072 193e c06e 87bd fe6a c53d
000003e0: 7b24 23bc 42c4 a73d b8f3 f5bd f09f b73d
000003f0: 8523 903d 0229 c13d b473 533b 02e7 d7bd

lstm.bias_ih_l1 f4 [256]
0.055021293 0.009789843 -0.020215029 0.05092452 -0.096496545 0.14894803 -0.057493284 0.106196344
0.13244875 0.13665439 -0.030252231 0.055192865 -0.060800985 -0.09979523 0.006085586 0.07119829
0.13728255 0.05464777 0.12336051 0.037096422 0.13613608 0.055043403 -0.035489958 0.10314378
0.053057507 0.07852349 0.080072984 -0.040375143 -0.08044696 0.13065106 -0.06816349 0.1348266
0.13134356 0.10370527 0.0063172523 -0.1419896 0.035267565 -0.041328486 0.05741123 -0.018716356
-0.043076992 0.05714292 0.13980618 0.018301837 0.025023872 0.034689363 -0.07167594 -0.07358043
-0.07854614 0.14270048 0.025432084 0.049399365 -0.049844485 0.081123345 0.0003520803 0.055388637
0.020089626 -0.07619173 0.00032114325 -0.084732234 -0.03121719 -0.059771966 -0.08199718 0.060222674
0.0025294547 -0.023473455 -0.0344632 0.051123478 0.08116098 -0.10140628 -0.033777785 -0.02968273
0.014734123 0.06444892 0.1066984 -0.063031554 -0.0078002284 -0.07703653 -0.041264042 0.122080855
0.02575989 0.06691376 0.054082297 0.010244053 0.017590793 -0.025498103 0.14560065 -0.056510784
0.11211514 -0.020217117 0.0075615346 -0.06607815 0.041515242 0.0076878527 0.1371648 -0.07522077
-0.053356584 -0.03459651 0.06912371 -0.017346226 0.07762132 -0.015765898 -0.05811527 -0.08215968
0.060507476 0.13494378 -0.027157353 -0.040913448 -0.049267992 0.13089898 -0.073296286 -0.122914426
-0.0571516 -0.09804647 -0.07231019 -0.011882519 0.0687784 0.06792188 0.09639663 -0.056700926
-0.09212688 0.11616711 -0.0146496445 0.026314247 -0.05836395 -0.10738204 -0.034742042 0.15669046
0.005541868 0.11701756 -0.053593308 0.021797685 -0.11089127 -0.02969993 -0.08700783 0.124431774
0.10484963 -0.086901024 0.11389832 -0.114199355 0.0953947 0.025375348 -0.10301257 -0.0068676206
0.14879093 0.13319588 -0.07881869 -0.07509971 0.124633566 0.0043919915 -0.054333378 0.096091054
-0.036102645 0.01018674 0.06026511 0.12214297 0.001751426 -0.009785051 -0.13589148 0.01806819
0.034671668 -0.1501289 0.053597044 -0.069915675 0.005485677 0.1426096 -0.118717335 0.0648748
-0.01397394 -0.13715725 0.12714681 -0.101040356 0.101725064 -0.087221265 0.072524615 -0.0717454
-0.016182732 0.018608278 -0.051920768 0.065765075 0.041058365 -0.022796975 0.036237672 -0.050450467
-0.041734185 -0.11145845 -0.053380463 -0.1210281 -0.041507766 0.0065613138 -0.07708593 0.017947564
-0.103067756 0.022592762 -0.10130243 0.00562529 0.096156485 -0.030994797 -0.109101124 -0.08577776
0.06331465 0.09409118 0.12078366 -0.08596432 -0.057198454 0.05352682 0.001703486 0.07639795
-0.023730591 0.07568506 -0.049407084 0.047177155 -0.07121679 0.0668153 -0.0338187 -0.026069313
0.10108109 0.030047964 0.08455511 -0.081161305 0.06911477 0.08784213 0.009091606 -0.016584372
0.0013453912 -0.07206095 0.004347878 -0.15115161 0.11007477 0.019677991 0.0909212 0.17301688
-0.101805724 -0.09661298 0.022174772 0.04637624 -0.07556783 0.019985257 0.06366993 0.06728101
-0.06959535 -0.08085467 -0.04933927 -0.01687013 0.018492296 -0.12454571 -0.006295602 -0.10263843
0.032012034 0.06913596 -0.020621054 -0.029144963 -0.015643066 -0.096942395 0.012309963 0.019930933
00000000: 025e 613d 9465 203c fd99 a5bc 3b96 503d
00000010: fb9f c5bd d585 183e 147e 6bbd 787d d93d
00000020: a5a0 073e 21ef 0b3e 87d3 f7bc ea11 623d
00000030: 740a 79bd 7161 ccbd 9869 c73b 69d0 913d
00000040: cc93 0c3e 57d6 5f3d 6fa4 fc3d 6bf2 173d
00000050: 4267 0b3e 3175 613d eb5d 11bd 0c3d d33d
00000060: d452 593d ecd0 a03d 4efd a33d 6860 25bd
00000070: 60c1 a4bd 64c9 053e 4d99 8bbd fc0f 0a3e
00000080: ed7e 063e 6e63 d43d f400 cf3b b965 11be
00000090: b974 103d 0f48 29bd 0a28 6b3d 0b53 99bc
000000a0: 8071 30bd b20e 6a3d 5a29 0f3e bced 953c
000000b0: ddfe cc3c 6f16 0e3d d6ca 92bd 56b1 96bd
000000c0: ccdc a0bd 1320 123e f256 d03c fd56 4a3d
000000d0: bb29 4cbd ff23 a63d 6b97 b839 32df 623d
000000e0: 0093 a43c 690a 9cbd 1e5f a839 1888 adbd
000000f0: 31bb ffbc 73d3 74bd 23ee a7bd 0dac 763d
00000100: 35c5 253b 674b c0bc 4929 0dbd da66 513d
00000110: ba37 a63d 19ae cfbd 935a 0abd 3229 f3bc
00000120: 6467 713c ccfd 833d b184 da3d b016 81bd
00000130: 0f99 ffbb 54c5 9dbd 7c04 29bd 8705 fa3d
00000140: 6806 d33c 150a 893d 6685 5d3d acd6 273c
00000150: 911a 903c 66e1 d0bc 5618 153e da77 67bd
00000160: 9f9c e53d 5e9e a5bc c0c6 f73b fb53 87bd
00000170: e30b 2a3d 62ea fb3b ee74 0c3e 590d 9abd
00000180: 6f8c 5abd 12b5 0dbd bb90 8d3d ac19 8ebc
00000190: edf7 9e3d 7c27 81bc 470a 6ebd 5643 a8bd
000001a0: b0d6 773d b42e 0a3e 1979 debc dc94 27bd
000001b0: 3ccd 49bd 620a 063e 5d1c 96bd 8fba fbbd
000001c0: cc17 6abd 96cc c8bd 5d17 94bd e6ae 42bc
000001d0: b1db 8c3d a01a 8b3d 996b c53d 3b3f 68bd
000001e0: 05ad bcbd 06e9 ed3d 1005 70bc fa90 d73c
000001f0: 0a0f 6fbd 1deb dbbd ac4d 0ebd 7773 203e
00000200: 8f98 b53b e7a6 ef3d a884 5bbd 0f91 b23c
00000210: f61a e3bd 454d f3bc 2931 b2bd 16d6 fe3d
00000220: 67bb d63d 2af9 b1bd 8643 e93d 5ae1 e9bd
00000230: 4c5e c33d f6df cf3c 41f8 d2bd c709 e1bb
00000240: a65c 183e 8064 083e b16b a1bd e0cd 99bd
00000250: e23f ff3d b2ea 8f3b ad8c 5ebd 63cb c43d
00000260: 5ee0 13bd 49e6 263c 8cd8 763d 1826 fa3d
00000270: 1b90 e53a 7b51 20bc 2327 0bbe be03 943c
00000280: e103 0e3d 64bb 19be 9388 5b3d f32f 8fbd
00000290: 32c1 b33b 4008 123e 1322 f3bd 14dd 843d
000002a0: f4f2 64bc f372 0cbe c632 023e 3fee cebd
000002b0: 3b55 d03d 10a1 b2bd c987 943d 41ef 92bd
000002c0: a691 84bc 6370 983c dfaa 54bd d7af 863d
000002d0: d12c 283d b9c0 babc f46d 143d 26a5 4ebd
000002e0: 77f1 2abd 5444 e4bd 79a5 5abd 95dd f7bd
000002f0: 0c04 2abd 4a00 d73b 3adf 9dbd c506 933c
00000300: 3015 d3bd 7514 b93c a677 cfbd 5a54 b83b
00000310: b1ed c43d cde8 fdbc 6970 dfbd 40ac afbd
00000320: 1cab 813d e0b2 c03d 6c5d f73d 100e b0bd
00000330: ed48 6abd f03e 5b3d 8147 df3a 8776 9c3d
00000340: a866 c2bc c500 9b3d 155f 4abd d53c 413d
00000350: 1cda 91bd 76d6 883d 7a85 0abd 508f d5bc
00000360: 9a03 cf3d 2627 f63c 3b2b ad3d e637 a6bd
00000370: 0b8c 8d3d 93e6 b33d f6f4 143c f3db 87bc
00000380: d657 b03a b194 93bd a578 8e3b 7dc7 1abe
00000390: e26e e13d bd33 a13c e534 ba3d 562b 313e
000003a0: 857f d0bd 07dd c5bd dea7 b53c 03f5 3d3d
000003b0: 4ec3 9abd 1fb8 a33c 6165 823d a0ca 893d
000003c0: 0288 8ebd 2297 a5bd f917 4abd 3a33 8abc
000003d0: 287d 973c d211 ffbd 564b cebb 1934 d2bd
000003e0: 0d1f 033d 2797 8d3d 7ced a8bc 6bc1 eebc
000003f0: e325 80bc bc89 c6bd baaf 493c 3246 a33c

lstm.bias_hh_l1 f4 [256]
0.0046861633 0.00044227138 0.050190598 -0.10494225 0.04018074 0.14544569 -0.10829132 -0.0676644
0.049784385 0.07221995 0.11941208 -0.0667446 -0.062344622 0.044054724 -0.056012258 -0.056108557
0.13165821 0.13522498 0.09206516 0.008667411 0.07241935 0.032449495 0.01312412 0.08340779
0.10255235 0.063624404 -0.042200513 0.14710371 0.014103169 -0.054161534 0.13209938 0.028917277
0.23847413 0.046961386 0.12443985 0.07356775 0.11679031 0.097886086 0.14249639 0.09026089
0.108563855 0.071525 -0.07029291 0.025270896 -0.035399042 -0.049942072 -0.0011011873 -0.0255924
-0.07285792 0.042748384 -0.052344598 0.028382327 -0.012236471 -0.11835412 -0.060911927 -0.030491015
0.08825087 -0.04472236 0.028113248 -0.01631697 0.14158069 -0.02988538 -0.041442674 0.0970894
-0.057461035 0.036424518 -0.02964918 -0.09736107 0.023951221 0.059954047 -0.12173217 0.05476366
-0.061024185 0.047955487 0.06222268 0.013725742 0.06547989 -0.0085145105 -0.049242117 0.09565701
-0.091917895 -0.10503444 0.114700794 0.056089155 0.01878419 -0.03052781 -0.04135908 0.038726337
0.07723684 0.03665743 0.11623295 -0.054243363 -0.06035391 -0.0330847 -0.102626346 0.03630743
0.11003937 -0.023325922 -0.014910825 -0.11350815 0.13404869 0.046278544 -0.0445656 -0.058864858
0.014386707 -0.024696784 -0.054586787 -0.010489017 0.09999696 -0.086772956 -0.046391293 -0.09084072
-0.009249289 0.13763899 -0.013129213 -0.09674022 0.096617185 -0.11531933 0.061084326 0.076341294
0.076893784 -0.108931944 -0.057371475 -0.06461966 0.03004363 0.08779735 0.110809356 0.082060635
-0.09406812 0.14238694 -0.12896562 -0.0861025 0.047714118 -0.021996288 0.014328211 -0.00624989
0.12289447 4.409004e-05 0.031739853 -0.15037423 -0.022889791 0.019786187 0.05660557 0.072530106
-0.030756801 -0.0906961 0.02433989 -0.08597742 0.015411034 0.121219754 0.0014973906 0.037204634
0.024285313 0.08791891 0.03854291 -0.017801296 0.027109006 0.12714127 -0.09752083 -0.08039232
-0.03762007 -0.057702556 0.01962857 0.01728851 0.08728098 -0.028430717 0.0463575 -0.094589755
0.08302983 0.05842256 -0.060425755 -0.100415684 -0.05177658 -0.08718321 0.13692418 0.022781719
0.105307266 0.06676422 0.0659232 0.13671476 0.12335605 0.068929024 -0.057570748 0.0017972093
0.07324071 -0.004828673 0.0019913577 0.030684749 0.06151951 -0.05959503 -0.10939363 0.09320113
-0.023515528 -0.05706018 0.13401538 0.09336668 -0.05156294 0.10426517 -0.05611058 0.037272524
-0.06783965 -0.013684337 -0.099783644 0.1261264 -0.03884988 0.12602231 0.027986845 0.03501744
0.040276207 0.1250748 0.0005317501 0.06846251 -0.029640866 0.060714178 0.1252446 -0.09028812
-0.06605926 0.15474741 0.031411517 0.05530002 0.137903 -0.038950827 -0.041633286 -0.101072654
0.05275368 -0.04030116 0.04812848 -0.046222024 0.02187952 -0.10214551 0.010725073 0.15921935
-0.05473775 0.0744124 0.05459393 -0.05888877 0.009279399 0.1363486 -0.0921556 -0.04083891
-0.038855948 0.042689584 -0.046531845 -0.0988564 -0.041390102 0.057366 0.04189179 0.05556544
0.03427269 0.042617943 -0.05673117 0.037523482 0.025951881 -0.043611787 0.13866356 0.012809646
00000000: 638e 993b a9e0 e739 a894 4d3d f6eb d6bd
00000010: 8f94 243d b7ef 143e d7c7 ddbd a293 8abd
00000020: b6ea 4b3d 0ee8 933d 528e f43d 65b1 88bd
00000030: 135d 7fbd ba72 343d 1c6d 65bd 16d2 65bd
00000040: 69d1 063e 6b78 0a3e a98c bc3d c201 0e3c
00000050: 9950 943d c3e9 043d 8d06 573c b4d1 aa3d
00000060: f706 d23d 834d 823d 72da 2cbd 5ba2 163e
00000070: fa10 673c 7cd8 5dbd 0f45 073e ede3 ec3c
00000080: 9032 743e 955a 403d 52da fe3d b0aa 963d
00000090: c22f ef3d 8078 c83d 93ea 113e b4da b83d
000000a0: ba56 de3d b37b 923d bbf5 8fbd e904 cf3c
000000b0: 96fe 10bd 0f90 4cbd b755 90ba 27a7 d1bc
000000c0: 8836 95bd ee18 2f3d 4a67 56bd 0e82 e83c
000000d0: 7b7b 48bc a563 f2bd c97e 79bd 4bc8 f9bc
000000e0: dfbc b43d cb2e 37bd c14d e63c 2bab 85bc
000000f0: 87fa 103e 2fd2 f4bc cbbf 29bd cfd6 c63d
00000100: 435c 6bbd e031 153d d6e2 f2bc 3e65 c7bd
00000110: 5a35 c43c 6092 753d b74e f9bd dc4f 603d
00000120: 7ff4 79bd f96c 443d 35dd 7e3d efe1 603c
00000130: 521a 863d 7280 0bbc 1ab2 49bd d3e7 c33d
00000140: 733f bcbd 4c1c d7bd 40e8 ea3d bebd 653d
00000150: 4de1 993c 7515 fabc 2368 29bd 829f 1e3d
00000160: 592e 9e3d 1a26 163d 8a0b ee3d 4a2e 5ebd
00000170: a935 77bd d383 07bd c32d d2bd 1ab7 143d
00000180: 525c e13d 0116 bfbc 884c 74bc f676 e8bd
00000190: 0f44 093e 928e 3d3d 6b8a 36bd 471c 71bd
000001a0: 39b6 6b3c e950 cabc 6596 5fbd 20da 2bbc
000001b0: 35cb cc3d 05b6 b1bd cc04 3ebd b30a babd
000001c0: 548a 17bc 3cf1 0c3e e91b 57bc bd1f c6bd
000001d0: 3bdf c53d 8a2c ecbd 8f33 7a3d d358 9c3d
000001e0: 7d7a 9d3d b617 dfbd 5afe 6abd 5057 84bd
000001f0: 0f1e f63c 19cf b33d 04f0 e23d 680f a83d
00000200: c9a6 c0bd e2cd 113e 900f 04be 8256 b0bd
00000210: e16f 433d 8f31 b4bc dfc0 6a3c e1cb ccbb
00000220: 19b0 fb3d 52ed 3838 a601 023d b4fb 19be
00000230: 5f83 bbbc a416 a23c 3edb 673d aa8a 943d
00000240: b0f5 fbbc e0be b9bd 7364 c73c ee14 b0bd
00000250: 907e 7c3c 1042 f83d 1744 c43a e363 183d
00000260: fef1 c63c d40e b43d 2cdf 1d3d 06d4 91bc
00000270: b513 de3c 5231 023e 00b9 c7bd bba4 a4bd
00000280: 8117 1abd 8459 6cbd 18cc a03c a2a0 8d3c
00000290: 5fc0 b23d 89e7 e8bc 5de1 3d3d 46b8 c1bd
000002a0: 8b0b aa3d 7f4c 6f3d ff80 77bd bda6 cdbd
000002b0: ae13 54bd 1c8d b2bd da35 0c3e baa0 ba3c
000002c0: 56ab d73d aebb 883d be02 873d f4fe 0b3e
000002d0: 19a2 fc3d a92a 8d3d 4ecf 6bbd 5690 eb3a
000002e0: 3aff 953d d839 9ebb 7081 023b 955e fb3c
000002f0: e2fb 7b3d eb19 74bd c409 e0bd 3ce0 be3d
00000300: a3a3 c0bc efb7 69bd 543b 093e 0837 bf3d
00000310: a933 53bd fa88 d53d 35d4 65bd 13ab 183d
00000320: 84ef 8abd 4534 60bc 5e5b ccbd 4727 013e
00000330: 0d21 1fbd fe0b 013e ab44 e53c 726e 0f3d
00000340: aaf8 243d 9c13 003e 2565 0b3a 1336 8c3d
00000350: 67d1 f2bc 6eaf 783d 1f40 003e fae8 b8bd
00000360: 144a 87bd 1b76 1e3e 5da9 003d 4682 623d
00000370: 7236 0d3e e78a 1fbd aa87 2abd 2eff cebd
00000380: 3e14 583d d412 25bd 5e22 453d 4e53 3dbd
00000390: ae3c b33c aa31 d1bd 37b8 2f3c 660a 233e
000003a0: b134 60bd 8765 983d e29d 5f3d 5a35 71bd
000003b0: 9f08 183c f89e 0b3e 13bc bcbd b346 27bd
000003c0: 6a27 1fbd 46db 2e3d 2d98 3ebd 3975 cabd
000003d0: ab88 29bd 9cf8 6a3d ba96 2b3d 9698 633d
000003e0: 8561 0c3d 2790 2e3d f15e 68bd 39b2 193d
000003f0: 0a99 d43c 46a2 32bd d2fd 0d3e 8ddf 513c
