models/lstm_model.pt (torch, 57973 bytes, 9 tensors)

lstm.weight_ih_l0 f4 [128, 5]
000000 75 44 60 3d 3c 5e cf bc 28 56 e3 bd 61 8b ae 3d
       0.054752786 -0.02531349 -0.111004174 0.08522678
000010 44 f2 27 bb 0e b4 cd 3e 67 f6 d1 3e 8d b8 1e 3f
       -0.002562658 0.40176433 0.41008303 0.6200035
000020 b1 1b ca 3e e4 78 de 3e 51 ac 4e 3e 07 a7 fd bd
       0.39474252 0.43451607 0.20182921 -0.123853736
000030 60 48 d9 bd 25 95 8d bd 88 0e 04 3e 5a 62 3f 3e
       -0.106095076 -0.06913213 0.12896168 0.18689862
000040 dc b0 0a bd 9c 5e 74 3d b9 24 72 3e 4b 05 1a 3e
       -0.033860072 0.05966054 0.23646821 0.15041082
000050 36 15 0a 3e 63 81 67 3d 37 4e 32 be d0 fe eb 3d
       0.13484654 0.056519877 -0.17412649 0.11523211
000060 cd e2 40 bd 33 9c eb 3d e6 ad 2a 3e f3 c6 a2 bd
       -0.047091294 0.11504402 0.166679 -0.07948103
000070 56 81 dc 3c ea df 22 bd 6d 57 b5 3e 38 30 2e 3e
       0.02691714 -0.039764322 0.35418263 0.17010581
000080 37 9b 92 bd a6 9f 01 bd ab 03 51 3d 70 da b5 3e
       -0.07158511 -0.031646393 0.05102889 0.35518217
000090 48 f3 50 3e d8 fd aa bd 02 73 8c 3d 30 2e fa 3d
       0.20405304 -0.08349198 0.068578735 0.12215841
0000a0 d7 e1 51 3e 5e e8 87 3e 5e a4 95 3c ba 97 3d 3e
       0.20496307 0.2654447 0.018266853 0.1851491
0000b0 42 be 57 3e 5c 10 b6 3e c4 1f 15 3d 1b a0 d6 3e
       0.21068671 0.35559356 0.036407247 0.41919026
0000c0 c7 bd c1 3e ed 68 a9 3e ff 10 db 3d 53 85 1e be
       0.378401 0.33087865 0.10696601 -0.15480547
0000d0 6c 1a 68 be 8b 1f 56 be b0 05 55 be a2 73 bf 3d
       -0.22666329 -0.2091047 -0.20802951 0.09348227
0000e0 8e 47 10 3e c8 1f cf 3d 3b c4 c0 bd 16 6d 12 3e
       0.14089796 0.10113484 -0.09412428 0.14299425
0000f0 f0 78 ac 3e 09 65 54 3d 2e a6 2e 3d 24 4e 5d 3e
       0.33686018 0.051854167 0.04263895 0.2161184
000100 ae 2d 10 3c 82 f9 aa 3e 0f 9f 92 3d 61 a9 21 3d
       0.008799953 0.33393484 0.07159244 0.039468173
000110 3b 60 44 3e 43 70 6c bd e9 d0 83 3e b5 6b 42 be
       0.19177334 -0.05772425 0.25745323 -0.189864
000120 0f 64 e6 bd d0 a0 22 3e 11 8f d5 3d b7 d0 44 3e
       -0.112495534 0.15881658 0.104276784 0.19220243
000130 25 89 13 3d 22 c7 bd 3d bc d8 3d 3d 54 45 a3 3d
       0.036019463 0.09266497 0.046349272 0.07972208
000140 15 9e 24 3e 85 a7 5b bd 0b 05 64 3d e2 69 49 3d
       0.16075929 -0.053626556 0.05566887 0.049173243
000150 f8 b4 d5 3d b7 98 83 3e 2f 3c bb 3e 20 ae 1e be
       0.10434908 0.2570245 0.36569354 -0.15496111
000160 50 b3 a5 3c 62 e6 87 3d 2f de 3c 3e 71 83 41 bc
       0.020227104 0.06635739 0.18444131 -0.011811123
000170 cb c3 22 3e 6d ed e6 bc 81 75 b4 3d d7 21 da 3c
       0.15895002 -0.028189385 0.088114746 0.026627464
000180 84 95 2e 3c 8b 58 2c 3e 59 2d 18 3e 58 e9 06 3d
       0.0106557645 0.16830651 0.14861049 0.032937378
000190 4d 89 19 be e1 36 1c 3e 0a e7 98 3d 79 0f 0d 3e
       -0.14993782 0.1525531 0.07465942 0.13775434
0001a0 63 b6 fc bd 81 0e 24 bd 4c 32 bd 3d 91 08 fa bd
       -0.12339475 -0.040052895 0.09238109 -0.12208665
0001b0 4c b9 89 3d 41 1b 7e 3d 46 0b 82 3e 99 ff 8f 3e
       0.06724796 0.06203771 0.25399226 0.28124693
0001c0 b0 ca ca 3d 35 d7 bd bd 3a d7 3c 3c 68 62 1f 3e
       0.09901941 -0.09269563 0.011525923 0.15564883
0001d0 9f c6 0a 3e 3b 54 89 3e f6 7a 07 3e a6 a4 8c bd
       0.1355233 0.26822075 0.132305 -0.06867342
0001e0 da 07 45 3e 98 7c d2 bc 37 e4 0a be e7 24 bf 3c
       0.19241276 -0.025694177 -0.1356362 0.023333026
0001f0 43 18 41 3e 42 4e 94 3d ae 44 07 3e bb ad 0a bd
       0.18856911 0.07241489 0.13209793 -0.03385709
000200 70 9d 19 be 06 a8 94 3d 23 f6 b5 3c 61 8c 5a 3d
       -0.15001464 0.072586104 0.022212094 0.053356532
000210 4f b7 31 be 40 c3 c4 bd da 37 1a 3e e4 3b 7a 3d
       -0.17355083 -0.096075535 0.15060368 0.061092272
000220 a7 aa 9a 3d f8 64 10 3e f0 35 5b 3e e8 1d 58 3e
       0.075520806 0.14101017 0.21407294 0.21105158
000230 e1 a9 65 3d a2 58 24 3e 19 a2 07 3d ce 08 68 3d
       0.056070212 0.16049436 0.033113573 0.05664902
000240 93 46 11 bd b5 e5 f5 3d ab 35 4a 3e e4 ba ad bd
       -0.035467695 0.12006704 0.19747035 -0.08482912
000250 fc 3a 63 bd d0 bd 9f 3b ee d2 73 3e 67 e3 3c 3e
       -0.055476174 0.0048749223 0.23810932 0.18446122
000260 7f 47 92 3d a9 44 80 3e c5 0b 46 bd 92 ce 8e 3e
       0.07142543 0.25052384 -0.048351068 0.27891976
000270 92 77 a0 bc 59 df 8d bd 09 ed 01 bd 7d 93 3c be
       -0.019588266 -0.06927366 -0.031720195 -0.18415637
000280 ee cc 9f bd 63 d0 94 bd 29 25 29 be e2 2a fa 3d
       -0.07802759 -0.07266309 -0.16518082 0.122152105
000290 f0 23 80 bb 62 40 4c 3d ce 9f e5 be 40 c8 e4 3d
       -0.003910534 0.049866088 -0.44848484 0.11171007
0002a0 80 f9 90 bd 3b 26 49 bd 7f 60 45 bd ad e3 ab bc
       -0.07078838 -0.049108725 -0.04818773 -0.020982588
0002b0 38 9c 75 be eb 94 0e 3e 03 9a 89 bd 21 61 70 3e
       -0.23985374 0.13923995 -0.067188285 0.23474552
0002c0 0e cb 33 be d4 a7 ed 3d 41 a2 57 3d a5 2f 84 bd
       -0.17557928 0.11604276 0.05264497 -0.064544
0002d0 92 7d a3 3e b8 8d ea bd c6 ab 0d 3e 3d 16 0e be
       0.3193174 -0.11452812 0.13835058 -0.1387567
0002e0 72 86 2b 3e f5 7f 4d 3e b5 ed 3a 3e 1a 23 c2 3b
       0.16750506 0.20068343 0.1825474 0.0059245946
0002f0 33 fd 1d be 52 8b ea bd 2d cf ef 3d 74 50 3a be
       -0.15428619 -0.114523545 0.117094375 -0.18194753
000300 76 87 a8 3d 0f 18 2f bd 91 10 7b bc 95 5b 70 3e
       0.08228962 -0.042747553 -0.015323774 0.23472436
000310 c1 c9 fb 3d 22 96 bc bd 92 a4 cf bd d5 bd 53 be
       0.12294341 -0.09208323 -0.10138811 -0.20677884
000320 6f a3 e4 3d 2e 3d 94 bd 9f 12 38 3e 1a f9 1f 3e
       0.11163985 -0.072382316 0.17975853 0.15622368
000330 39 15 c2 3d e4 e2 15 3e 78 2b 4b be 4a e1 76 3d
       0.09476704 0.14637333 -0.19840801 0.060273446
000340 cf bd 63 3e 49 de 2b 3d 2d 17 a2 bd d5 51 25 bd
       0.22240375 0.041960035 -0.07914577 -0.040361244
000350 18 cc 2a be 8b 87 5b 3d 5b 40 be bc 48 b5 f8 3d
       -0.16679418 0.05359606 -0.023224046 0.12143952
000360 08 b9 1e bd 4e 6e 2c be 19 ef d1 bd cd 2f 95 3d
       -0.03875068 -0.16838953 -0.102506824 0.07284508
000370 d1 be a0 3d 30 90 0e 3d dc 0c ac bd 5b 48 05 3e
       0.07848895 0.034805477 -0.0840089 0.13015883
000380 f9 ad 8b bd 85 75 ab bc 92 02 74 be 6e eb bc 3d
       -0.06820292 -0.020930061 -0.23829105 0.09224592
000390 db 2d d3 3d 6b 51 b8 bd 9b 7d 94 3d 0d 5f 9f 3c
       0.103114806 -0.08999904 0.0725052 0.019454503
0003a0 23 37 d7 bd 9e 1a d6 3d 3e 2c 6f 3d 9e 08 72 3e
       -0.10508563 0.104542956 0.058391802 0.236361
0003b0 18 fc d3 3a b6 97 dc bd fa 29 22 3e c1 c4 1b be
       0.0016173152 -0.10771124 0.15836325 -0.15211774
0003c0 42 7f 14 3e b1 ca d4 bd b9 9e 2b 3e 9e 39 0c 3d
       0.1450167 -0.10390223 0.16759767 0.034234636
0003d0 e8 cd 80 bd 3c e9 01 3e d6 49 94 3e f9 95 0a 3e
       -0.062892735 0.12686628 0.28962582 0.13533773
0003e0 4a f7 e4 bd 10 43 38 bd b7 d5 aa 3b c5 1c 60 be
       -0.11179979 -0.04498583 0.005213465 -0.21885975
0003f0 25 92 4a 3d b0 b8 18 3e d3 97 cb 3b 4c 9b 77 3e
       0.04945578 0.14914203 0.006213167 0.24180335

lstm.weight_hh_l0 f4 [128, 32]
000000 89 a8 e4 bd 8b 1b 7e 3d be e4 31 bc 38 83 33 bd
       -0.11164958 0.062037986 -0.010857759 -0.04382631
000010 ad 20 3c be 9a a2 a1 bd 41 e0 26 3e a2 55 b3 bc
       -0.1837184 -0.07892342 0.16296484 -0.021891419
000020 b6 3d 48 3e 1e fd 07 bc 9f ce 47 bd 28 35 d2 bb
       0.19554791 -0.008300094 -0.048781034 -0.006415028
000030 4a 43 9b 3d d6 0d c0 3d fc 64 15 3e 2c 1c 8f bd
       0.07581194 0.09377639 0.14589304 -0.06987795
000040 39 aa 22 be 0e 29 a3 3d 48 0c 8a bd 67 2e 0a 3e
       -0.15885247 0.07966815 -0.06740624 0.13494264
000050 04 65 11 bd ef 3a 6a 3e 32 81 bc b8 2e 65 6c 3e
       -0.035496727 0.22874044 -8.988603e-05 0.23085472
000060 7e 86 4c be 2d 46 1f 3e 6a e9 bf 3d f6 f0 86 be
       -0.1997318 0.15554114 0.09370692 -0.26355714
000070 1b e0 d5 bc 58 83 96 bd ca c5 ea 3d 64 d2 c6 bd
       -0.026107838 -0.073492706 0.114635065 -0.097080976
000080 59 d8 93 3e b9 2c d2 3c 5e e0 ba 3e fa b4 3a be
       0.28875998 0.025656091 0.36499304 -0.182331
000090 a3 a0 80 be 16 57 37 bf b6 06 a3 3d c8 3d bd 3e
       -0.25122556 -0.7161726 0.079602644 0.36961198
0000a0 38 0d 1a bd c2 48 f6 3d ca 05 b3 3e b7 3d 32 be
       -0.037610263 0.12025596 0.34965354 -0.17406355
0000b0 55 b6 f8 be 60 17 32 be d1 83 3d 3e e5 52 44 be
       -0.48576608 -0.1739173 0.18507315 -0.19172247
0000c0 3e 33 cc be 1b bd 16 3d 91 18 05 3f b0 1c ed 3e
       -0.39882845 0.03680144 0.5199061 0.4631095
0000d0 2c bf ed 3e fc 34 ff 3e af 6a 37 be 7b 83 26 3e
       0.46434915 0.4984511 -0.1791179 0.16261093
0000e0 e3 ad 87 be ac 6c 35 3e 42 3a cf 3e 81 b6 d5 be
       -0.26499853 0.17717236 0.40474135 -0.41740802
0000f0 3f cf cf 3d c6 f2 ef 3e b1 e1 85 bc 5c 10 ad be
       0.10146951 0.4686491 -0.01634297 -0.33801544
000100 e0 3a 52 3d ea 85 61 3d b8 97 07 be 0f 5d 88 3d
       0.05132568 0.05505935 -0.1324147 0.066583745
000110 59 6a ee 3d ea e5 32 3d a1 ab 1e 3c 85 65 f8 3d
       0.11641378 0.043676294 0.009684474 0.12128738
000120 5c 79 36 3e a3 be a6 bc b0 fb b8 3d 74 1e e5 3d
       0.17819732 -0.020354575 0.090323806 0.11187449
000130 5b 3f 9e 3d 5d d7 01 be 81 ba af bd ce 11 51 3e
       0.07726928 -0.12679811 -0.08580495 0.20416948
000140 be d9 61 3c 27 ff 8b 3d a5 55 ee 3d d5 63 86 3d
       0.013784824 0.06835776 0.11637429 0.0656201
000150 30 31 5d be 85 49 c0 bd 7c d1 18 3e 1a 0f 22 be
       -0.21600795 -0.09389023 0.14923662 -0.15826073
000160 c3 08 ab 3d 6e 83 06 be 16 af dd bc e3 c9 81 3d
       0.083512805 -0.13136074 -0.027061027 0.06337335
000170 de fb b5 3d d0 ad d7 3d 13 aa 0a 3e 7e b7 3c 3e
       0.088859305 0.10531199 0.1354144 0.18429372
000180 f5 b7 ef 3d 84 88 57 3d 1f f0 2d 3e b6 55 ea bd
       0.11705009 0.052620426 0.1698613 -0.11442129
000190 e1 5f ba 3d cc 8d f3 bd 76 1f 19 3d 60 2c 46 bd
       0.09100319 -0.1189228 0.03738352 -0.048382163
0001a0 86 d5 0f 3e 2a 8a 05 be fe 89 29 3e 73 79 0e 3d
       0.14046296 -0.13040987 0.16556546 0.03478379
0001b0 90 c0 f4 bd 61 27 ff 3c 1d eb 3a 3e 20 df ac bd
       -0.11950791 0.031146707 0.18253751 -0.08440995
0001c0 48 1a 4c 3e aa 87 c1 bc ae a3 d2 bd 5a 24 3f 3d
       0.199319 -0.02362426 -0.10285126 0.046665527
0001d0 52 a5 46 3e 2b 55 14 3d c0 f0 8d 3e 0c 73 b9 3d
       0.19399002 0.036214035 0.2772274 0.090551466
0001e0 94 97 3d 3e 57 e2 29 3e b2 73 c3 bd 99 bc 06 bd
       0.18514854 0.16590248 -0.095435515 -0.032894704
0001f0 4f 19 78 3e 0f 0c 9d 3e d2 4b d3 3b 87 12 c7 bd
       0.24228404 0.30673262 0.0064482475 -0.09720331
000200 00 83 d1 3c a8 bd 28 be 5f c8 ed 3d 78 51 9b 3d
       0.025575161 -0.16478598 0.116104834 0.07583898
000210 db 48 cd bd 4d 86 ca 3c 71 6d 76 3e 53 ac 40 3e
       -0.10023662 0.024722243 0.24065186 0.18815736
000220 25 b9 23 3e 34 b4 2a 3d 30 44 0c 3d db eb 8e 3d
       0.15988596 0.04167576 0.034244716 0.069785796
000230 6a 00 af 3c b5 a4 af 3d d2 b1 bb 3d a0 79 3f be
       0.021362502 0.08576337 0.09164776 -0.1869874
000240 a7 e8 8e bd 1d 25 ed 3d 5b b5 f2 bc ba 8e 53 3c
       -0.06977969 0.115793444 -0.029627493 0.012912447
000250 f3 d6 f2 bd 3e 06 1e 3d 93 04 86 3e 52 0d b2 3d
       -0.118574046 0.03858017 0.26175365 0.08693947
000260 ce 25 c8 bc e6 85 de bd 8d 5a ab 3c 21 45 07 be
       -0.02443209 -0.10865383 0.020917201 -0.13209964
000270 d3 ab 3e 3e 5c 82 95 bd 99 dc 09 3e 7b 8c c1 bd
       0.18620233 -0.07300255 0.13463058 -0.09450623
000280 ab 01 69 3d b4 63 37 3e 73 78 48 3d 94 9a a0 3d
       0.056886356 0.17909127 0.048942994 0.078419834
000290 3e 6d d6 bc db 88 01 3d a5 42 ef 3d 7a f0 88 bd
       -0.026175138 0.031624656 0.11682633 -0.06686492
0002a0 b4 97 d6 3d 79 2b f1 3d 52 d4 ff 3d c8 29 e0 bd
       0.10478154 0.1177587 0.12491669 -0.10945469
0002b0 09 cf 45 bd c8 b9 9d bc 31 ce 00 be 71 c2 2e be
       -0.048293147 -0.019253626 -0.12578656 -0.17066361
0002c0 f1 66 d7 bd df 01 03 3e 60 a7 f4 bd fc a5 83 bc
       -0.105176814 0.12793683 -0.11945987 -0.016070358
0002d0 65 f3 17 3c 15 73 28 3d bf 74 3d 3d 6d 72 da bd
       0.009274338 0.041125376 0.046253916 -0.10666356
0002e0 b3 46 9f bd e9 6b 1d bd 33 3f f0 bd 73 77 0c 3e
       -0.07777157 -0.03843299 -0.11730804 0.13717441
0002f0 f3 da 2b be 4e 9b 0e 3d e6 6a 39 3e ed 3d ed 3d
       -0.16782741 0.03481608 0.18107185 0.11584077
000300 b3 5f b1 bd b0 dd 8d bd 9f be ab bd 68 51 1e 3c
       -0.08660831 -0.06927049 -0.083859675 0.009662963
000310 c7 98 a4 3d e5 55 e3 bd 8a aa 9f 3b 22 16 f3 3d
       0.080369525 -0.111003675 0.0048726248 0.11869456
000320 60 d8 ae 3d 03 cb 34 3e 35 ef 14 3e 40 13 3e be
       0.08537364 0.17655568 0.14544375 -0.18562031
000330 4f 3e 08 be d9 5c 0c bd 6d ee 5f 3e 5e 32 b5 3d
       -0.13305019 -0.034268234 0.21868296 0.088474974
000340 aa b9 3c be 1f 6c af bd 82 5b 37 3e c0 53 5b bc
       -0.184302 -0.08565544 0.17906001 -0.013386667
000350 85 37 5d 3e 66 7b 48 3e 90 df fd bc e5 49 13 3d
       0.2160321 0.19578323 -0.030990392 0.035959143
000360 e7 c7 85 bb 7b 03 bf bc 6a 6c 88 3d c0 36 b2 bd
       -0.004082668 -0.02331709 0.06661303 -0.08701849
000370 c8 0d 9c 3d 70 17 cf 3d bf ac 3c 3e 50 a6 14 3d
       0.07619816 0.10111892 0.18425272 0.03629142
000380 21 65 de 3d e1 64 16 be e7 76 8f 3d 5b 50 b2 bd
       0.108591326 -0.1468692 0.07005101 -0.08706733
000390 b3 86 0e be e7 fd de bd 4c 00 b2 3d e8 a0 41 3d
       -0.13918571 -0.10888272 0.08691463 0.047272593
0003a0 ad a4 35 3c 43 dc 4f 3e 42 be 03 3d e5 f3 70 3d
       0.011086625 0.20298867 0.032163866 0.058826346
0003b0 97 24 35 be a8 57 5d be 24 49 90 bd 87 2a 91 bd
       -0.17689739 -0.2161547 -0.070452005 -0.070881896
0003c0 d7 6e 6e 3d 7f e8 92 bd f2 3c 47 3e e8 74 fa 3d
       0.058211174 -0.07173251 0.19456843 0.12229329
0003d0 5d fe 1e 3e 9b 55 1a 3d e2 1b a1 3e 5b 47 f4 3c
       0.1552672 0.037679296 0.31466585 0.029819181
0003e0 ce fa 21 bd 18 b6 d4 3d 52 57 08 be a9 87 0e be
       -0.039545827 0.10386294 -0.1331456 -0.13918938
0003f0 57 a6 a6 bc 72 2e 5e 3e 84 ac 8b bd 06 d7 1b be
       -0.020342989 0.21697405 -0.06820014 -0.15218744

lstm.bias_ih_l0 f4 [128]
000000 52 40 4f 3e 0f 20 01 3f 31 7c 59 3d ed d5 14 3d
       0.2023938 0.5043954 0.053096954 0.036336828
000010 29 70 15 3d 50 95 b8 3d ba 21 85 bd 55 48 41 bd
       0.036483917 0.09012854 -0.065005735 -0.04718812
000020 e5 df 75 3e c2 e9 89 3e 07 59 bd 3c 89 b2 63 3e
       0.2401119 0.26936156 0.02311374 0.22236075
000030 bd 53 c4 3d 71 35 7e 3e 84 98 b2 3c 29 ff f8 3d
       0.09586284 0.24825074 0.02180124 0.12158043
000040 fa d5 2f 3d 45 f0 6b 3e 61 52 69 3e 33 d0 f2 bc
       0.042928673 0.23040874 0.22785331 -0.029640293
000050 c0 73 e1 3d 96 d3 16 3e 7a f0 27 3e b0 f7 98 bd
       0.11008406 0.14729151 0.16400328 -0.07469118
000060 0a 65 a4 3e b0 89 21 bd 97 fc 6b bd a2 9f 4f 3d
       0.32108337 -0.03943795 -0.057613935 0.050689347
000070 de 74 3d 3c 93 0b 48 3e 44 c8 03 3d 76 1e ec 3d
       0.011563508 0.19535665 0.03217341 0.115292475
000080 9e d4 e0 3d 44 a7 5b 3d c1 80 28 3d a8 53 02 3e
       0.109780535 0.053626314 0.041138414 0.12727225
000090 d3 55 95 bd 75 d2 06 3e 2d 4d f8 bc 7b 3d 81 3d
       -0.0729176 0.1316622 -0.030310238 0.063105546
0000a0 81 b2 ad 3c b1 58 ec 3d f5 f4 a3 3d e6 17 9a bd
       0.021203281 0.11540354 0.08005706 -0.075240895
0000b0 69 b7 0b 3e a1 66 3c bd 65 77 22 be ba 47 07 be
       0.13644184 -0.045996312 -0.15865858 -0.13210955
0000c0 ed 7c a9 3d 1f a1 25 3e 64 eb c7 3b d0 8e a4 bc
       0.08275781 0.16174744 0.006101059 -0.02008763
0000d0 9e 18 6f 3e 8d 8f 21 3e 8e e3 bd bc 99 8e 1b 3e
       0.23349234 0.15777417 -0.023179796 0.15191115
0000e0 df c8 1e 3e de cc 2c 3e e1 cb e6 bb c1 b1 4d 3c
       0.15506314 0.16875026 -0.007043347 0.012554587
0000f0 43 33 b1 3c 09 96 17 3e fe 88 4d 3d 63 4f f2 bd
       0.021630889 0.14803328 0.050179474 -0.11831548
000100 f7 8f fb 3d 08 10 c3 bc ff 0e 44 3d a2 6e 9b bb
       0.122833185 -0.023811355 0.047865864 -0.004743413
000110 72 b3 a3 bd 48 b6 1e be c8 fa b5 3d 22 91 71 bd
       -0.07993211 -0.15499222 0.08885723 -0.0589763
000120 aa 17 49 3d c1 0e 23 bd 44 c3 79 3e ca fc 87 3c
       0.049094833 -0.039808992 0.24390894 0.016600031
000130 15 01 7a 3d de bb 48 3d b4 4a 28 3e 28 e9 21 be
       0.06103619 0.04900729 0.16434747 -0.15811598
000140 b0 b0 86 bd be e7 d8 3d 64 5f fe bd 87 9a 09 be
       -0.06576669 0.10591076 -0.12420538 -0.13437854
000150 f1 80 b4 bb 74 71 0e 3e 51 52 ba bd d6 06 13 3d
       -0.005508535 0.13910466 -0.09097732 0.03589519
000160 68 99 c0 bd ae a1 ee 3c e4 78 07 3e 96 a8 ab bd
       -0.0940426 0.02912983 0.1322971 -0.083817646
000170 38 5c d5 3d e9 ab 39 be 12 6e 5d bd 60 66 19 be
       0.1041798 -0.18131985 -0.05406005 -0.14980459
000180 64 70 da 3d da d8 fb 3e 50 83 e1 3c 77 23 e8 3d
       0.10665968 0.49188882 0.027528435 0.113348894
000190 77 9d b5 3c 30 94 d6 bb 16 36 f6 3d 83 00 48 3d
       0.022169812 -0.006548427 0.12022035 0.048828613
0001a0 40 34 68 bd 5a e0 86 3e 5f 23 0c 3e 64 23 89 3d
       -0.056690454 0.26343042 0.13685368 0.06696203
0001b0 02 78 9f 3e 8b 51 46 bd 14 51 b7 bd de 67 0e 3e
       0.31146246 -0.04841761 -0.08951011 0.1390681
0001c0 fd 40 c1 3a 81 18 4f 3e 4e e6 45 3d 63 79 8b 3e
       0.00147441 0.20224191 0.04831534 0.27241048
0001d0 c2 3e 42 3e bd 1c c1 bc a1 50 c4 3d c7 39 04 3d
       0.18969253 -0.023573274 0.09585691 0.032281663
0001e0 ff c3 a9 3e 97 78 82 3d 64 b6 17 bd 27 80 83 3d
       0.33157346 0.06370657 -0.037039176 0.064209275
0001f0 26 84 e4 3d eb 46 ec 3c bc 8a 13 bd bb 6c 42 bb
       0.11158018 0.02884241 -0.03602098 -0.002966686

lstm.bias_hh_l0 f4 [128]
000000 4c 7f 7c 3e 36 5f 1f 3f 5b 92 76 3d f0 61 32 3e
       0.24657935 0.62254655 0.06019817 0.17420173
000010 27 ac 4e 3e e5 3d 74 bd 27 47 d9 3d 27 ed 24 bd
       0.20182858 -0.05962934 0.10609274 -0.04026523
000020 60 be 3e 3d ef ad a4 3e 02 7d 03 3c 73 07 31 3e
       0.046568274 0.3216395 0.00802541 0.17287998
000030 5d 3b a9 3d 5c d4 af 3c d9 b8 15 be 65 65 f7 3d
       0.08263276 0.021463566 -0.14621295 0.12079886
000040 56 3a 29 3e 8e d0 f6 3d f5 f2 15 3e 1b a6 6f 3e
       0.1652616 0.120514974 0.14643462 0.23403208
000050 26 7c b5 3d 0b 63 9f bd b5 81 b3 3e f6 ac 93 bd
       0.0886157 -0.07782563 0.35059896 -0.07210724
000060 d2 3b 99 3e 28 13 ae bd 5b 39 7a bd 1f 03 13 3e
       0.29928452 -0.084997475 -0.061089855 0.1435666
000070 f9 5f 33 3e 9a f0 8a bc 3a 45 a1 3d fc 8e 01 be
       0.1751708 -0.01696043 0.07874532 -0.126522
000080 aa d5 0a bd 84 d7 be bd 11 b3 4e 3d 63 52 9f 3b
       -0.033895172 -0.0931845 0.05046374 0.004862116
000090 8d 23 5a bd 7a 97 fc 3d ac a2 d4 bd 8b 1e 3f bd
       -0.05325656 0.12333579 -0.1038259 -0.046659987
0000a0 32 eb 18 3d 69 72 91 3d a3 20 21 3e be 00 df 3d
       0.037333675 0.071019 0.15735106 0.108888134
0000b0 61 07 b7 bc 77 f7 1b 3d d6 fc 81 3d b7 76 08 bc
       -0.022342386 0.038077798 0.06347053 -0.008329085
0000c0 0f fb a2 bd 85 3e 55 3e 67 bf 7b 3e 98 ad e7 3c
       -0.07958042 0.2082463 0.24584733 0.028281018
0000d0 08 d9 c6 bd ad 35 74 3d bc 39 ec 3d db b7 2b bd
       -0.09709364 0.0596215 0.115344495 -0.041923385
0000e0 27 85 ef bd a8 2e bc bd 14 a7 43 3e f4 c4 cb 3b
       -0.11695319 -0.091885865 0.19106704 0.006218547
0000f0 76 98 46 3d 4b 51 08 3e 28 9d 13 3e db fc c3 3d
       0.04848524 0.13312261 0.14415419 0.09569713
000100 a1 32 bf 3d c7 7e 83 3c bc 1b c0 bc 59 cc d5 3c
       0.093358286 0.016051663 -0.023450725 0.026098417
000110 c8 60 88 bd 7e 34 34 be 5c 60 a5 3d cd 9b de bc
       -0.066590846 -0.17598149 0.0807502 -0.027173901
000120 cf 72 a9 3c 8d 4f e7 3c 44 0e 2e 3e 8f b7 00 3d
       0.020684628 0.028236175 0.1699763 0.031425055
000130 80 f9 22 bc 0f 3e bb 3d b4 e3 60 bd fd 3b d9 bc
       -0.009947181 0.09142696 -0.054904655 -0.026517862
000140 be db 8b bb be 94 1b 3d 83 87 0b 3d 5e 52 0b 3e
       -0.0042681387 0.03798365 0.03406478 0.1360564
000150 e1 1a b2 3d b8 32 80 3c aa 9e 0b 3d b0 fb 3b be
       0.08696533 0.015649185 0.03408686 -0.1835773
000160 49 91 df 3d f7 8e 5b 3d 27 4a 9b 3d 6c 0c 24 be
       0.10916383 0.05360314 0.07582503 -0.16020364
000170 7d 6e 86 bd f8 9e b7 3d d2 2b 7e bd a5 96 e6 bd
       -0.06564043 0.08965868 -0.06205351 -0.11259202
000180 36 aa 1d 3e c5 4b d8 3e 17 e4 04 3e b3 be db bb
       0.15396962 0.42245308 0.12977634 -0.0067060827
000190 0d 86 2a 3b 5e 4d 24 bd 38 72 f6 3c cc 46 96 bd
       0.0026019842 -0.040112846 0.03008376 -0.07337722
0001a0 d3 99 0e 3e 93 db 08 3e 77 c8 e3 3d ec b7 c2 bd
       0.13925867 0.13365011 0.1112222 -0.095077366
0001b0 df ef 3e 3e 62 57 d2 3d 6c 32 09 3e bc 3e 18 bd
       0.18646191 0.10270573 0.1339814 -0.037169203
0001c0 6c ed 3e 3c 47 4f 2d 3e 82 f8 01 bd 1b 3f bd 3d
       0.0116532855 0.16924773 -0.031731136 0.09240552
0001d0 6c 47 4c 3e de f1 07 3e c1 7d c0 3d 53 cf 4f 3d
       0.1994912 0.13275859 0.09398986 0.05073483
0001e0 94 96 59 3e 76 f1 ea 3d 46 a3 90 3b 33 6c fc 3c
       0.21248847 0.11471836 0.004413995 0.030813312
0001f0 04 63 55 3d 72 ab 2e bd 07 17 8f 3d 35 81 52 3d
       0.05209638 -0.04264397 0.06986814 0.051392753

lstm.weight_ih_l1 f4 [128, 32]
000000 8b 3f 1b 3e 7b 8d af bd 32 43 37 3d 23 35 aa bd
       0.15160958 -0.08571907 0.044741817 -0.08310916
000010 5c 17 39 be 5a 7e 12 be 24 f2 25 3e 5a 2c 02 3e
       -0.18075317 -0.14306012 0.1620565 0.12712231
000020 d4 cf a0 bd 81 99 b4 3e 4c db 6c bd ca 8d bc bc
       -0.0785214 0.35273364 -0.057826325 -0.023016829
000030 dc 0d 7d be d3 4f 91 be f9 df 20 3e 6d c4 e8 3d
       -0.24712318 -0.28381214 0.15710439 0.1136559
000040 26 a0 95 3d 37 fc 34 bd ca e6 c8 3d 9d 4d 5e 3e
       0.073059365 -0.044185843 0.098096445 0.21709295
000050 07 8c 93 3d cf 3f 0b be 44 ef 11 bc e3 84 d3 bc
       0.072044425 -0.1359856 -0.008907143 -0.025820201
000060 95 d7 00 bd 8b ba 02 3e 51 23 4f 3e f4 c1 2c be
       -0.031455595 0.12766473 0.20228316 -0.16870862
000070 79 ac 74 3e f1 11 f4 3c 61 89 f1 bd f6 ae ff bd
       0.23893918 0.029793711 -0.11793781 -0.12484543
000080 1f bc 9f 3d fb ff 27 3f 95 c9 5a 3d 47 68 94 3c
       0.07799553 0.6562497 0.0534149 0.01811613
000090 ac f4 15 3e b8 71 76 be ec d4 58 be ad 3a ba bc
       0.14644116 -0.24066818 -0.21174973 -0.022733057
0000a0 cc e8 02 bd 6e b3 8f 3c 8e f3 c3 bd dc 53 09 bd
       -0.031960294 0.017541613 -0.09567939 -0.03352724
0000b0 e5 99 1a 3d 93 e8 21 3d 4e 11 37 3d 8f fc 96 bd
       0.03774442 0.03952844 0.044694237 -0.073723905
0000c0 bc d8 ad bd 97 11 33 bd 0d ac 4d 3e 3c 86 3b bb
       -0.084886044 -0.043717947 0.20085163 -0.0028613945
0000d0 d8 8f 5b 3e 40 76 83 bc fc 99 5b 3d 9f a5 ef 3d
       0.21441591 -0.016047597 0.053613648 0.117015116
0000e0 51 51 4e 3c 33 3f 69 3c d2 05 2b 3e 8e bf 36 be
       0.0125926295 0.014236259 0.16701439 -0.1784651
0000f0 81 39 a2 bc 29 d4 24 3e 21 2b 13 be 8f c8 a6 bd
       -0.01980281 0.16096558 -0.14371921 -0.08143722
000100 92 23 a1 bc ae f4 5c be 6f 0e 0c 3d 75 7f c2 3b
       -0.019670282 -0.21577713 0.034193452 0.005935604
000110 5e ab 97 bb 0c c7 9e bd a2 b7 14 bd 8c cb 0a 3e
       -0.004628583 -0.07752809 -0.03630794 0.1355421
000120 58 b7 ef 3d cf 11 04 3e 09 44 c6 3c 05 ea b4 bb
       0.11704892 0.12897418 0.024202364 -0.0055210614
000130 ba b5 c3 3d e1 bb 91 be bd 46 4b 3d b0 0f 63 bd
       0.09556146 -0.28463653 0.04962801 -0.055434883
000140 a0 d9 6f be 2a 7e 06 3e e0 40 47 3d f1 1e 94 3e
       -0.23422861 0.13134065 0.048645854 0.28929856
000150 d0 4c 44 3e b6 3f 18 3d ae d1 1a 3e 4b 85 63 bc
       0.19169927 0.037170134 0.15119049 -0.01388676
000160 72 cb 94 bd 1d 04 4b 3d 7f c5 f5 bd 52 9e 07 3e
       -0.072653666 0.04956447 -0.1200056 0.13243988
000170 6c 8c f9 3d d1 9c 3b 3d bd 94 90 3d bd 2a 13 be
       0.121849865 0.04580385 0.070596196 -0.14371772
000180 e2 58 96 3b 9c 60 24 bd a5 b9 3e 3e 79 60 83 3d
       0.0045882324 -0.040131196 0.18625505 0.06414885
000190 e4 68 09 3d cb 28 49 be 73 71 af bd 64 c1 c7 3d
       0.033547297 -0.19644468 -0.085665606 0.09753683
0001a0 a3 35 01 be b8 1c 3d 3e ee c3 ab bd c3 a2 fe bd
       -0.12618117 0.18467987 -0.0838698 -0.12433388
0001b0 ce 1e 95 bd ed 22 ca bd d2 1d 6a bd b1 63 30 be
       -0.07281266 -0.09869943 -0.057157345 -0.17225529
0001c0 9d 10 d1 bd 1e d9 cc bd 01 9c 45 3e 3f 75 1e bd
       -0.10208247 -0.10002349 0.19297792 -0.038686033
0001d0 41 06 7e bd 76 12 be bd 61 16 db bd 2d f5 5b 3e
       -0.062017683 -0.09280865 -0.10697628 0.21480246
0001e0 32 2e be 3d a6 a7 8c bc 59 e6 4b 3e 07 f9 95 bc
       0.09286155 -0.017169785 0.1991209 -0.018307222
0001f0 5b fd 2b 3e 7b 62 4e 3d 51 fc 20 3c 08 5c 63 be
       0.16795866 0.050386887 0.009825782 -0.22203076
000200 b5 1f a8 bd 3b 63 b0 be 7c 69 d9 bd 59 28 8b b9
       -0.08209173 -0.34450707 -0.10615823 -0.00026542207
000210 a8 13 98 3d 72 b7 5e bd c0 a3 4b 3e d4 9a d7 bb
       0.07425624 -0.054374166 0.19886684 -0.0065797362
000220 e0 53 40 bd 79 bf d1 3e e2 6c d0 3d dc 77 77 be
       -0.04695499 0.40966395 0.10177018 -0.24166816
000230 39 65 ab 3d 9b de 17 be 03 7e 9d bd 05 53 30 be
       0.08368916 -0.14831011 -0.076900505 -0.1721917
000240 6c 0c 28 bd ca 37 13 3d 94 71 0e 3d 46 43 ce 3d
       -0.04102747 0.035941876 0.034776285 0.10071425
000250 97 33 0e be fe f4 cd bd 52 8a 7b 3e dd 80 d9 3d
       -0.13886867 -0.10056494 0.24564484 0.10620282
000260 dc 0d 40 be 61 ea 34 3b c4 bc dc 3d bf e7 9f bd
       -0.18755287 0.002760552 0.10778192 -0.07807874
000270 a9 aa af 3d 0e 66 8f 3d bd 20 49 bc ce 9b 02 bd
       0.08577473 0.07001887 -0.012275872 -0.03188687
000280 ea 46 c6 bc f9 83 a3 3e e9 55 06 3e b4 ea d5 bc
       -0.024203736 0.31936625 0.1311871 -0.026112892
000290 59 ee 9c bd df b5 ad 3c 26 38 f5 bc f2 b0 54 bd
       -0.07662649 0.021204887 -0.029934 -0.05192656
0002a0 a0 eb 5c 3e b7 18 0f bd f0 44 ef bd fe 94 58 3d
       0.21574259 -0.03493568 -0.11683071 0.052876465
0002b0 17 12 d7 3d 1f e5 80 3e 90 10 d8 3d cb 6b 69 3d
       0.10501497 0.25174806 0.10550034 0.056987565
0002c0 26 f4 9b bd 38 f8 54 3d c2 9c f5 3d 61 5d 86 bd
       -0.07614927 0.051994532 0.1199279 -0.06560779
0002d0 ef 1c 89 3d e2 23 6b ba 97 22 4f 3e 19 a9 9d bd
       0.06694972 -0.00089698855 0.20228039 -0.076982684
0002e0 bf bd 52 bd 37 88 e1 3d af 57 9d bd 05 21 9d bc
       -0.051450487 0.11012309 -0.0768274 -0.019180784
0002f0 66 3b db 3d 2c 1a cf bd d2 07 8c bd 16 0e 13 be
       0.10704689 -0.10112414 -0.06837429 -0.14360842
000300 ad 1c 17 be bf ab 8f bc 4c 19 db bd 47 96 36 be
       -0.14757033 -0.01753795 -0.10698184 -0.17830764
000310 cf 32 09 3e 17 17 a6 bd f5 dc ef bb 04 86 4b 3d
       0.13398288 -0.08109873 -0.0073200413 0.049688354
000320 7d af 33 be 7c 5c 71 3d 3a 2a 06 bd 40 c0 09 3e
       -0.17547412 0.05892609 -0.032755114 0.13452244
000330 e1 77 0d be 53 8b 37 bd bb 3d ff 3c c6 42 e5 bd
       -0.13815261 -0.044810604 0.031157365 -0.11194377
000340 26 d6 1a 3d 02 0e 40 3c ad ea b4 3d ec 8a 5c bc
       0.037801884 0.01172209 0.08833823 -0.013460856
000350 09 3f 02 3e 7a 27 f3 3b 6f 43 61 bd 76 b7 12 bc
       0.12719359 0.0074204775 -0.05499595 -0.008954873
000360 05 95 85 ba 1e cb 0e 3e 30 d7 0d be a1 95 d5 3d
       -0.0010191506 0.1394467 -0.13851619 0.1042893
000370 62 67 8b 3d 9a 53 98 bd 98 20 13 bd ef a3 93 bd
       0.06806828 -0.07437821 -0.035919756 -0.07209002
000380 3c d2 18 be ce ec 4e bd 55 57 33 be 82 ea 23 be
       -0.14923948 -0.050518803 -0.17513783 -0.16007426
000390 c6 85 d9 bc 5a 5e 24 3e 52 11 6c 3b 5f 19 05 be
       -0.026553046 0.16051617 0.0036021066 -0.1299796
0003a0 2b e6 81 3e c0 4e 1c be 5c 31 fb 3c 6e 77 fb 3c
       0.25370917 -0.15264416 0.030663185 0.030696597
0003b0 97 ad 58 3d 10 de c4 bd 28 77 06 be 20 99 0b be
       0.052899923 -0.096126676 -0.13131392 -0.13632631
0003c0 84 fe df bd f4 b3 04 3e aa f3 94 3c bb ce e4 3d
       -0.10937217 0.12959272 0.018182594 0.11172243
0003d0 73 41 e5 3d 3d 2b 81 bd c6 cc 16 be 1a 4e f9 bd
       0.11194124 -0.06307075 -0.14726552 -0.121731
0003e0 01 7a bd 3d f7 57 34 be ee 4c bc bd e8 84 17 3d
       0.09251786 -0.17611681 -0.09194361 0.036991984
0003f0 a0 b1 37 be 72 7c 78 3c cc df b1 bd 78 ea 0a 3d
       -0.17938852 0.015166389 -0.08685264 0.033915013

lstm.weight_hh_l1 f4 [128, 32]
000000 31 a0 4e be 74 a8 ea 3d d0 ed 7d 3d 38 51 92 3d
       -0.20178296 0.11457911 0.061994374 0.071443975
000010 52 50 86 3d f0 68 b7 3d c8 cd 3c be 00 17 4b bc
       0.06558289 0.08955562 -0.18437874 -0.01239562
000020 ca 39 30 be 56 34 d1 3d bd 02 47 be 0e 08 9f bd
       -0.17209545 0.102150604 -0.19434638 -0.07765208
000030 96 6a a2 3d df 7c ba 3d d5 ca 8f 3d f9 c9 ea 3c
       0.07930486 0.091058485 0.07021109 0.028660761
000040 3f 43 1e bd cb 3e ce bd 22 49 5c 3e 9d b9 cd 3c
       -0.03863835 -0.100705706 0.21512273 0.025112921
000050 aa ef 1c 3e e6 cc 53 be fe 6d 89 bd a2 e1 9a 3b
       0.153258 -0.20683631 -0.067104325 0.0047266046
000060 e6 7d 40 3e 94 63 f2 3d 4d 3b 12 3c 22 24 27 be
       0.18798026 0.11835399 0.008925271 -0.16322377
000070 41 41 e2 3d 20 64 a3 3d 82 42 53 be e1 10 af bd
       0.110476024 0.07978082 -0.2063084 -0.08548141
000080 9d 7c 41 be 64 f7 39 bc cd 20 f6 3d 4e cf 73 be
       -0.18895192 -0.011350486 0.12017975 -0.23809549
000090 6a 38 67 bd ee 2d bc 3b 32 d1 32 3d 98 98 dc 3d
       -0.056450285 0.00574278 0.043656535 0.107712924
0000a0 14 36 5a be f7 ba c5 bc 73 72 ac 3d c5 48 36 be
       -0.21309692 -0.024137003 0.08420267 -0.17801197
0000b0 cb bb 97 3d 10 f4 22 3c 00 42 18 3d 21 f3 74 3e
       0.074088655 0.009945884 0.037172318 0.23920871
0000c0 e3 06 51 be 4d a0 5c be e5 6b 9f 3c 1f ac 17 3e
       -0.20412783 -0.21545525 0.019460628 0.14811753
0000d0 ad d9 bd 3c b8 ec 16 3e 6a 39 d0 3c 33 18 e0 bc
       0.023175085 0.14738739 0.025418002 -0.02735529
0000e0 4e a5 ed 3d 73 a5 e5 bd a7 c2 0e be 9a 90 b3 3c
       0.11603795 -0.112131976 -0.13941441 0.021919537
0000f0 7c f5 63 be fc e3 8c 3d 17 1e 38 be 2c 95 21 bc
       -0.22261614 0.06879422 -0.17980228 -0.0098622255
000100 3e e8 b6 3d 5a 60 0e be 6a 9a de bb bb 4c 55 3d
       0.089310154 -0.13903943 -0.00679331 0.05207513
000110 08 5c dd bd fa 4e 18 be eb c4 44 bd 7e 0b 10 bd
       -0.10808569 -0.14873877 -0.048039358 -0.03516721
000120 7a e5 fb 3d 81 d3 92 3c b7 0e c1 3d b9 33 34 be
       0.122996286 0.017923119 0.09426635 -0.17597856
000130 a8 2b b0 bd 5f 8e bf 3d e0 61 57 be c3 e7 1e 3e
       -0.08602077 0.09353327 -0.2103343 0.15518098
000140 98 55 27 be 67 d3 51 be b7 c0 f5 bd 3d 7d 19 be
       -0.16341245 -0.204908 -0.11999648 -0.14989181
000150 4a ca 1f 3e e9 4f 22 be 86 ef c2 3d 80 63 9e 3d
       0.15604511 -0.15850796 0.09518342 0.07733822
000160 aa 67 84 bb cb b7 43 be 8d c6 9c bd 13 81 de 3d
       -0.004040678 -0.1911308 -0.07655058 0.10864463
000170 eb bc 97 3d d5 f1 ed bd 7a d0 8e bc ce 4c ab bd
       0.0740908 -0.116183914 -0.017433394 -0.08364259
000180 af e8 96 bd 2c 2b 2a 3d 25 e6 60 bb 56 7b e2 bd
       -0.073685996 0.04154508 -0.0034316864 -0.11058681
000190 0a 14 68 3e 78 ce 90 3d 6a 86 3f bd 66 ad 29 3e
       0.22663894 0.07070631 -0.046759047 0.16570053
0001a0 c6 24 81 3c b8 5d 32 3e 7a 20 c6 bd ba f1 57 bd
       0.015764605 0.17418563 -0.09674163 -0.052720763
0001b0 b9 3d de bd 9c 05 71 3d c3 64 51 3d 73 8c bd 3b
       -0.108516164 0.05884324 0.051121484 0.005784565
0001c0 c2 1b 25 bd bc 94 99 bd 53 b1 65 3d d3 26 0a bc
       -0.040309675 -0.07499072 0.056077313 -0.008432108
0001d0 a8 8a 2f 3e 23 7c 32 3c bb 03 25 be e8 66 42 3d
       0.17142737 0.010893854 -0.16114704 0.04746142
0001e0 b4 e2 56 bc 67 37 5d 3d b2 bf e7 bd 6c 0c 61 3d
       -0.013115574 0.054007914 -0.1131586 0.054943487
0001f0 de 03 e2 bd 55 a9 bc bd 96 65 fe bd 85 e3 30 be
       -0.11035894 -0.09211985 -0.1242172 -0.17274292
000200 0d 93 2e 3d f6 06 09 3e 7b f9 d8 bd 91 d0 09 be
       0.042620707 0.13381562 -0.105944596 -0.13458468
000210 22 df 08 3d 7c ec 84 bd c7 ec 3f 3d 20 ed 07 bd
       0.03341592 -0.06490418 0.046856668 -0.033185124
000220 53 91 1d 3d 48 ad 42 bd a9 2c 7f bd bb 90 17 be
       0.03846867 -0.047528535 -0.06229845 -0.14801304
000230 df 36 9e 3d f9 4e bd 3d 9b ea eb 3c 87 c3 8c 3d
       0.077253096 0.092435785 0.028798392 0.068732314
000240 12 9d 5e be 57 e0 fd 3b 60 aa 32 3e 00 e9 d2 bc
       -0.21739605 0.0077476907 0.17447805 -0.025745869
000250 ca b3 50 3d 34 48 1c 3d c3 5b e2 3d 6a b3 ea bd
       0.05095271 0.038154796 0.110526584 -0.11460002
000260 6d 69 f8 3c 11 69 af 3d 32 1b 2e 3e 46 f5 0a 3e
       0.030323708 0.08564962 0.17002562 0.13570127
000270 ab b6 ce bd 22 a6 86 3c 98 12 93 bd de 80 c0 bd
       -0.10093435 0.01643664 -0.07181281 -0.093995795
000280 b0 c7 68 bc 19 70 eb bd 7e df 04 be c8 f0 1a 3e
       -0.014207765 -0.1149599 -0.1297588 0.15130913
000290 b1 3b 12 3e 63 91 de 3c 8e 1d a7 bc 4a 77 db 3d
       0.14280583 0.027168935 -0.020399835 0.10716112
0002a0 61 91 09 3e 01 88 e7 bd c9 f8 c3 bd 9e 41 d0 3d
       0.13434364 -0.113052376 -0.095689364 0.101687655
0002b0 71 19 e3 3c 18 f2 a8 3d 71 9b 08 be 39 ab 29 3e
       0.027722092 0.08249301 -0.13340546 0.16569223
0002c0 c1 78 65 3d cc 8e ae bd d8 d2 0a 3e 05 57 06 be
       0.056023363 -0.0852333 0.13556993 -0.13119133
0002d0 ab 31 04 be 0e 57 61 3c b3 df ea 3c 05 8d c5 3d
       -0.12909572 0.013753666 0.028671121 0.09646038
0002e0 4a a6 17 3e 60 37 2d be d0 80 62 3d d6 09 11 be
       0.14809528 -0.16915655 0.055298626 -0.14163908
0002f0 86 af f7 bc 27 88 aa bb bd 61 54 be 3b 49 8c bd
       -0.030235063 -0.005204219 -0.20740409 -0.06849905
000300 cc d5 34 be 56 cb 9f bd 6b e1 88 bd f8 3a a3 bd
       -0.17659682 -0.07802455 -0.0668362 -0.07970232
000310 1d f7 25 3d 54 c0 3f be b5 ef da bd c7 e9 85 3d
       0.04051887 -0.18725711 -0.10690252 0.0653873
000320 36 4a 55 3d f4 54 8c bd ff d4 42 bd fe 5e a4 3d
       0.052072726 -0.06852141 -0.04756641 0.08025931
000330 73 f0 0a 3e 57 11 ca 3d f4 bb f3 bd e2 16 bf bd
       0.13568287 0.098665886 -0.119010836 -0.093305364
000340 b3 ef f9 3d aa 3a 12 be d8 5c b9 bd 85 39 99 bd
       0.12203922 -0.14280191 -0.09050912 -0.07481674
000350 59 8a 72 3d 25 5b 0c bb 0e 3a d3 bd ca 61 28 be
       0.05921397 -0.002141663 -0.103138074 -0.16443554
000360 f5 17 a6 bd 11 cc 01 bd be 07 3d 3c c1 44 10 bd
       -0.08110038 -0.031688754 0.01153749 -0.03522182
000370 9f 7f d5 3c 6c 86 08 be 23 5f 0b 3e 9a 6b 41 bd
       0.026061831 -0.13332528 0.1361051 -0.047221757
000380 09 27 dc bd a5 8e bd bd cd 2a a0 bd f4 7c 80 bd
       -0.10749633 -0.09255723 -0.078206636 -0.06273833
000390 6e 0a 5c bd 17 1e c7 3d 29 f4 9d 3c 5a 54 9e bc
       -0.053720884 0.09722536 0.019281464 -0.019327331
0003a0 db 77 1c be cf d0 9b 3d a5 0e 4c 3d a2 3d ad bd
       -0.15280096 0.076081865 0.049818654 -0.08459021
0003b0 6d b9 ac bd 1f 14 17 3e a1 bd 19 3e aa 25 f8 bd
       -0.08433805 0.1475377 0.15013744 -0.12116559
0003c0 86 71 80 bd 80 70 51 bd f9 72 78 bd a7 60 05 be
       -0.06271653 -0.05113268 -0.06065652 -0.13025151
0003d0 f1 ee e9 bd 46 71 1e bd 67 0a 90 bd 8d 35 17 b9
       -0.114225276 -0.038682245 -0.07033234 -0.00014420431
0003e0 2e 54 d6 bc a5 82 98 3d 2d 28 01 be e3 2d 10 bd
       -0.026163187 0.074467935 -0.12612982 -0.03520001
0003f0 58 87 18 3e ba 33 fb bd fc 72 11 be 87 03 aa 3d
       0.1489538 -0.122657254 -0.1420402 0.08301454

lstm.bias_ih_l1 f4 [128]
000000 dc 99 c7 bd 0b db ab 3d d3 68 44 3e 04 d2 45 3e
       -0.09746143 0.083913885 0.19180612 0.19318396
000010 39 5f ee bd 21 d1 e3 3d 88 7b b3 3d 2a e2 7f bd
       -0.11639256 0.111238725 0.08763796 -0.062471546
000020 91 4d 4f 3e b2 d8 4f bd 52 49 92 bd 63 f6 42 bd
       0.20244433 -0.050743766 -0.07142891 -0.047598254
000030 98 61 85 bd 8c 94 18 3e a7 14 11 3d 0e b3 08 3d
       -0.06512755 0.14900416 0.035420086 0.033373885
000040 50 5d a4 bd fc 4d ba bd 36 2e 1e be 5a f6 f8 3d
       -0.080256104 -0.090969056 -0.15447316 0.12156363
000050 1b e5 b1 bc 72 26 40 3e 2e 22 89 bd ba e1 61 3e
       -0.021715691 0.18764666 -0.066959724 0.22058764
000060 30 48 ae 3d 65 5f cb 3d 60 72 53 3c 65 45 35 bc
       0.085098624 0.099303044 0.012905687 -0.011063908
000070 d0 8b 34 bc 43 46 3d 3d 21 e9 33 3d fe bc 04 be
       -0.011019662 0.046209585 0.0439235 -0.1296272
000080 9d bb df 3d 79 e6 e4 3d 84 0c 95 bc 85 26 02 bd
       0.10924456 0.11176772 -0.018194444 -0.031775016
000090 21 da 07 b9 2a a3 2c be a9 45 c9 bd fa 10 e3 bd
       -0.00012955863 -0.16859117 -0.0982774 -0.110872224
0000a0 40 26 e9 bd ff 96 f2 bd 0e 67 8a bd 1a 12 ea 3c
       -0.11384249 -0.118452065 -0.06757937 0.028573085
0000b0 d9 50 08 bd 85 0c 70 bd 40 cc 41 3e 2b 28 7d ba
       -0.033280227 -0.05860569 0.18925571 -0.00096571696
0000c0 04 5e 33 3e 75 3f 89 bd 31 e2 ab bd 67 93 c8 3d
       0.17516333 -0.067015566 -0.08392752 0.0979374
0000d0 c1 d7 99 3d 7d 93 77 bd 32 84 cb bd 85 cf 5f 3e
       0.07511855 -0.06044339 -0.09937324 0.21856506
0000e0 4e a2 46 3d 4e ad 8e 3c 13 e0 6b 3e 23 cc 35 3d
       0.04849463 0.017416622 0.23034696 0.044384133
0000f0 0d 61 0a 3e f2 00 4f 3d 62 ec f2 3d 64 ed 00 be
       0.13513584 0.05053801 0.11861493 -0.12590557
000100 35 b4 ea bc 7e fe 94 bd e3 05 1c 3e cf 4b c7 3b
       -0.028650383 -0.07275103 0.1523662 0.006082035
000110 79 c1 6f 3d 75 25 15 3d 12 05 ce bc 89 2e 0e 3d
       0.05853412 0.036412675 -0.025148902 0.034712348
000120 b6 fa a4 bd 34 33 c1 3d e3 da 25 be 65 64 e1 bd
       -0.08055632 0.09433594 -0.1619678 -0.11005477
000130 64 1b e0 bb fe e1 b3 3d a7 3d 2e be 16 c6 20 3d
       -0.0068392027 0.08783339 -0.17015706 0.03925141
000140 4e 4e 49 be 34 6b 26 be 70 d5 45 bd 29 dd 06 be
       -0.19658777 -0.16251832 -0.048299253 -0.13170303
000150 37 66 60 3d 3a 68 01 be bf 94 d7 bc e7 ad fd 3d
       0.05478498 -0.12637416 -0.026316045 0.12386685
000160 b6 98 9e bd 7f be 05 be 15 60 14 be 1e 6f cd 3d
       -0.07743971 -0.1306095 -0.14489777 0.100309595
000170 18 e5 7f bd 20 c6 a7 3d c6 80 01 3e c0 96 74 3d
       -0.06247434 0.08192086 0.1264678 0.05971408
000180 7c ac 16 3d 07 11 d8 3d 04 8b 59 3c 3a 13 2b 3e
       0.036785588 0.10550123 0.013277773 0.16706553
000190 e8 c2 9f bd be e2 10 3e 75 c2 8f bd 03 cf f5 bb
       -0.07800847 0.14148995 -0.070195116 -0.0075014844
0001a0 0a bc 4a 3d cf e9 4f 3d 84 58 17 3e ab ff 79 bc
       0.049495734 0.050760087 0.1477986 -0.01525871
0001b0 6c 6f 86 bc 81 99 2a 3e aa e1 e7 3d 62 4a 5f 3e
       -0.016410552 0.1666012 0.11322339 0.21805719
0001c0 35 fd 57 3d 0f 5a 25 3e f8 bb e0 3d d3 8a 36 3d
       0.05273171 0.16147636 0.10973352 0.044565987
0001d0 72 01 a9 3c 61 5d 8a 3d 65 70 44 3c 2a 47 1c 3c
       0.020630572 0.06756092 0.011989688 0.009538451
0001e0 f4 2d 89 3d 36 9b d0 3d 1c 89 18 3c 97 91 c9 3d
       0.06698218 0.10185854 0.009310033 0.09842222
0001f0 f9 fa 8a bd 56 0f 64 bd f2 11 27 be 34 08 38 3e
       -0.067861505 -0.055678688 -0.1631544 0.17971879

lstm.bias_hh_l1 f4 [128]
000000 59 f3 09 bd 83 8b 40 3e 01 b4 ef 3b 8f b5 e5 bc
       -0.03367934 0.1880322 0.0073151593 -0.028040675
000010 4d 1f c6 bd df 79 fe 3d 38 ca 62 bc 58 d9 43 bd
       -0.09673939 0.12425589 -0.013842158 -0.047814697
000020 73 ec 17 3e a8 a0 20 3e 70 15 5d bd ac c7 3c be
       0.14836292 0.15686285 -0.053975523 -0.18435544
000030 d2 55 6d 3e d1 2e 63 3d f9 60 11 bd 4e a4 2b 3e
       0.23177269 0.05546457 -0.03549287 0.16761896
000040 3b 10 ef bd c6 aa b8 3d d3 07 6e bd c2 09 2d 3d
       -0.116730176 0.090169474 -0.05811293 0.042245634
000050 90 dd 57 3e ef 0b 2e 3d c0 e2 99 3d 9b ee 7b 3d
       0.21080613 0.04249185 0.07513952 0.06150685
000060 71 65 1c 3e a5 57 6e 3d 22 81 8c bd d7 84 1d bd
       0.15273072 0.058189053 -0.06860568 -0.038456764
000070 40 88 2f 3e 9f 69 fd 3d c4 80 00 3e e7 50 d9 bd
       0.17141819 0.12373661 0.1254912 -0.10611134
000080 bb 6c 84 3d 66 88 20 bd 6e 80 92 3d 59 e0 6a 3e
       0.06466051 -0.03919258 0.07153402 0.22937144
000090 3e db 0f 3e 3b 68 16 be d2 6a 35 3d d2 e0 f0 bd
       0.14048478 -0.14688198 0.044291325 -0.11761631
0000a0 0a 86 88 bd 6b f7 b4 3d 77 bc b6 3d 28 8e cd bc
       -0.06666191 0.08836254 0.089226656 -0.0250922
0000b0 99 07 2e 3e 2f 5b f8 3c 50 47 08 be 30 e3 01 be
       0.16995086 0.030316917 -0.13308454 -0.12684321
0000c0 81 46 ba bd 8c 68 19 3e 7d 91 03 3e 6e 38 5f bd
       -0.09095479 0.14981288 0.12848468 -0.054497175
0000d0 a1 20 88 bd 65 e0 23 3e 96 f9 33 3e 38 b9 23 bd
       -0.066468485 0.16003568 0.17575678 -0.03997156
0000e0 98 52 55 3e 5b b0 54 3e 0f 4e 2f 3e 61 4d 11 be
       0.20832288 0.207704 0.1711962 -0.14189674
0000f0 82 e9 8f bd 94 08 5a bd 13 7b 20 3d 84 6f 88 bd
       -0.0702696 -0.053230837 0.039179873 -0.06661895
000100 ce 1b 16 be ea 00 7a bd 1b 90 b9 bc d3 96 5b be
       -0.14659044 -0.061036028 -0.022651723 -0.21444254
000110 0b 60 49 3d ad 91 c4 3d d1 90 d2 3d ae 5f aa bd
       0.04916386 0.09598098 0.10281528 -0.08319031
000120 c4 20 4d be 7a c3 d0 3d a9 ff 16 be ba c9 0a 3c
       -0.2003203 0.10193534 -0.14745964 0.008470947
000130 8e 4e fc 3d 38 de 54 3e 03 1a 14 be d7 02 ff bd
       0.123196706 0.20787895 -0.14463048 -0.124517135
000140 52 5f 95 3d b8 b6 12 be ca bc f6 bd fa 74 23 bb
       0.072935715 -0.14327514 -0.120477274 -0.002494155
000150 1f 66 3e 3e 34 11 ec bc 76 80 a0 bd 4c d1 21 3d
       0.18593644 -0.028816797 -0.07837002 0.03950624
000160 ea cd 4a 3e 96 c9 12 be 5a 10 2a 3e 01 59 d5 bc
       0.19805112 -0.14334711 0.166078 -0.026043417
000170 82 d5 c3 bd fc 18 77 bb 5e 87 d0 bd 37 7e 20 be
       -0.09562208 -0.00377041 -0.10182069 -0.15673147
000180 41 fd 19 bc c7 97 d8 bd ae f3 f8 3d d9 46 0e 3d
       -0.009398759 -0.10575824 0.12155853 0.034735534
000190 9a 19 50 3e 34 d1 6d bd e7 a9 b3 3d 3c 98 e5 3c
       0.20322266 -0.05806084 0.08772641 0.028026693
0001a0 6a 81 4a 3e 4d 69 e2 bc 5c cd 0e 3e 9b 1d 18 be
       0.1977593 -0.027638102 0.13945526 -0.14855044
0001b0 8c 9b 01 bd 03 46 f3 3d 61 a1 39 3e 66 85 4e 3e
       -0.03164248 0.11878588 0.18127967 0.20168075
0001c0 75 67 dc 3d 3a 24 a4 3d 22 c6 b2 3d 90 1a d6 3d
       0.1076192 0.08014722 0.08729197 0.10454285
0001d0 b3 e4 20 3e 40 15 be 3c 6e bb 70 bd 72 ae c1 3c
       0.15712242 0.023203492 -0.058772497 0.023642752
0001e0 a4 9d 73 3d 8b 93 0a 3e 34 d1 4a 3e a7 15 05 3e
       0.05947651 0.13532846 0.19806367 0.12996541
0001f0 69 95 fd bd 1a 67 dc bd 54 1a 38 be 14 5a 83 3d
       -0.12382013 -0.107618526 -0.17978793 0.064136654

fc.weight f4 [1, 32]
000000 fe ee 6b 3e e0 2d 00 be c4 fe 9c 3d d9 2f c2 bd
       0.23040387 -0.125175 0.0766578 -0.094817825
000010 65 1e 75 3e e6 f7 1b be 2c a4 ed bd 8c 41 e0 bd
       0.23937376 -0.15231284 -0.11603579 -0.10950002
000020 6d 37 62 3c 37 33 6e 3c ba 72 4b bd ea 62 f5 bd
       0.01380716 0.014538578 -0.04966996 -0.11981757
000030 da 39 b3 3d b5 4b 4b 3e 4e 80 ee 3d aa 40 34 3e
       0.08751269 0.19853099 0.11645566 0.17602792
000040 7d 1f d1 3b 63 eb d6 bd 46 06 d4 3d 19 0c de bd
       0.0063819275 -0.10494115 0.10352759 -0.10842151
000050 ab 3c 41 3e 02 af 66 3e 12 f4 16 bd ef 58 92 3d
       0.18870799 0.22527698 -0.036853857 0.07145869
000060 a6 51 b3 3d 48 c6 5e 3d b3 c1 19 be 48 2a 1e be
       0.087558076 0.054388314 -0.15015297 -0.15445817
000070 32 5e e3 3d 74 7c 09 be 91 01 a5 bd 54 2e 25 be
       0.11101951 -0.13426381 -0.080569394 -0.16130954
