models/lstm_model.pt (torch, 57973 bytes, 9 tensors)

lstm.weight_ih_l0 f4 [128, 5]
0	0x3cb44f5d	0.0220105
1	0x3e12318a	0.1427671
2	0x3e51fdb9	0.20506944
3	0xbd1f3d0d	-0.038876582
4	0x3dfb16d7	0.12260216
5	0x3e0c8fd5	0.13726743
6	0xbe277669	-0.16353764
7	0x3e20856f	0.15675901
8	0x3cad0007	0.021118177
9	0x3daf5578	0.08561224
10	0xbd219ff1	-0.039459173
11	0x3d97af8c	0.0740653
12	0x3dd27204	0.10275653
13	0x3d9e156c	0.0771893
14	0x3d5a7142	0.053330667
15	0xbd69e4cf	-0.057102975
16	0xbdee7df3	-0.11645117
17	0x3e036b01	0.12833788
18	0x3e244424	0.16041619
19	0xbcb7e589	-0.022448318
20	0x3e32b60d	0.1745226
21	0x3d76b032	0.060226627
22	0x3c572e08	0.013133533
23	0x3b80f1ac	0.0039350595
24	0x3e434f89	0.19073309
25	0x3d65a735	0.056067664
26	0x3dc01178	0.09378332
27	0x3def5150	0.11685431
28	0x3de3ccf0	0.11123073
29	0x3e55d177	0.20880686
30	0x3cbb20b3	0.02284274
31	0xbd7ebd91	-0.062192503
32	0xbe2b9f9b	-0.16760103
33	0x3d3ecaf8	0.046580285
34	0x3dfb9343	0.12283947
35	0x3e527440	0.20552158
36	0x3e438bad	0.19096251
37	0xbdb92b15	-0.0904142
38	0x3d161dfa	0.03664968
39	0x3d19fe2d	0.037595917
40	0x3e3e90c0	0.18609905
41	0x3e9bc2c5	0.30422035
42	0x3e1c7651	0.15279509
43	0x3eba15a6	0.3634464
44	0x3ec3f548	0.38273072
45	0x3e9f89d3	0.3115984
46	0x3db8757c	0.09006783
47	0xbe26830c	-0.16260928
48	0xbb6fcfa1	-0.0036592262
49	0x3cca3684	0.024684198
50	0x3e428db7	0.18999372
51	0x3c1bbe1c	0.009505775
52	0x3dbb31ca	0.09140356
53	0x3e4b1cbf	0.19835185
54	0x3ea10e6c	0.31456316
55	0x3e44f69d	0.192347
56	0x3e1544b9	0.14576997
57	0x3eeec7ac	0.46636713
58	0x3ea1a925	0.3157436
59	0x3e884795	0.26617113
60	0x3da3118b	0.079623304
61	0x3dad8e87	0.084744506
62	0x3dfd957d	0.12382028
63	0xbe27c114	-0.16382247
64	0x3e0b8a80	0.13627052
65	0x3e2d6f8f	0.16937087
66	0xbdfd6982	-0.1237364
67	0x3e479395	0.19489892
68	0x3d1736a3	0.03691734
69	0xbd83e7ae	-0.06440674
70	0x3dd73b1c	0.10509321
71	0x3c833bd7	0.016019745
72	0x3e198596	0.14992365
73	0x3dd174b6	0.10227339
74	0xbd8a7d14	-0.06762138
75	0x3e676bdf	0.22599743
76	0xbd106441	-0.03525186
77	0xbd4bcafc	-0.049754128
78	0xbd945f52	-0.072447434
79	0xbd28b2c3	-0.041186105
80	0x3dc4afd4	0.09603849
81	0xbdeb545c	-0.114907
82	0xbe1b3909	-0.15158476
83	0x3e2e0a43	0.16996102
84	0x3dfbb5ac	0.122905105
85	0x3eb9534e	0.3619637
86	0x3e8d8080	0.276371
87	0xbdeb341e	-0.1148455
88	0x3e19c1ee	0.15015385
89	0x3e3968b4	0.18106347
90	0x3e54e725	0.207913
91	0x3de9a902	0.11409189
92	0x3e0aeddb	0.13567297
93	0xbdc8313b	-0.09775015
94	0x3d71c091	0.059021536
95	0x3e2b2510	0.16713357
96	0x3e3ef907	0.18649684
97	0x3e185121	0.14874698
98	0x3e2c6fe8	0.16839564
99	0x3e2eb44f	0.1706097
100	0x3e85fcd9	0.2616947
101	0x3d866348	0.06561905
102	0xbd7c0970	-0.061532438
103	0x3e48519d	0.19562383
104	0xbd97eb89	-0.07417972
105	0x3dce0bdd	0.100608565
106	0xbdff2e53	-0.124600075
107	0xbe7053e8	-0.23469508
108	0x3e0c887b	0.13723938
109	0x3dc0f345	0.094214
110	0x3e15d0b4	0.14630395
111	0xbd889f52	-0.06671013
112	0xbe0ae9fd	-0.13565822
113	0x3d7ad289	0.06123594
114	0x3e5d414b	0.21606939
115	0x3e328e51	0.17437102
116	0xbc2d3164	-0.010570858
117	0x3dffa5c5	0.1248279
118	0x3dc09048	0.094025195
119	0xbe0da800	-0.13833618
120	0x3d65ac34	0.05607243
121	0x3daffe18	0.085933864
122	0xbd643d0e	-0.05572229
123	0xbd64ef51	-0.055892292
124	0x3d3b37a1	0.04570735
125	0x3cc74bee	0.024328198
126	0x3e2ced11	0.16887309
127	0x3bc0af33	0.0058802604
128	0xbd48905a	-0.04896579
129	0x3e05c145	0.13062008
130	0xbd3f6d38	-0.04673502
131	0xbcac62c7	-0.021043194
132	0x3a06b314	0.0005138379
133	0x3d7699f0	0.0602054
134	0x3d40b676	0.04704901
135	0xbdadef6f	-0.08492934
136	0x3db49a83	0.08818533
137	0xbe052077	-0.13000666
138	0x3d33bee7	0.04388323
139	0x3e12f3ba	0.14350787
140	0x3e4ae288	0.19812977
141	0x3dd84c00	0.10561371
142	0x3e0533a0	0.13007975
143	0xbdb0af1d	-0.0862715
144	0xbdfe4cd1	-0.12416995
145	0x3e318071	0.17334153
146	0xbcd303fe	-0.02575874
147	0x3c2c42cf	0.010513975
148	0x3d0be7ff	0.034156796
149	0xbe0950cf	-0.13409732
150	0x3e8d6a58	0.27620196
151	0x3ecdf39e	0.40224928
152	0xbde0e9f5	-0.10982124
153	0x3c9ddd32	0.019270513
154	0xbdd32a8c	-0.103108495
155	0xbe0a1832	-0.13485792
156	0x3dfb3395	0.12265698
157	0x3dd2516d	0.10269437
158	0x3e285b32	0.16441038
159	0x3e2be769	0.16787495
160	0xbeb2c60a	-0.34916717
161	0xbf23f769	-0.6404939
162	0x3de1bb54	0.11022058
163	0x3da976d8	0.08274621
164	0x3c51043f	0.01275736
165	0xbdceaf56	-0.100920364
166	0x3c032eda	0.008006776
167	0x3dcc8b49	0.09987504
168	0x3d0cb5ba	0.034352995
169	0xbd4ccb56	-0.049998604
170	0x3e45a933	0.19302826
171	0x3dbbf8a0	0.09178281
172	0x3e1fb1c5	0.15595157
173	0x3db52c76	0.08846371
174	0x3db88705	0.09010128
175	0xbd8cf96e	-0.068835124
176	0x3d1a009d	0.03759824
177	0x3e133b0e	0.14377996
178	0x3e5d313f	0.21600817
179	0x3be8ee86	0.0071085123
180	0xbd52d8a3	-0.051476132
181	0xbd082ffe	-0.033248894
182	0x3d721af2	0.05910773
183	0x3dae0e2f	0.08498799
184	0xbe047857	-0.12936531
185	0x3d2ea7b8	0.042640418
186	0x3e166f83	0.14690976
187	0xbd9e4ddd	-0.07729695
188	0x3c9437e4	0.018093057
189	0x3cb848b9	0.022495614
190	0xbba5a681	-0.005055249
191	0xbe11b8ad	-0.14230604
192	0x3d87fecc	0.066403955
193	0xbd477c4b	-0.04870252
194	0xbe23a9f6	-0.15982804
195	0x3dfab23f	0.12241029
196	0xbd87d511	-0.06632436
197	0x3e424da8	0.18974936
198	0x3dbce1cd	0.092227556
199	0x3cdf95c8	0.027293101
200	0xbe73414b	-0.23755376
201	0xbd9a1da2	-0.07525183
202	0xbe029ff1	-0.12756325
203	0xbdde4523	-0.108530305
204	0xbdbecdb4	-0.093165785
205	0x3df5dc15	0.12004868
206	0xbc80a07f	-0.01570153
207	0x3c38240a	0.011239061
208	0x3d17fe50	0.037107766
209	0xbe102193	-0.14075308
210	0xbd1b9b48	-0.037989885
211	0x3e4fd2b6	0.20295224
212	0x3c0c95cf	0.008580639
213	0x3daf9c02	0.08574678
214	0xbc3f393c	-0.011671361
215	0xbb86f8a0	-0.004118994
216	0xbf1459ff	-0.57949823
217	0xbd3de151	-0.046357457
218	0xbce124ac	-0.027483307
219	0xbe305dc1	-0.17223264
220	0xbdcd2adf	-0.10017943
221	0xbd44bfa6	-0.048034333
222	0x3c72ba65	0.014814948
223	0x3e2ccdd5	0.16875394
224	0x3b43f902	0.002990306
225	0xbd658110	-0.056031287
226	0xbdff157a	-0.12455268
227	0x3df6fe88	0.12060267
228	0x3dd552c9	0.10416181
229	0xbcc97964	-0.024594016
230	0x3e0af55d	0.13570161
231	0xbde08356	-0.1096255
232	0x3d0f9949	0.035058293
233	0xbddaa223	-0.106754564
234	0x3cc3071d	0.023807103
235	0xbd3b2bd8	-0.04569611
236	0x3da5dcb0	0.080987334
237	0x3d83abb2	0.06429233
238	0xbe00698f	-0.12540267
239	0x3e090f54	0.13384753
240	0x3dec7b5d	0.11546967
241	0x3d3e1ed5	0.046416122
242	0xbe5ad6be	-0.2137098
243	0xbc47b68e	-0.0121895205
244	0x3e38b6b7	0.1803845
245	0x3d899678	0.06718153
246	0x3e15fd14	0.14647323
247	0xbc83f8fb	-0.016109934
248	0x3ca3a415	0.019975701
249	0x3e084de5	0.13310964
250	0x3d4933be	0.04912161
251	0xbd5f6fdd	-0.05455004
252	0xbd882f3e	-0.06649636
253	0xbd9d92eb	-0.07694038
254	0xbd9f195e	-0.0776851
255	0x3e1563bb	0.14588825

lstm.weight_hh_l0 f4 [128, 32]
0	0xbe605216	-0.21906313
1	0xbe4fadad	-0.20281096
2	0x3f00e875	0.503547
3	0x3f40ccc8	0.7531247
4	0xbe6baba3	-0.23014693
5	0x3f306d4e	0.68916786
6	0xbdfeb808	-0.12437445
7	0xbe579788	-0.21053898
8	0xbea803d6	-0.32815427
9	0x3ec62782	0.38702017
10	0x3eae7d79	0.34080103
11	0x3e97ab9b	0.29623112
12	0x3dd09250	0.10184157
13	0xbf1009b7	-0.56264824
14	0x3edf6937	0.4363496
15	0xbe2119b5	-0.15732463
16	0x3ef44910	0.47711992
17	0xbed2f490	-0.4120221
18	0x3eb3321f	0.34999177
19	0x3ce94c91	0.028478893
20	0xbe5aaa83	-0.21354108
21	0xbe0ab837	-0.13546835
22	0xbdf15c4d	-0.11785183
23	0xbe2994d8	-0.16560686
24	0x3eca010a	0.39453918
25	0xbf08297e	-0.5318831
26	0x3f186957	0.59535736
27	0x3e36d5ce	0.17854998
28	0x3eb7ea98	0.35921168
29	0x3f04471c	0.51671004
30	0xbea8ba94	-0.32954848
31	0xbeae2234	-0.3401047
32	0x3d857725	0.06516866
33	0x3dd8b6f0	0.105817676
34	0xbc8cfec1	-0.01721132
35	0x3d8eec06	0.06978612
36	0xbda513b6	-0.080604
37	0xbcb82eb2	-0.022483204
38	0xbe34e134	-0.17664033
39	0xbd8fa291	-0.07013429
40	0xbe0bec62	-0.13664392
41	0xbd8861b5	-0.06659261
42	0xbd9f320a	-0.07773216
43	0xbe0cf389	-0.13764776
44	0x3c2b3fbe	0.010452209
45	0xbe23fc5e	-0.16014239
46	0xbcbabf25	-0.022796223
47	0x3e114e7d	0.14190097
48	0xbd7fe68c	-0.062475726
49	0xbd93ea69	-0.072224446
50	0xbe168670	-0.14699721
51	0x3d7f3d6f	0.062314447
52	0xbd1f231b	-0.03885184
53	0xbd7ba122	-0.061432965
54	0xbcff4596	-0.03116111
55	0x3de1e6b6	0.11030333
56	0x3ae3f41c	0.0017391476
57	0x3ddabdd3	0.10680737
58	0x3e19f3e0	0.15034437
59	0xbdb8efda	-0.09030123
60	0xbe148c9f	-0.14506768
61	0xbe10178b	-0.14071481
62	0x3dc97d77	0.09838384
63	0xbceba131	-0.028763385
64	0x3e1f59f3	0.15561657
65	0x3db1eeb8	0.0868811
66	0xbdd71f6a	-0.10504039
67	0xbddfb1dd	-0.109225966
68	0x3dcd50f2	0.10025205
69	0x3d6a755e	0.057240836
70	0xbd8dae26	-0.06917982
71	0xbdbab459	-0.0911643
72	0x3db0f2a6	0.086400315
73	0x3e066d76	0.13127694
74	0x3dfc5ff1	0.12322987
75	0xbe5f7783	-0.21822934
76	0xbd32bcfd	-0.043637265
77	0xbde76839	-0.11299176
78	0x3e478e37	0.19487844
79	0x3db8e976	0.09028904
80	0x3d5348aa	0.05158297
81	0xbdb17b39	-0.08666081
82	0x3e4eac9f	0.20183037
83	0x3e34f5f3	0.17671947
84	0xbd0857fb	-0.03328703
85	0xbda4ee79	-0.080532975
86	0xbe13e78b	-0.14443795
87	0x3d52d136	0.05146905
88	0x3e081c3e	0.13292024
89	0xbe44cd8b	-0.19219033
90	0x3e19a7d4	0.15005428
91	0xbae78ece	-0.001766646
92	0x3e45d6e3	0.19320254
93	0x3d780c35	0.060558517
94	0x3dc5fbcc	0.09667167
95	0xbe65b381	-0.22431757
96	0x3ece9f6a	0.40355998
97	0xbd92aab3	-0.071614645
98	0xbc4c972c	-0.012487214
99	0x3e0c9c37	0.13731466
100	0xbd83185c	-0.064011306
101	0xbc21443f	-0.009842931
102	0xbd8f5595	-0.06998745
103	0xbe7282f8	-0.23682773
104	0xbdcfc00d	-0.10144053
105	0x3cc45faf	0.023971407
106	0xbe2c613a	-0.16833964
107	0xbe500e83	-0.20318036
108	0xbc29b003	-0.010356906
109	0x3db89e45	0.090145625
110	0x3dab6abe	0.08369969
111	0xbe3b0b26	-0.18265972
112	0x3d8d89cd	0.06911049
113	0xbdc3d397	-0.09561842
114	0xbd55fc88	-0.052242786
115	0xbde806d8	-0.1132943
116	0x3dc74cc5	0.097314395
117	0x3dd879dd	0.105701186
118	0xbd5a2426	-0.05325713
119	0xbe4171f5	-0.18891127
120	0x3d2a892d	0.041634727
121	0x3d87e50e	0.066354856
122	0xbcbc2a27	-0.022969319
123	0x3d6e0ab5	0.05811568
124	0x3c3e0065	0.011596774
125	0x3daf0722	0.08546282
126	0x3daabf64	0.08337286
127	0xbe2183d1	-0.1577294
128	0xbcbf6481	-0.023363354
129	0x3bb843da	0.005623323
130	0x3d1fe26b	0.03903429
131	0x3db43661	0.087994345
132	0x3d3915ff	0.045186993
133	0xbd7a60e2	-0.06112755
134	0x3c1e79c2	0.009672584
135	0x3cb49fb5	0.02204881
136	0x3e509762	0.20370248
137	0xbe2c853a	-0.16847697
138	0xbdb57d11	-0.08861745
139	0xbb2628b5	-0.0025353853
140	0xbe20a2c2	-0.15687087
141	0xbe3b0617	-0.18264042
142	0xbdc0dc6a	-0.09417041
143	0x3b1d3ebf	0.0023993698
144	0x3d1806af	0.03711575
145	0xbca30d7d	-0.019903893
146	0x3dfa522e	0.12222706
147	0xbdd4e9ae	-0.10396133
148	0xbda177aa	-0.07884152
149	0xbc798161	-0.0152286
150	0x3df6c094	0.1204845
151	0xbdf83cb8	-0.12120956
152	0xbdb12e30	-0.08651388
153	0xbe2f2fad	-0.1710803
154	0xbd003a15	-0.03130539
155	0xbe0ba189	-0.1363584
156	0xbc7ae853	-0.0153141795
157	0xbda163f4	-0.07880393
158	0xbc74517b	-0.014912005
159	0xbe34d0eb	-0.17657821
160	0x3c537cba	0.012908155
161	0x3d407ee9	0.04699603
162	0x3e04de9a	0.12975541
163	0x3d105f3c	0.035247073
164	0xbe45393b	-0.19260113
165	0xbaeac1ed	-0.0017910578
166	0x3b614b4b	0.0034377153
167	0xbd9e7965	-0.07737998
168	0xbde24d70	-0.11049926
169	0xbdef70ad	-0.11691413
170	0xbcb4fa7f	-0.022092102
171	0xbdc66cf4	-0.0968875
172	0xbdcd2bb6	-0.10018103
173	0xbe32ec58	-0.1747297
174	0x3e0b412d	0.13599081
175	0xbe4f954e	-0.20271799
176	0xbc98c46e	-0.018648352
177	0xbd909888	-0.07060343
178	0xbb62de65	-0.003461742
179	0xbbfeb006	-0.0077724485
180	0xbda95933	-0.082689665
181	0xbe6be1ef	-0.23035406
182	0x3e1bee30	0.1522758
183	0x3bdd30cd	0.0067502023
184	0xbd9d1c27	-0.07671385
185	0xbe4100bf	-0.18847941
186	0xbc3a4c3a	-0.011370713
187	0x3ca7b749	0.02047314
188	0x3e5074ec	0.20357102
189	0x3d960634	0.07325402
190	0xbd9921c1	-0.07477141
191	0xbdfd426b	-0.12366184
192	0xbd5cf5db	-0.053945404
193	0x3e15c56b	0.1462609
194	0xbde36bc2	-0.111045375
195	0xbe1d2e92	-0.15349796
196	0xbe6e59ca	-0.2327644
197	0x3bc86d2a	0.006116529
198	0xbd02b254	-0.03190835
199	0xbdaa639f	-0.083197825
200	0xbe004bd7	-0.1252893
201	0x3cdf8ed2	0.027289782
202	0x3cffd559	0.031229662
203	0xbe650147	-0.22363769
204	0x3c89c97d	0.01681971
205	0xbdef87f7	-0.11695855
206	0x3d05a813	0.03263099
207	0x3e3ad05b	0.18243544
208	0x3e5952d1	0.21222998
209	0x3d80de96	0.06292455
210	0x3dc77ec5	0.09740976
211	0xbe0518d8	-0.12997758
212	0x3d40fc69	0.047115717
213	0x3dc5ecac	0.09664282
214	0x3dfdc8d7	0.12391823
215	0x3e05eabe	0.13077828
216	0x3dce08fb	0.10060307
217	0xbe3794bf	-0.17927836
218	0x3d55e2ca	0.052218236
219	0xbd558b9a	-0.052135088
220	0x3bf8ed3f	0.0075966413
221	0xbe17d681	-0.1482792
222	0xbe66a0ec	-0.22522324
223	0x3e502fba	0.20330706
224	0xbdabd10d	-0.08389483
225	0xbe9c81cf	-0.30567786
226	0x3dfe4c11	0.12416852
227	0x3e4c37dd	0.19943185
228	0xbdaf3ed1	-0.08556903
229	0x3e99ab69	0.30013588
230	0xbd3c31b6	-0.045945846
231	0x3e1cc474	0.15309316
232	0xbd686ef9	-0.056746457
233	0x3e56a001	0.20959474
234	0xbedd90e9	-0.4327462
235	0xbe36fdec	-0.17870301
236	0x3e33a0d9	0.17541827
237	0xbd1847e5	-0.03717794
238	0x3e13c840	0.14431858
239	0xbe044693	-0.12917547
240	0x3e904e22	0.2818461
241	0xbe605251	-0.21906401
242	0x3ea5e5c5	0.32401863
243	0x3e6f0ce3	0.2334476
244	0x3e86baef	0.26314494
245	0xbdd10e4e	-0.102078065
246	0xbe9c8cef	-0.30576274
247	0xbeb1ea91	-0.34749272
248	0x3d5f0064	0.054443732
249	0xbea6fd43	-0.32615098
250	0x3df2e55b	0.11860152
251	0xbe9d90a2	-0.3077441
252	0x3eae9fd6	0.3410632
253	0x3d8cf173	0.0688199
254	0xbe29e317	-0.16590534
255	0xbd4d656a	-0.050145544

lstm.bias_ih_l0 f4 [128]
0	0x3d92a44d	0.07160244
1	0xb9b64445	-0.0003476461
2	0x3c9df3f6	0.019281369
3	0x3e32b167	0.17450486
4	0x39de118f	0.00042356222
5	0xbdb5d10a	-0.08877762
6	0x3dffb38e	0.12485419
7	0x3e993d1f	0.29929444
8	0x3ed3d9c4	0.4137708
9	0x3e59ec82	0.21281627
10	0x3c5fede8	0.013667561
11	0x3ef59ec3	0.47972688
12	0x3c142a0b	0.009043227
13	0x3bdececb	0.006799554
14	0x3df4c430	0.11951482
15	0xbcc4b3fa	-0.0240116
16	0xbe06f125	-0.13177927
17	0x3df7af4e	0.120939836
18	0xbdc34ef3	-0.09536543
19	0x3e24ef98	0.16107023
20	0xbcd1022e	-0.025513735
21	0x3d07d84e	0.03316527
22	0xbc9fc6f4	-0.019504048
23	0x3e1b22ea	0.15150037
24	0xbd36dc02	-0.04464341
25	0x3da55639	0.08073086
26	0xbdd7ecc1	-0.10543204
27	0xbdb2236b	-0.08698162
28	0xbe13fc98	-0.14451826
29	0xbdf26c4b	-0.118370615
30	0x3e2746d4	0.16335613
31	0x3dc49e14	0.096004635
32	0x3deea64d	0.11652813
33	0x3e37bd92	0.17943409
34	0x3e35dc34	0.17759782
35	0x3c20571d	0.009786394
36	0x3b149307	0.0022670643
37	0x3e32007f	0.17383002
38	0x3d0c6694	0.034277514
39	0xbd8d9e4c	-0.06914958
40	0xbdd456bb	-0.10368105
41	0xbd1d37df	-0.03838336
42	0x3cc6ca29	0.02426632
43	0xbe7bcc5c	-0.24589676
44	0xbd472398	-0.04861793
45	0x3e1aac15	0.15104707
46	0x3d904d92	0.07046045
47	0x3e2cca20	0.1687398
48	0xbda641d6	-0.08118026
49	0x3e23ec95	0.16008218
50	0x3d9b8305	0.07593349
51	0x3c1eb629	0.009686985
52	0xbe2fc38b	-0.17164437
53	0x3d176550	0.036961854
54	0xbe427eb7	-0.1899365
55	0xbe0edeab	-0.13952129
56	0xbc9a11ba	-0.01880728
57	0xbd8faf8e	-0.07015906
58	0xbdc8afc0	-0.09799147
59	0x3e1d47f0	0.15359473
60	0xbd52876b	-0.051398676
61	0xbbe0c727	-0.0068596783
62	0x3e4295ed	0.19002505
63	0xbe05d7a3	-0.1307054
64	0xbe385547	-0.1800128
65	0xbd36d097	-0.04463252
66	0x3e2655c2	0.16243652
67	0x3ca2aed7	0.01985876
68	0x3dff5d3f	0.12468957
69	0x3db974a7	0.09055453
70	0xbdea8a5b	-0.114521705
71	0x3dc966e7	0.0983408
72	0xbde01cb3	-0.10942974
73	0x3d6117af	0.054954227
74	0xbd6b98af	-0.057518657
75	0x3e00b199	0.12567748
76	0xbcb44bc0	-0.022008777
77	0xbd46aa4f	-0.048502263
78	0x3e3e9201	0.18610384
79	0xb99cab0d	-0.0002988208
80	0x3d148f96	0.036269747
81	0xbe0f095b	-0.13968413
82	0x3e34a4e7	0.1764103
83	0x3d5e83e9	0.054325018
84	0xbd411326	-0.047137402
85	0x3bebccf2	0.0071960622
86	0xbddfa62f	-0.10920369
87	0xbe01818e	-0.12647077
88	0x3e526592	0.20546558
89	0x3d959ae5	0.073049344
90	0xbc9eff7c	-0.019408934
91	0xbdb1c47f	-0.08680057
92	0x3e1f0dcd	0.15532608
93	0x3dc4fb4d	0.09618244
94	0xbe10cc2a	-0.14140382
95	0x3c843268	0.016137317
96	0x3e68e4f2	0.22743586
97	0x3ca3c50a	0.019991416
98	0xbbb9cff2	-0.005670541
99	0x3de70832	0.1128086
100	0xbc6be83c	-0.014398631
101	0xbdd18191	-0.10229791
102	0xbd22b647	-0.039724614
103	0x3e958ae9	0.29207543
104	0x3e432b6a	0.1905953
105	0x3d022432	0.0317728
106	0x3e670b96	0.22563013
107	0x3e928d4f	0.28623435
108	0x3d37e505	0.044896144
109	0x3e328202	0.17432407
110	0x3d749381	0.059710983
111	0x3d125eca	0.03573493
112	0x3d607c91	0.054806296
113	0x3e811f59	0.2521923
114	0xbb506bd9	-0.0031802563
115	0xbd0cff13	-0.034422945
116	0xbd5ca94d	-0.053872395
117	0xbe0e9fac	-0.13928097
118	0xbd03751b	-0.032094102
119	0xbdc6d1af	-0.09707963
120	0xbe173c6f	-0.14769147
121	0x3a07caf5	0.0005180084
122	0xbcaa0bdc	-0.020757608
123	0x3db56ee4	0.08859041
124	0xbd8d5766	-0.069014356
125	0x3dd8e6b5	0.10590879
126	0xbbdeb10a	-0.006796007
127	0x3e1b8e7f	0.15191077

lstm.bias_hh_l0 f4 [128]
0	0x3de7b5d8	0.11313981
1	0xbda4845e	-0.080330595
2	0x3e23c431	0.1599281
3	0xbda6b300	-0.0813961
4	0xbd59fad3	-0.05321772
5	0xbdcfe6a2	-0.101514116
6	0x3dca2d7e	0.09871958
7	0x3e96d00e	0.29455608
8	0x3e839e59	0.25706747
9	0x3e5f2d07	0.2179452
10	0x3dd71561	0.105021246
11	0x3e7bcc1c	0.2458958
12	0x3dd9c0a9	0.1063245
13	0x3a39e50d	0.0007091321
14	0x3dc9af65	0.09847907
15	0xbe04da85	-0.12973984
16	0xbd331386	-0.04371979
17	0x3d8dca07	0.06923299
18	0x3d9003bf	0.070319645
19	0x3c504db4	0.012713838
20	0x3e0d8edb	0.13824026
21	0x3d1fe0aa	0.039032616
22	0x3d1aad76	0.03776308
23	0x3e100c39	0.14067163
24	0xbbc20329	-0.005920787
25	0x3d5d9217	0.0540944
26	0x3e1faf0b	0.15594117
27	0xbd8b2e3b	-0.06795927
28	0xbe185a9e	-0.14878318
29	0x3e4dabe5	0.20085104
30	0x3e111dd6	0.14171538
31	0x3dd6ca6a	0.10487826
32	0xbe12113d	-0.14264388
33	0x3e1fb3f4	0.1559599
34	0x3e0a4449	0.13502611
35	0x3e34c934	0.17654878
36	0xbe1acbf8	-0.1511687
37	0x3c557912	0.013029354
38	0xbe3aa945	-0.18228634
39	0xbc513b57	-0.012770495
40	0xbe46820d	-0.19385548
41	0x3d32cfb7	0.043655124
42	0xbdc287c4	-0.094985515
43	0xbe4f39e3	-0.20236926
44	0xbdb1ab67	-0.086752705
45	0x3e2f7b99	0.17136993
46	0x3ceaf91b	0.028683236
47	0x3e07b056	0.1325086
48	0x3def32c0	0.11679602
49	0xbd31a014	-0.043365553
50	0x3e29d71a	0.16585961
51	0x3d928343	0.071539424
52	0xbe355fb4	-0.17712289
53	0x3da7c877	0.081925325
54	0x3d23f641	0.040029768
55	0xbd1acca4	-0.037792817
56	0xbd0022a2	-0.03128303
57	0xbd768113	-0.06018169
58	0x3db3bbe8	0.08776075
59	0x3bec2576	0.007206614
60	0x3e1f7f1b	0.1557583
61	0x3e0be64e	0.13662073
62	0x3c675aff	0.014120816
63	0x3e156faf	0.14593385
64	0x3e144d67	0.14482652
65	0xbe222c8a	-0.15837303
66	0x3c88eb46	0.01671375
67	0xbc998a7b	-0.01874279
68	0xbda873c3	-0.08225205
69	0x3e005449	0.12532152
70	0xbe1f50a5	-0.15558107
71	0x3d0e3c5e	0.03472554
72	0xbda74ab3	-0.081685446
73	0x3dc67ea9	0.09692127
74	0x3dbd334c	0.092383
75	0xbdaf9dc4	-0.08575013
76	0x3e287f13	0.16454725
77	0xbe0de2ea	-0.13856092
78	0xbc7a6f07	-0.01528526
79	0xbe1a0a35	-0.15042956
80	0x3d1c156a	0.03810636
81	0x3d847b3c	0.064688176
82	0x3e481077	0.19537531
83	0xbde28d4e	-0.11062108
84	0x3e04206c	0.12902993
85	0xbe0d789b	-0.13815539
86	0xbdc65a35	-0.096851744
87	0x3e21a208	0.15784466
88	0x3e0a229e	0.13489768
89	0xbe6204e7	-0.22072183
90	0x3d753875	0.059868295
91	0x3d94ec17	0.07271593
92	0x3cc068b2	0.023487423
93	0xbcc1088b	-0.023563644
94	0x3de2a0df	0.1106584
95	0xbe1c32bc	-0.15253729
96	0x3eb845ae	0.3599066
97	0x3cb7b61e	0.022425707
98	0xbdd87ead	-0.105710365
99	0x3db21ab2	0.08696498
100	0xbc4950b0	-0.012287304
101	0xbda3848d	-0.079842664
102	0x3d204b2f	0.0391342
103	0x3de4cdab	0.111720406
104	0x3e82fa22	0.2558146
105	0x3cdc3c44	0.026884206
106	0x3c2e76c5	0.010648434
107	0x3ebb931d	0.36635676
108	0xbe14966e	-0.1451051
109	0xbe0fdcca	-0.14049068
110	0x3d0d5a33	0.03450985
111	0x3dc213f0	0.09476459
112	0x3c1daea0	0.009624153
113	0x3e57e7bc	0.21084493
114	0xbe0c8312	-0.13721874
115	0xbdfa5ec3	-0.122251056
116	0xbbf00858	-0.0073252134
117	0xbcd0ed9b	-0.025503924
118	0xbd476ddb	-0.04868875
119	0x3d4bed1c	0.049786672
120	0xbdc49386	-0.0959845
121	0xbcdd87a1	-0.027042212
122	0x3e470494	0.1943534
123	0x3dbb4f1a	0.09145947
124	0x3e54069f	0.20705651
125	0x3d22aa51	0.039713208
126	0x3e484345	0.19556911
127	0xbdd04e11	-0.1017114

lstm.weight_ih_l1 f4 [128, 32]
0	0xbe44df30	-0.19225764
1	0x3d74ec1d	0.059795488
2	0xbde26dac	-0.110560745
3	0xbda29f96	-0.07940595
4	0xbe390a70	-0.18070388
5	0x3d446b3a	0.04795382
6	0xbdb0e4a1	-0.086373575
7	0xbdaf5d6c	-0.08562741
8	0x3df81c70	0.12114799
9	0xbe2ed3db	-0.17073004
10	0x3e376e20	0.17913103
11	0x3e00da98	0.12583387
12	0x3d677583	0.056508552
13	0x3e224e6c	0.15850228
14	0xbd07b8d1	-0.03313524
15	0xbde0abbb	-0.10970255
16	0xbd0afbd0	-0.033931553
17	0x3e1633e7	0.14668237
18	0xbe4d879e	-0.20071265
19	0xbcd82cd2	-0.02638856
20	0x3df1e647	0.118115
21	0xbd2059e5	-0.03914823
22	0xbe0da21a	-0.13831368
23	0xbd160648	-0.036627084
24	0x3cfb0c59	0.030645536
25	0x3d277da9	0.040891323
26	0xbdc8c9dc	-0.098041266
27	0x3d50b253	0.050951313
28	0xbe0d2081	-0.1378193
29	0xbe5e44ce	-0.21705934
30	0x3ddac344	0.10681775
31	0xbc802e6b	-0.015647134
32	0xbc98eb7a	-0.018666971
33	0xbe12e514	-0.14345199
34	0xbdc080e4	-0.09399584
35	0xbd44bb17	-0.048029985
36	0x3d95db3c	0.07317206
37	0xbc8b9f32	-0.017043684
38	0x3e34d70c	0.17660159
39	0xbdcec343	-0.10095837
40	0xbde6c306	-0.112676665
41	0xbc8906af	-0.01672682
42	0x3d5308b3	0.051521968
43	0x3d716d6e	0.05894225
44	0xbdb363d5	-0.08759276
45	0x3e12122c	0.14264745
46	0x3c3e511e	0.0116160195
47	0x3e2fbdb1	0.17162205
48	0xbde88a10	-0.11354458
49	0xbb9c86b9	-0.0047768024
50	0xbe15ee05	-0.14641578
51	0xbbe939b6	-0.0071174754
52	0xbdff55c3	-0.124675296
53	0x3e3a1216	0.18170962
54	0x3ce8e78b	0.02843072
55	0xbc927b8b	-0.017881176
56	0xbe35a581	-0.17738916
57	0xbd45b121	-0.048264626
58	0x3d893bd2	0.06700863
59	0x3e45a52a	0.19301286
60	0x3e0d5de6	0.1380535
61	0xbd9d3418	-0.07675952
62	0x3d32e553	0.043675732
63	0xbe2591ce	-0.16168901
64	0xbe6083d4	-0.21925288
65	0xbd98623e	-0.07440613
66	0xbe250f05	-0.16119011
67	0xbdc910b6	-0.098176405
68	0x3ce657b3	0.02811799
69	0xbc552112	-0.013008373
70	0xbe100154	-0.14063007
71	0xbbb3cb3a	-0.005486873
72	0xbd760809	-0.060066257
73	0xbd78db5f	-0.060756084
74	0xbd6dfdaf	-0.05810326
75	0xbdd5fc63	-0.104485296
76	0xbcfe63d4	-0.031053461
77	0x3cd9b211	0.026574166
78	0x3dd6f069	0.10495073
79	0xbd231402	-0.039814003
80	0x3dd6d90f	0.104906194
81	0xbd2dba20	-0.04241383
82	0x3e052234	0.13001329
83	0x3d318b71	0.043345872
84	0xbd72d8d8	-0.05928883
85	0x3d9593c8	0.07303578
86	0xbe2d38ac	-0.1691615
87	0x3d8661e2	0.065616384
88	0x3cc11f3f	0.02357447
89	0x3d8ce5ba	0.06879754
90	0x3d7ec5ae	0.06220024
91	0x3e369b57	0.17832695
92	0x3d9aff5c	0.07568237
93	0xbdeac3d4	-0.114631325
94	0x3e46a7e7	0.19399987
95	0x3e05d2de	0.1306872
96	0xbd5872e6	-0.05284395
97	0xbe0c0029	-0.13671936
98	0x3e1dee26	0.15422878
99	0x3da632b1	0.08115137
100	0xbd5a354c	-0.053273484
101	0xbdf498c1	-0.11943198
102	0x3cdfb96b	0.027310094
103	0xbd980d1c	-0.074243754
104	0x3da657e7	0.08122235
105	0x3e1add1e	0.15123412
106	0xbc984743	-0.018588668
107	0xbdf6eaca	-0.12056501
108	0xbb0ae61d	-0.0021194287
109	0xbe2e4521	-0.17018558
110	0xbde82642	-0.11335422
111	0x3d632cfd	0.055462826
112	0x3df84c12	0.12123884
113	0xbdf42a31	-0.1192211
114	0xbde4981e	-0.111618266
115	0x3e0b61d9	0.13611545
116	0xbd1f59e2	-0.03890408
117	0xbda7e458	-0.0819785
118	0xbe9256fb	-0.28581986
119	0x3d73924c	0.05946569
120	0xbd5a7773	-0.053336572
121	0x3db0f168	0.086397946
122	0x3d90a461	0.07062603
123	0xbcf7c3e2	-0.030244771
124	0xbd857224	-0.06515911
125	0x3ca19ca6	0.019728016
126	0xbd5ff9c9	-0.054681573
127	0xbd20941d	-0.03920375
128	0x3ea21b64	0.31661522
129	0xbe277238	-0.16352165
130	0xbbe46354	-0.0069698486
131	0xbce82409	-0.028337495
132	0xbe1104ce	-0.14161989
133	0x3d882ab3	0.06648769
134	0x3e827cc0	0.25485802
135	0xbe021ce4	-0.12706333
136	0x3f22ee45	0.6364482
137	0xbb0640bd	-0.0020485364
138	0xbc01a8a0	-0.0079137385
139	0xbe9524a0	-0.29129505
140	0xbcdbb9b5	-0.02682195
141	0xbcd065ae	-0.02543911
142	0xbdb73ecf	-0.08947527
143	0x3dc17717	0.09446543
144	0x3d6c2614	0.0576535
145	0xbd6c48f3	-0.057686757
146	0xbd94408f	-0.07238876
147	0xbddae7be	-0.106887326
148	0x3e5b9fbb	0.21447651
149	0xbdf40386	-0.119147345
150	0xbdae1c5e	-0.08501504
151	0x3cba6790	0.02275446
152	0x3c1a634d	0.009423089
153	0x3d552bef	0.05204385
154	0xbc459fd4	-0.012062032
155	0x3e24a7ef	0.16079687
156	0x3e4b571c	0.19857448
157	0xbd9811ed	-0.07425294
158	0x3d1ddb9b	0.03853951
159	0xbde8abbd	-0.113608815
160	0xbdb909ff	-0.0903511
161	0x3e4ccad9	0.19999255
162	0xbda01bb8	-0.07817787
163	0x3c4bfbba	0.012450153
164	0x3e149681	0.14510538
165	0x3cf1b2d5	0.02950422
166	0xbe10a7f6	-0.14126572
167	0x3df00284	0.1171923
168	0xbd594bf9	-0.05305097
169	0x3d07ccfb	0.03315447
170	0x3dfb4c91	0.12270463
171	0xbd881a4d	-0.066456415
172	0x3d55e311	0.0522185
173	0x3e28d24b	0.1648647
174	0xbd8f41cd	-0.069949724
175	0xbb8abcec	-0.004233947
176	0xbda51b6f	-0.08061873
177	0xbd01d993	-0.031701636
178	0xbdb6e34a	-0.08930071
179	0x3d815897	0.06315725
180	0xbe504727	-0.20339642
181	0x3e4dce2b	0.20098178
182	0x3e1d01da	0.15332738
183	0x3d9db01c	0.07699606
184	0x3d50af0e	0.050948195
185	0xbd813c06	-0.06310277
186	0xbdff92d5	-0.12479178
187	0x3df5615a	0.11981459
188	0xbdf343d1	-0.11878169
189	0xbc6b294e	-0.0143531095
190	0x3e1472e5	0.14496954
191	0xbdd75520	-0.10514283
192	0x3e5aeed3	0.21380167
193	0xbd4eeacf	-0.0505169
194	0x3d6db52d	0.05803411
195	0xbd7a907b	-0.061172944
196	0xbc8c5bea	-0.017133672
197	0xbcde6bf9	-0.027151095
198	0xbe496c1e	-0.1967015
199	0xbe98a201	-0.298111
200	0xbdbcbaf7	-0.09215348
201	0x3d4038d5	0.0469292
202	0xbd5cc47d	-0.053898323
203	0xbcfe8e5e	-0.031073745
204	0xbd993017	-0.074798755
205	0xbe19f4c7	-0.15034781
206	0xbd358f04	-0.044325843
207	0xbd38d59f	-0.0451256
208	0x3e2fd75a	0.17171994
209	0xbe0d9593	-0.1382659
210	0x3d779e77	0.06045386
211	0x3e194899	0.149691
212	0x3e60ba90	0.21946168
213	0xbe3f760d	-0.18697377
214	0xbe4014d6	-0.18757948
215	0xbe210bd7	-0.15727173
216	0x3dfc7683	0.12327292
217	0x3e0571e7	0.13031732
218	0x3dfc136f	0.12308394
219	0x3d340fa5	0.043960232
220	0xbd6b0665	-0.057379145
221	0x3d70fa7a	0.058832623
222	0xbe08fbb7	-0.13377272
223	0xbc8ea9e6	-0.017414998
224	0xbbb4feff	-0.005523562
225	0x3d771096	0.060318552
226	0xbe1f4784	-0.15554625
227	0x3d9d33d7	0.07675903
228	0x3cd9884c	0.02655425
229	0xbe151d11	-0.14561869
230	0x3d869e28	0.06573135
231	0x3e9e88f4	0.30963862
232	0xb97b6150	-0.00023973477
233	0xbda04c2b	-0.07827028
234	0xbd24b78c	-0.040214106
235	0x3e149925	0.14511545
236	0xbcf9809a	-0.03045683
237	0xbdb059ee	-0.08610903
238	0xbe557425	-0.20845087
239	0x3e12ba76	0.14328942
240	0xbe3505c6	-0.17677984
241	0xbda9b1b7	-0.082858495
242	0x3d924216	0.07141511
243	0x3c42b233	0.011883306
244	0xbe441ff1	-0.1915281
245	0x3d892aff	0.06697654
246	0xbd87e178	-0.066348016
247	0xbe28926f	-0.1646211
248	0xbe0bf29f	-0.13666771
249	0x3e2f0585	0.1709195
250	0xbe35ee26	-0.17766628
251	0xbcd00b88	-0.025396124
252	0x3df8bad6	0.12145011
253	0x3d3afbee	0.045650415
254	0x3c04361c	0.008069541
255	0x3d4491b6	0.047990523

lstm.weight_hh_l1 f4 [128, 32]
0	0xbc9b3f1c	-0.018950991
1	0x3e16cc12	0.14726284
2	0x3d4ee053	0.0505069
3	0x3d212857	0.03934511
4	0xbd96e4bd	-0.07367847
5	0xbdedfff0	-0.11621082
6	0xbda1c7fe	-0.078994736
7	0x3e1eab4e	0.15495035
8	0xbd5968ed	-0.05307858
9	0x3dce32b5	0.10068265
10	0xbe199e28	-0.15001738
11	0xbdc50092	-0.096192494
12	0x3c9077aa	0.017635185
13	0x3e429d6c	0.19005364
14	0x3e0a7ff0	0.13525367
15	0x3b39163c	0.0028242012
16	0xbd95b9ff	-0.073108666
17	0xbdd3ea98	-0.103474796
18	0xbc68b66b	-0.014203648
19	0xbe2599db	-0.16171972
20	0x3e12cd76	0.1433619
21	0x3df1142d	0.11771426
22	0x3d73a64c	0.059484765
23	0xbc151c41	-0.009100975
24	0x3e121f4d	0.14269753
25	0xbd8f7ffa	-0.070068315
26	0x3df85194	0.12124935
27	0xbe0caf83	-0.13738827
28	0xbe1d5260	-0.15363455
29	0xbde9740b	-0.113990866
30	0x3cb241bd	0.021759862
31	0x3d15d910	0.03658396
32	0xbd41f399	-0.047351453
33	0x3e2101e8	0.15723383
34	0xbd2dd92a	-0.042443432
35	0x3de2f281	0.1108141
36	0x3e3bb3ba	0.18330279
37	0xbdcc0fdb	-0.09963962
38	0x3c03923c	0.00803047
39	0x3dac60fc	0.08416936
40	0x3e16038c	0.1464979
41	0x3c394665	0.011308287
42	0xbe1bb8c5	-0.15207203
43	0xbe2c65fc	-0.16835779
44	0x3e007a51	0.1254666
45	0xbe0d7509	-0.13814177
46	0x3d9c7f44	0.076414615
47	0x3e29dda8	0.16588461
48	0xbe130d00	-0.14360428
49	0x3b08cefb	0.0020875323
50	0x3e301dac	0.17198819
51	0x3dfb334a	0.12265642
52	0xbd887e60	-0.06664729
53	0x3db84f0b	0.08999451
54	0x3d9afebd	0.07568119
55	0x3e12c33d	0.1433229
56	0xbdf463a2	-0.11933066
57	0x3df640ae	0.120240554
58	0xbdb3aa22	-0.08772685
59	0x3b14420b	0.0022622372
60	0x3b87be49	0.004142557
61	0x3e11b62c	0.1422965
62	0xbe161175	-0.14655097
63	0x3e363c13	0.17796354
64	0x3d7846ed	0.060614515
65	0x3d4b15ba	0.049581267
66	0xbd1a3b04	-0.037653938
67	0x3d574d0a	0.052563705
68	0xbd392c83	-0.045208465
69	0xbe21be68	-0.1579529
70	0xbe018a2d	-0.12650366
71	0xbb54f9ee	-0.0032497603
72	0x3df9cf90	0.121977925
73	0xbda3d138	-0.0799889
74	0x3da24b37	0.07924502
75	0xbe0c8a8d	-0.13724728
76	0xbde81a93	-0.11333194
77	0x3d986940	0.0744195
78	0x3da33db9	0.07970757
79	0x3e2ddd24	0.1697889
80	0x3dfc531c	0.12320539
81	0xbe55f989	-0.20895971
82	0x3e086b18	0.13322103
83	0x3cf30b56	0.029668491
84	0x3db50496	0.08838765
85	0xbd9b488b	-0.07582196
86	0x3e2ea674	0.17055684
87	0xbe39be39	-0.1813897
88	0xbe1d3ef6	-0.15356049
89	0x3e0a047f	0.13478278
90	0x3d3043d8	0.04303345
91	0xbd9d95a8	-0.0769456
92	0x3dab169d	0.083539225
93	0xbda1fd0c	-0.07909593
94	0x3cf8ada9	0.030356245
95	0x3dddc125	0.10827855
96	0x3c9a514b	0.018837592
97	0xbcc55866	-0.024090003
98	0xbe02f5f3	-0.12789135
99	0xbe426a5b	-0.18985884
100	0x3ce29d4c	0.027662896
101	0x3e15ec19	0.14640845
102	0xbde91bd0	-0.11382258
103	0xbc4838e6	-0.012220597
104	0x3dc49c87	0.09600168
105	0xbe0c1f27	-0.13683759
106	0x3d37b28c	0.04484801
107	0x3cc2ac5e	0.023763832
108	0xbd5c6bae	-0.05381363
109	0xbe23989c	-0.15976185
110	0x3daa823c	0.083256215
111	0xbd8455fd	-0.064617135
112	0x3db018a2	0.08598448
113	0xbdfe1edf	-0.12408232
114	0x3dda26e0	0.10651946
115	0x3ce8b498	0.028406426
116	0x3c82ae17	0.015952153
117	0x3e22c6ed	0.15896197
118	0xbca9af84	-0.020713575
119	0xbb622275	-0.0034505401
120	0xbe21da3a	-0.15805903
121	0xbe0836ca	-0.1330215
122	0x3dbea5d3	0.09308972
123	0xbdb2c6ff	-0.08729362
124	0x3c7f6ecf	0.015590384
125	0x3e1710b3	0.14752464
126	0xbd992bbf	-0.07479047
127	0x3e0de101	0.13855363
128	0xbd71e7ea	-0.05905906
129	0xbe0d6e1e	-0.13811538
130	0x3dc869d6	0.097858116
131	0x3ddb3b72	0.10704698
132	0x3e5e587c	0.21713442
133	0xbe25d026	-0.16192684
134	0xbdca13c6	-0.09867053
135	0xbe4e4bba	-0.20146075
136	0x3e0ce7d6	0.13760313
137	0x3ca14b77	0.019689305
138	0xbe31c883	-0.17361645
139	0xbd242914	-0.040078238
140	0xbddd9516	-0.108194515
141	0x3df58d51	0.119898446
142	0x3ccfa184	0.025345571
143	0x3d29bfcd	0.04144268
144	0xbd18190f	-0.037133273
145	0xbdecb794	-0.11558452
146	0xbe3cc94f	-0.18436168
147	0x3d8a2ee0	0.06747222
148	0x3ce6cc54	0.028173603
149	0x3df10639	0.11768765
150	0xbd7e6613	-0.062109064
151	0x3d66a519	0.056309793
152	0xbe1950c8	-0.14972222
153	0x3bd9cf6f	0.0066470425
154	0xbd9c1b31	-0.07622374
155	0x3d80b8d8	0.06285256
156	0x3e3e1a28	0.18564665
157	0x3db4e31e	0.08832382
158	0xbdde6f30	-0.10861051
159	0xbd263880	-0.040581226
160	0x3e28e38a	0.1649305
161	0xbde58a4e	-0.1120802
162	0x3e17c3a7	0.14820729
163	0x3d45ce50	0.048292458
164	0xbe521fbe	-0.20519921
165	0xbdbfeef9	-0.09371752
166	0x3df21e36	0.118221685
167	0x3c96164e	0.018321183
168	0x3e077467	0.13227998
169	0x3c57b80b	0.013166438
170	0x3db3329f	0.087498896
171	0xbc5d5a3e	-0.013510285
172	0x3d4df4ca	0.050282277
173	0xbc85ac26	-0.016317438
174	0x3e4b7e5c	0.19872421
175	0x39bef234	0.0003642008
176	0x3e21c698	0.15798414
177	0xbe1a4b7e	-0.1506786
178	0x3e532d70	0.20622802
179	0x3cad8816	0.021183055
180	0x3dbe56a4	0.09293869
181	0x3deb57c3	0.114913486
182	0x3d9654c2	0.07340385
183	0x3e1f8f96	0.15582117
184	0x3dc446f5	0.095838465
185	0xbdd019cf	-0.101611726
186	0xbe2d9535	-0.16951449
187	0xbe4083f8	-0.18800342
188	0x3bc77c05	0.0060877823
189	0x3e008798	0.12551725
190	0xbe093689	-0.1339971
191	0x3e43b966	0.19113693
192	0x3dbd05ff	0.09229659
193	0x3db5db7d	0.08879755
194	0xbe02b32e	-0.12763664
195	0xbd94f2c2	-0.07272865
196	0xbcefa94f	-0.029255537
197	0x3e16182c	0.14657658
198	0xbe129553	-0.14314775
199	0x3e05d783	0.13070492
200	0xbdeb26aa	-0.11481984
201	0xbe0d4723	-0.13796668
202	0x3cb22876	0.021747809
203	0x3d80c2ae	0.06287132
204	0xbd137833	-0.036003303
205	0xbe53bfb2	-0.20678595
206	0xbdd57590	-0.10422814
207	0xbe1612a5	-0.1465555
208	0xbc2d9e36	-0.010596802
209	0x3db03536	0.08603899
210	0xbba36f2f	-0.0049876194
211	0x3e2e0349	0.1699344
212	0xbe51ed7c	-0.2050075
213	0xbdebd534	-0.11515275
214	0x3d8825da	0.066478446
215	0xbd6affcb	-0.05737285
216	0x3dafbb3b	0.08580633
217	0x3b66c760	0.0035214052
218	0xbd727b25	-0.05919947
219	0x3ca65415	0.020303765
220	0xbd3beaf4	-0.045878366
221	0x3c6f4d60	0.01460585
222	0xbdc7e224	-0.0975993
223	0xbe043fb1	-0.12914921
224	0xbdca865d	-0.09888909
225	0xbe446cde	-0.19182155
226	0x3b957768	0.0045613535
227	0x3b9dc9bd	0.004815309
228	0xbd80875c	-0.06275818
229	0xbe20c6bf	-0.15700816
230	0x3e1a5d37	0.15074621
231	0x3c5e4ee5	0.013568615
232	0x3e057501	0.13032915
233	0xbd38c8e4	-0.04511346
234	0x3d87fdfd	0.06640241
235	0xbcf8b207	-0.030358328
236	0x3df12a5e	0.11775659
237	0xbd1100fe	-0.035401337
238	0xbdedfc43	-0.11620381
239	0xbda3356a	-0.07969172
240	0x3e1ec9c6	0.15506658
241	0xbe20d25a	-0.15705243
242	0x3e4ea72a	0.20180956
243	0x3dc37f1d	0.09545729
244	0x3d637128	0.055527836
245	0x3dd02658	0.101635635
246	0xbddeb042	-0.10873462
247	0xbd90abaa	-0.07063992
248	0xbd15fe60	-0.036619544
249	0xbd6ad9d2	-0.057336636
250	0x3e25a3c6	0.16175756
251	0xbde736ae	-0.11289726
252	0x3c98f570	0.018671721
253	0xbdc2f43d	-0.09519241
254	0xbe52efab	-0.20599239
255	0xbe150f51	-0.14556624

lstm.bias_ih_l1 f4 [128]
0	0x3b2d9d1a	0.0026491345
1	0x3da3167a	0.079632714
2	0xbd31aaec	-0.043375894
3	0x3d93e0d2	0.072206154
4	0x3e10895e	0.14114901
5	0xbd4ce9ee	-0.05002778
6	0x3d5f76fb	0.054556828
7	0xbdd5fe33	-0.10448875
8	0xbd43b8af	-0.04778355
9	0xbde5f8a4	-0.11229065
10	0xbdcefb97	-0.10106581
11	0x3e502128	0.20325148
12	0x3e1afe6e	0.1513612
13	0xbbc91651	-0.0061366935
14	0x3e095f43	0.13415246
15	0xbe11ff2d	-0.14257498
16	0x3e1a3ed3	0.15063028
17	0xbdbffaff	-0.093740456
18	0x3e56c769	0.20974506
19	0x3e3fea4f	0.18741725
20	0x3e2065e8	0.15663874
21	0x3dc6ea56	0.09712665
22	0xbd3073ff	-0.043079372
23	0x3e59c735	0.21267398
24	0x3e1d0e11	0.15337397
25	0xbd9158cc	-0.07097015
26	0xbd89995d	-0.06718705
27	0xbdadcfcd	-0.084869005
28	0xbdf78d4f	-0.12087499
29	0x3e0ec759	0.13943233
30	0x3e16286c	0.14663857
31	0xbd8b755a	-0.068094924
32	0xbe4563d4	-0.19276363
33	0x3d60a64f	0.054846104
34	0xbce96f71	-0.028495522
35	0x3da7abae	0.08187042
36	0x3db14dd6	0.08657424
37	0x3da47c9b	0.08031579
38	0x3e2c63b3	0.16834907
39	0xbda53e45	-0.080685176
40	0xbe02dba1	-0.12779094
41	0xbe301b2f	-0.1719787
42	0xbe1be5fb	-0.1522445
43	0x3c84a2ed	0.01619097
44	0xbd2a1c99	-0.04153118
45	0xbdfcaec7	-0.12338024
46	0x3d929bdd	0.07158635
47	0xbc8f6f9f	-0.01750928
48	0xbe0090b5	-0.12555201
49	0x3c1fec6a	0.009760955
50	0x3e56c466	0.20973358
51	0x3b0ba0c6	0.0021305545
52	0x3a7988f8	0.0009519006
53	0x3c8ad9bc	0.016949527
54	0x3d4d6429	0.05014435
55	0xbcec0377	-0.028810246
56	0x3d974085	0.07385353
57	0x3cd5a5eb	0.026080092
58	0xbdfcbefe	-0.12341116
59	0x3e2d1f3a	0.16906443
60	0x3d9a5e04	0.07537463
61	0x3dcc4ec3	0.0997596
62	0x3d8a9552	0.06766762
63	0x3e106319	0.14100303
64	0xbe1abe54	-0.15111667
65	0x3dbce2f4	0.092229754
66	0x3d1ca983	0.038247596
67	0x3d2d8e7a	0.042372204
68	0xbc71915e	-0.014744131
69	0x3d830826	0.063980386
70	0x3df0c418	0.11756152
71	0xbc90b46c	-0.017664157
72	0xbe5160bf	-0.20447062
73	0x3de7ede1	0.11324669
74	0xbd1978f3	-0.03746886
75	0x3ce58bcf	0.028020767
76	0x3e00f01b	0.12591593
77	0xbe23f779	-0.16012372
78	0xbde20b10	-0.11037266
79	0x3d80a68f	0.062817685
80	0xbe08c468	-0.13356173
81	0x3e05fa3d	0.1308374
82	0xbe462410	-0.19349694
83	0xbd35cc14	-0.044384077
84	0x3d73ccb8	0.059521407
85	0x3e18f429	0.1493689
86	0xbe2c8e22	-0.16851094
87	0xbd57ffd5	-0.052734215
88	0xbe49c2a0	-0.1970315
89	0x3dd2ed22	0.10299136
90	0xbd256bbe	-0.040385954
91	0x3e2f7276	0.17133507
92	0x3e328c98	0.17436445
93	0xbe4af0df	-0.19818448
94	0x3df36eff	0.11886405
95	0xbdc802c4	-0.097661525
96	0x3e18868f	0.1489508
97	0x3dedb784	0.116072685
98	0xbe07dd54	-0.13268024
99	0x3e05a95e	0.1305289
100	0x3dbdd062	0.092682615
101	0xbdf2ae44	-0.11849645
102	0xbcd7a731	-0.02632484
103	0x3e14b0a4	0.14520508
104	0x3de78ef9	0.11306567
105	0xbdbba145	-0.09161619
106	0xbd8dd380	-0.06925106
107	0xbc89a355	-0.016801516
108	0x3d61deb1	0.055144016
109	0x3e010c65	0.12602384
110	0xbe155edd	-0.14586969
111	0x3dc7d7b3	0.09757938
112	0xbe072db2	-0.13201025
113	0xbd8d6180	-0.06903362
114	0x3e1a75c2	0.15083984
115	0x3e0dedb8	0.13860214
116	0xbd21023e	-0.03930878
117	0xbd6353de	-0.055499904
118	0xbddf7692	-0.10911287
119	0x3e12ef23	0.14349036
120	0xbd858ca4	-0.06520966
121	0x3d864e25	0.06557874
122	0x3dda357c	0.106547326
123	0xbe02d102	-0.12775043
124	0x3e1e1075	0.15435965
125	0xbb88ad18	-0.004171025
126	0x3d086f24	0.033309117
127	0x3d1c6bee	0.038188867

lstm.bias_hh_l1 f4 [128]
0	0x3ce87293	0.028374946
1	0xbe2ea549	-0.17055239
2	0x3ce02c8b	0.02736499
3	0xbd509cb5	-0.050930697
4	0xbd9a6035	-0.07537881
5	0xbdf03711	-0.11729253
6	0x3d0d3d4d	0.03448229
7	0x3d9e4db1	0.07729662
8	0x3d0a4406	0.03375628
9	0x3df7c370	0.120978236
10	0xbded214f	-0.11578619
11	0xbe06f009	-0.13177504
12	0x3df16fc5	0.117888965
13	0x3e4ee0ae	0.20202896
14	0xbe02ebb7	-0.1278523
15	0x3da096c2	0.07841255
16	0xbdc9be13	-0.09850707
17	0xbccf2e66	-0.02529068
18	0xbdd2231b	-0.10260602
19	0x3e3679f7	0.17819963
20	0x3dcb4231	0.099247344
21	0x3dc8167a	0.09769912
22	0xbb2f036c	-0.002670492
23	0x3d395408	0.045246154
24	0x3e0c3d2e	0.13695213
25	0x3da9a612	0.082836285
26	0x3d364259	0.044496868
27	0xbdf6f9d8	-0.12059373
28	0xbdc1b4b9	-0.09458298
29	0x3d1020cf	0.03518754
30	0x3e1f182a	0.15536562
31	0xbc07e608	-0.00829459
32	0xbda11d8c	-0.07866964
33	0xbcd04004	-0.02542115
34	0xbdd899e5	-0.10576228
35	0xbe1ac011	-0.1511233
36	0xbca2b25a	-0.019860435
37	0xbdde5caf	-0.10857522
38	0x3e42f596	0.19038996
39	0xbde6c055	-0.11267153
40	0x3dc24ed2	0.0948769
41	0xbe386ff4	-0.18011457
42	0xbc115554	-0.0088704415
43	0xbd4ed4e0	-0.050495982
44	0x3d8f7c0c	0.07006082
45	0x3e3f8f7d	0.1870708
46	0x3e0cbbfc	0.13743585
47	0xbe091d7e	-0.13390157
48	0xbd8ac8b6	-0.06776564
49	0xbca89550	-0.02057901
50	0x3d14a15d	0.0362867
51	0x3dacbe16	0.084346935
52	0xbd976f65	-0.07394294
53	0x3da300fe	0.079591736
54	0x3e2257ff	0.1585388
55	0x3d613a74	0.054987386
56	0xbdb91065	-0.0903633
57	0xbe2b089c	-0.16702503
58	0x3bfe631f	0.007763281
59	0x3e1192d5	0.14216168
60	0x3de8a14c	0.1135889
61	0x3cd8d7ba	0.026470054
62	0xbcb6a649	-0.022296088
63	0xbda4be6c	-0.080441326
64	0xbca56839	-0.020191299
65	0x3df96c28	0.12178832
66	0xbde2bc96	-0.11071126
67	0xbdbbb37c	-0.09165093
68	0x3d3d3014	0.04618843
69	0x3da7256d	0.08161435
70	0x3c13bd82	0.00901735
71	0xbc2ec3aa	-0.010666767
72	0xbdcecc9a	-0.100976184
73	0x3cc28ee1	0.02374977
74	0xba8421ef	-0.0010080914
75	0xbbdc98a6	-0.0067320643
76	0xbc8830bb	-0.016624799
77	0xbda8de4a	-0.08245523
78	0xbd5e2b76	-0.054240666
79	0xbdd1da98	-0.102467716
80	0xbda56d9e	-0.080775484
81	0xbdc770ff	-0.09738349
82	0xbe507ce5	-0.20360143
83	0x3e154c30	0.14579844
84	0xbe1bb19c	-0.15204471
85	0x3dafd029	0.08584625
86	0x3dcf75c7	0.10129886
87	0x3e05560d	0.13021107
88	0x3d42c6a6	0.047552727
89	0xbc7af417	-0.015316985
90	0x3d86f839	0.065903135
91	0x3dd639f1	0.1046027
92	0x3d0ef100	0.034897804
93	0xbc21726f	-0.009853943
94	0xbdef9c0e	-0.11699687
95	0xbde57752	-0.11204399
96	0xbd706924	-0.05869402
97	0x3d4aae99	0.049482916
98	0xbd90c6fb	-0.070692025
99	0x3dcd77b9	0.10032601
100	0x3e26bbde	0.16282603
101	0x3de82274	0.113346964
102	0x3e44a918	0.19205129
103	0xbd49d5fb	-0.049276333
104	0x3e39ea8b	0.18155877
105	0xbd8e0601	-0.06934739
106	0xbe0f0854	-0.1396802
107	0x3dba42e2	0.09094788
108	0x3dc3c144	0.09558347
109	0x3e48ceb9	0.19610108
110	0x3c0964a4	0.008385811
111	0x3e3d2d14	0.18474227
112	0xbe00baf5	-0.12571318
113	0xbd352368	-0.04422322
114	0xbde5e1f6	-0.11224739
115	0x3e4a0e56	0.19732031
116	0x3df8fd69	0.12157709
117	0xbe20ba59	-0.15696086
118	0x3d262a93	0.040567946
119	0x3da9950b	0.08280381
120	0x3b0bdd43	0.00213416
121	0x3de9e98b	0.11421498
122	0x3d42c773	0.04755349
123	0xbd10c844	-0.03534724
124	0x3dbdaa03	0.09260943
125	0xbde0fffc	-0.10986325
126	0xbd9c6359	-0.076361366
127	0xbd0998b6	-0.033592902

fc.weight f4 [1, 32]
0	0xbc94d414	-0.018167533
1	0xbd1280e8	-0.035767466
2	0xbe103887	-0.14084063
3	0x3e021c68	0.12706149
4	0x3ddad571	0.10685242
5	0xbd70aba9	-0.058757458
6	0x3d8cf04d	0.06881771
7	0xbe13a32b	-0.14417712
8	0xbdbe4b6d	-0.0929173
9	0xbdfb303a	-0.12265058
10	0xbd674f13	-0.056471895
11	0x3dc143c1	0.09436751
12	0x3e36f82e	0.1786811
13	0xbde9ade2	-0.11410119
14	0xbd8db93a	-0.06920095
15	0xbdce30a3	-0.100678705
16	0xbcfa3d88	-0.030546919
17	0xbe52f5bc	-0.20601553
18	0x3da6ab03	0.08138087
19	0x3dffe40e	0.1249467
20	0xbea5f003	-0.32409677
21	0xbdd958fb	-0.10612675
22	0x3e10874e	0.14114115
23	0xbe8b2f13	-0.27184352
24	0xbd830596	-0.0639755
25	0xbcadf07c	-0.021232836
26	0xbcccb343	-0.024987822
27	0x3e585098	0.21124494
28	0x3e183010	0.14862084
29	0x3d8398b9	0.06425614
30	0x3e70cdd4	0.23516017
31	0x3ddf012c	0.108888954
